LanguageModels/model2/model.pth (torch, 936562 bytes, 110 tensors)

token_embedding_table.weight f4 [65, 64]
0	0xbe8e0223	-0.27736005
1	0x3ebabe0b	0.36473116
2	0xbfc0e272	-1.5069106
3	0x3f35b8b8	0.70984983
4	0x3f2e0341	0.67973715
5	0xbf5048c3	-0.81361026
6	0x3f06f5b7	0.5271868
7	0xbf3b1759	-0.730825
8	0xbfaf219b	-1.368213
9	0x3f8901b0	1.070364
10	0x3fdc499a	1.7209961
11	0xbfcc019f	-1.5937995
12	0xbef8c66f	-0.48588893
13	0x3f5150c4	0.81763864
14	0xbfe08ef0	-1.7543621
15	0x3e9ff924	0.31244767
16	0xbe51754a	-0.20454898
17	0xbf904693	-1.1271538
18	0x3fed6623	1.8546795
19	0xbf5333a4	-0.8250067
20	0x3f1072af	0.56424993
21	0xbfb27585	-1.3942114
22	0xbf82794f	-1.019327
23	0x3e12a06f	0.14319013
24	0xbee1b08b	-0.44080004
25	0xbf0639a9	-0.5243173
26	0x3e603aec	0.21897477
27	0x3fbe041d	1.4845005
28	0x3f2a3a7c	0.6649549
29	0x3f4befd1	0.79662806
30	0x3e5e2177	0.21692453
31	0xbf16d699	-0.589212
32	0x3e77cc9f	0.2419915
33	0x3fb1a794	1.3879266
34	0x3eae9123	0.34095106
35	0xbe6d5a9b	-0.23179094
36	0x3fc7c638	1.5607367
37	0x3df1b04d	0.11801205
38	0x3f21fe50	0.63278675
39	0xbf640b39	-0.89079624
40	0x3fa9e95d	1.3274342
41	0x3ed603b2	0.41799694
42	0xbf201b59	-0.6254173
43	0xbf535bc9	-0.8256193
44	0xbfa35638	-1.2760687
45	0xbf4a1f31	-0.78953844
46	0x3e5dfc91	0.21678378
47	0x3e576ce5	0.21037634
48	0xbfc1cc18	-1.514041
49	0x3f4f4e7c	0.8097913
50	0xbfdb2916	-1.7121913
51	0xbdcb216e	-0.099184856
52	0x3e45cf78	0.19317424
53	0xbec07928	-0.37592435
54	0x3f817eb1	1.0116788
55	0xbce93804	-0.028469093
56	0xbf9dd262	-1.2329829
57	0xbec25842	-0.3795796
58	0x3e79f2da	0.24409047
59	0x3ed91315	0.4239737
60	0x3fc50f3c	1.5395274
61	0xbfe05198	-1.75249
62	0x3eccbcff	0.39987943
63	0x3f54ffe5	0.83202964
64	0x3dfab808	0.122421324
65	0xbf21f118	-0.63258505
66	0x3eed20a7	0.46313974
67	0x3eb26df3	0.3484951
68	0xbe605f43	-0.2191134
69	0xbfc1eac9	-1.5149776
70	0x3f84d0dc	1.0376239
71	0x3f58dc26	0.8471092
72	0xbf31b029	-0.69409424
73	0x3e722691	0.23647524
74	0x3d1b4273	0.037905168
75	0x3f0d60f2	0.5522605
76	0x3e95e633	0.2927719
77	0x3f042bbd	0.5162924
78	0xbf93ee98	-1.1557188
79	0xbf1d6d03	-0.61494464
80	0xbf207065	-0.626715
81	0x3e94232c	0.28933084
82	0xbfa0ec32	-1.2572081
83	0xbd37713f	-0.044785734
84	0x3e15e20f	0.14637016
85	0x3f7c2696	0.9849638
86	0x403d341e	2.956306
87	0xbe0dc372	-0.13844088
88	0x3d871505	0.06595806
89	0xbfa8115c	-1.3130298
90	0x3f93ee88	1.1557169
91	0x3f36551a	0.71223605
92	0xbda72d85	-0.08162979
93	0x3f84fdaf	1.0389918
94	0xbd9ecb9b	-0.077536784
95	0x4009cd32	2.1531491
96	0x3ed4ba23	0.4154826
97	0xbd0c44e0	-0.03424537
98	0xbf42535c	-0.75908446
99	0xbf407947	-0.75185055
100	0x3fa57323	1.2925762
101	0x3dc48bf4	0.095970064
102	0x3f58a56c	0.84627414
103	0x401a5773	2.4115875
104	0xbea27e7e	-0.3173713
105	0x3df729c2	0.120685115
106	0x3fcf0c7e	1.6175687
107	0x3b98ced5	0.004663328
108	0xbe2cc10c	-0.16870517
109	0xbf9fdd4a	-1.2489407
110	0xbdd3373f	-0.10313272
111	0xc01bc8f7	-2.434141
112	0x3e4208e6	0.18948707
113	0xbf151665	-0.58237296
114	0xbf42dd6f	-0.7611913
115	0xbf1427a7	-0.57873005
116	0xbe4fccf1	-0.20293023
117	0xbf76c486	-0.9639362
118	0xbe167b33	-0.14695434
119	0xbfab61f4	-1.3389268
120	0x3eecf879	0.4628332
121	0xbdbe01c8	-0.092776835
122	0xbfa51469	-1.2896854
123	0x3e859bb5	0.26095358
124	0x3ebb52e0	0.36586666
125	0xbeafee00	-0.34361267
126	0x3ffc50dd	1.9712178
127	0x3f5e7a15	0.8690503
128	0xbfb136a1	-1.3844796
129	0x3e068027	0.13134824
130	0xbfa7b20a	-1.3101208
131	0x3f044910	0.51673985
132	0xbf6ddb39	-0.9291263
133	0xbf31a644	-0.69394326
134	0x3f846c18	1.0345488
135	0x3f9bdfa5	1.2177626
136	0xbf9a9e91	-1.2079641
137	0x3f2da25a	0.67825854
138	0xbf85b051	-1.0444432
139	0xbebc1aa3	-0.36739072
140	0x3f14722f	0.5798673
141	0xbee5144c	-0.44742048
142	0xbede8146	-0.43458003
143	0xbf815d02	-1.0106509
144	0xbf6a2015	-0.91455203
145	0xbe8b8736	-0.27251595
146	0x3e2fc331	0.17164303
147	0x3f337180	0.7009506
148	0xbe8e6c77	-0.27817127
149	0xbdd23c57	-0.10265415
150	0x3eadbdc7	0.3393385
151	0xbf87701e	-1.058109
152	0xbfacab92	-1.3489859
153	0xc02b500a	-2.6767602
154	0x3e03575f	0.12826298
155	0x3cbc85a2	0.02301294
156	0xbf867e45	-1.0507284
157	0xbcdb1efd	-0.026748175
158	0x400a75d8	2.1634426
159	0x3f2c4ada	0.67301714
160	0xbf10f25b	-0.56619805
161	0x3e4e86d8	0.20168626
162	0x3fb52fe9	1.4155246
163	0x3ea48e5b	0.3213986
164	0xbed27d71	-0.4111133
165	0x4004b1bf	2.0733488
166	0x3e8c2076	0.27368516
167	0xbe5ad2de	-0.21369502
168	0x3f90b87d	1.1306301
169	0xbf7ea53f	-0.99470896
170	0x3eebe965	0.46076503
171	0xbe604c0a	-0.21904007
172	0xbfee7369	-1.862897
173	0xbde68abe	-0.11256932
174	0x3f1281f1	0.57229525
175	0xbf029122	-0.51002705
176	0xbf19d559	-0.6009117
177	0x3eaacd6c	0.3335985
178	0xbea38608	-0.31938195
179	0x3ff08c21	1.8792764
180	0x3e9d2944	0.30695546
181	0xc01834b0	-2.3782158
182	0xbd4b31f2	-0.04960818
183	0x3f45944b	0.771794
184	0xbec733df	-0.38906762
185	0x3fb9818c	1.449266
186	0xbfc4e1a8	-1.5381365
187	0xbfdb9333	-1.7154297
188	0x3f7f2ef6	0.9968103
189	0x3ddb464e	0.10706769
190	0xbff8f3d7	-1.9449414
191	0xbec0ae14	-0.3763281
192	0x3b9bf544	0.0047594626
193	0xbe4ada90	-0.19809937
194	0x3ff6fe1b	1.9296297
195	0x3fb914da	1.4459488
196	0xbee90b92	-0.4551664
197	0xbf46f715	-0.7772077
198	0x3f2f2a71	0.68424135
199	0x3d459843	0.04824091
200	0xbdae0c0e	-0.08498393
201	0xbf396618	-0.7242141
202	0x3e6d3386	0.23164186
203	0x3f7850be	0.969982
204	0x3f9aa446	1.2081382
205	0xbf628168	-0.8847871
206	0xc0056dd6	-2.0848289
207	0x3f3477db	0.70495385
208	0x40106032	2.2558713
209	0x3ef47fa0	0.4775362
210	0x400ef0f6	2.233457
211	0x3f490d4b	0.7853591
212	0x3f397c8b	0.7245566
213	0x3e9bd72d	0.30437604
214	0x3fa0b9b4	1.2556672
215	0xbd6216bb	-0.05519746
216	0x3ecfea1c	0.406083
217	0xbed9eb5f	-0.42562386
218	0x3f6f3aa8	0.9344888
219	0xbeb2cf8b	-0.34923968
220	0xbe9301bf	-0.2871227
221	0xbe284f97	-0.16436611
222	0x3f692102	0.9106599
223	0xbe23c739	-0.15993966
224	0xbf7fa742	-0.9986459
225	0x3fbd3477	1.4781636
226	0x3fb0ead2	1.3821661
227	0xbf7d078c	-0.9883964
228	0x3e99694a	0.29963142
229	0x400f34e2	2.2376027
230	0x3ee8299b	0.45344242
231	0xbf216cb6	-0.63056505
232	0xbf40af85	-0.7526782
233	0xbf314de2	-0.69259465
234	0xbe7dc9f6	-0.24784073
235	0x3fb18335	1.3868166
236	0x3ffb0d38	1.9613409
237	0x3f1f6585	0.6226428
238	0x3eba1b20	0.3634882
239	0xbe8ec3a2	-0.2788363
240	0xbda339f8	-0.07970041
241	0xbfccb664	-1.5993161
242	0xbf1289eb	-0.57241696
243	0xbf11bb06	-0.56926
244	0xbebc2889	-0.36749676
245	0xbf96bb88	-1.177598
246	0x3f1661c3	0.5874292
247	0xc01c761e	-2.4447093
248	0x3ee16c13	0.44027767
249	0x3f39a3a2	0.7251531
250	0xbeabf227	-0.33583185
251	0x3fab7b9e	1.33971
252	0x3f39e236	0.72610795
253	0xbf968cc0	-1.1761703
254	0x3f89a625	1.0753828
255	0x3cf96eb9	0.030448304

position_embedding_table.weight f4 [32, 64]
0	0x3eca0a9b	0.39461216
1	0xbebaf101	-0.36511996
2	0xc035067e	-2.8285213
3	0xbf4b8376	-0.7949747
4	0xbe159452	-0.14607361
5	0xc002798c	-2.0386686
6	0x3e46640b	0.19374101
7	0xbea581f8	-0.3232572
8	0x3e656f01	0.22405626
9	0x3f0d3c6f	0.5517034
10	0xbfc497c0	-1.535881
11	0xbfa5d398	-1.2955198
12	0xbf72e93c	-0.9488714
13	0xbe57584a	-0.21029773
14	0x3e818389	0.25295666
15	0xbe26280d	-0.16226216
16	0xbe74f2f7	-0.23920809
17	0x3f66ecc3	0.9020502
18	0xbf2b498b	-0.6690909
19	0xbe0d3f84	-0.1379376
20	0xbe46f7e6	-0.19430503
21	0x40393e26	2.8944182
22	0xbbba2ed8	-0.0056818537
23	0xbff4e677	-1.9132832
24	0xbf95c238	-1.1699896
25	0x3e959580	0.29215622
26	0x3f376d56	0.7165121
27	0x3ec75e27	0.3893902
28	0xc01feee7	-2.4989564
29	0xbf38fc8e	-0.7226037
30	0xbebad679	-0.36491755
31	0x3fc7abde	1.5599325
32	0xbf9d0942	-1.226845
33	0xbdc1151c	-0.094278544
34	0x3e9218b4	0.28534472
35	0x3f03e727	0.51524585
36	0xbccde105	-0.025131712
37	0xbea432de	-0.3207006
38	0xbec90784	-0.39263546
39	0xbf1b9e91	-0.6078883
40	0x3f59609a	0.8491303
41	0xbf4e26eb	-0.80528134
42	0x3e037acc	0.12839812
43	0x3e908f45	0.28234306
44	0x400aee54	2.1707964
45	0x3e9ea5b7	0.30985805
46	0xbf077c97	-0.52924484
47	0xbf678257	-0.9043326
48	0x3eeef6fe	0.46672815
49	0xbf52c540	-0.8233223
50	0x3e27dbe7	0.1639248
51	0xbf410b68	-0.7540803
52	0x3dfb19dc	0.12260792
53	0x3ee19666	0.44060057
54	0xbed4ae89	-0.4153941
55	0x3e9d29f2	0.30696064
56	0x3f0ead74	0.5573342
57	0xbf39d5df	-0.72591966
58	0x3fe0bc40	1.7557449
59	0x3e2b0cbd	0.16704078
60	0xbf0e9071	-0.5568915
61	0x3f7fbe81	0.9990006
62	0xbeb4c705	-0.3530809
63	0xbfde90de	-1.738796
64	0x3fc63749	1.5485622
65	0xbf9dc77f	-1.2326506
66	0xbf8da1ea	-1.1065037
67	0x3f863a71	1.0486585
68	0x3f9ee71c	1.2414279
69	0xbc949560	-0.018137634
70	0xbdba6554	-0.09101358
71	0xbc3f5a50	-0.011679247
72	0x3f040c30	0.51581097
73	0x3f4119bc	0.7542989
74	0x3fb6f65d	1.4293934
75	0x3e6fa5cd	0.23403092
76	0xbf430466	-0.76178586
77	0x3f9f87d1	1.2463323
78	0x3fc171d1	1.5112859
79	0x3f34fce9	0.7069841
80	0x3e6ed202	0.23322299
81	0xbd63a0ee	-0.055573396
82	0xbe9b57b0	-0.30340338
83	0x400e5336	2.2238288
84	0xbbc31094	-0.005952904
85	0x3f69eec4	0.9137995
86	0x3ef91475	0.4864842
87	0xbf43bde8	-0.7646165
88	0x3cb9616c	0.022629462
89	0x3ee3b62f	0.44474933
90	0x3f18a27c	0.5962293
91	0x3e943614	0.28947508
92	0xbf48135e	-0.7815455
93	0xbdca0629	-0.09864456
94	0x3e96fb55	0.29488626
95	0x3e9733cf	0.29531714
96	0xbe97b981	-0.29633716
97	0xbf73e838	-0.9527621
98	0x3fb90800	1.4455566
99	0xbe48a5fd	-0.1959457
100	0x3eac590e	0.33661693
101	0x3d30b41c	0.043140516
102	0xbcc6fba8	-0.02428992
103	0xbf27f91a	-0.65614474
104	0x3f9c77ec	1.2224097
105	0x4018ccc5	2.3874981
106	0xbfeb66a5	-1.83907
107	0xbefca0da	-0.4934147
108	0x3cbc33dd	0.02297395
109	0x3fa6cda2	1.3031504
110	0xbe9d3a3a	-0.30708486
111	0x3d583f21	0.05279458
112	0x3f906856	1.1281841
113	0x3f88e4f2	1.0694869
114	0xbea40a45	-0.32039085
115	0x3f658317	0.8965315
116	0x3e24a186	0.16077241
117	0x3e2becd9	0.16789569
118	0x3d8e093f	0.06935357
119	0xbfe826df	-1.8136863
120	0xbd8e0c65	-0.06935958
121	0x3d7fb4c1	0.06242824
122	0x3ee9dc1b	0.4567574
123	0x3e809123	0.2511073
124	0xbeb5a187	-0.35474798
125	0x3fa2a1af	1.2705592
126	0x3fc3e011	1.5302755
127	0x3f9d03ed	1.2266823
128	0xbf03d80f	-0.51501554
129	0xc0196d3b	-2.397292
130	0xbe4e903b	-0.20172207
131	0x3fa93bdb	1.3221391
132	0x3ef641a4	0.48096955
133	0x3f9e1506	1.2350166
134	0xbfbc419d	-1.4707524
135	0x3d9f64e6	0.07782917
136	0xbe16f697	-0.14742504
137	0x3ee390f2	0.44446522
138	0xbe5b7c0b	-0.21434037
139	0x3f990182	1.1953585
140	0xbd25c07a	-0.040466763
141	0x3f071c6e	0.52777755
142	0x3f9b6fda	1.2143509
143	0x3f94425a	1.1582749
144	0x3f552bbb	0.8326985
145	0x3ff1a597	1.8878659
146	0x3ed0d773	0.40789375
147	0x3f17876a	0.59191
148	0xbe86872f	-0.26275012
149	0x3f1a3fd1	0.60253626
150	0x3f79a3e8	0.97515726
151	0x3ee9931a	0.45620042
152	0xbf5dc61c	-0.86630416
153	0x3f83d3c7	1.0299004
154	0x3e280552	0.1640828
155	0xbc2f4e36	-0.010699799
156	0x3e895bb9	0.2682779
157	0x3ff829c7	1.938775
158	0x3f31a539	0.69392735
159	0x3f2de8cf	0.6793336
160	0xbf2d5df0	-0.6772146
161	0xbf0e860e	-0.556733
162	0xbf47765d	-0.77914983
163	0xbf17e301	-0.59330755
164	0xbe1bde6c	-0.15221566
165	0x3e0ada07	0.13559733
166	0x3f910508	1.132966
167	0xbe1f229c	-0.15540546
168	0x3ec4b9de	0.38423055
169	0x3f2c9e09	0.6742864
170	0x3f988a7d	1.1917263
171	0x3dc7fca8	0.09764987
172	0x3f04f164	0.5193083
173	0x3f6197a9	0.8812204
174	0xbf87fe13	-1.0624412
175	0x3ef8ba80	0.48579788
176	0xbeacd5d1	-0.3375688
177	0xbe8137e3	-0.2523795
178	0xbfc332dd	-1.5249897
179	0x3fb136b7	1.3844823
180	0x3f6895f7	0.9085383
181	0x3fc30210	1.5235004
182	0xbe5d1c7f	-0.21592902
183	0x3f59ef7e	0.8513106
184	0x3f321480	0.6956253
185	0xbe9de137	-0.30835888
186	0x3d5151a0	0.051103234
187	0xbf348949	-0.7052198
188	0x3eb1dc28	0.34738278
189	0xbfabf412	-1.3433859
190	0xbf404254	-0.7510121
191	0x3fd580d5	1.6679941
192	0xbea06170	-0.3132434
193	0x3fa9d66d	1.3268563
194	0x3f433354	0.76250196
195	0xbfcd6b7d	-1.6048428
196	0x3fe99a7c	1.825027
197	0x3f39121e	0.7229327
198	0x3e02eba0	0.12785196
199	0x3eba2a7b	0.36360535
200	0x3fde66a7	1.7375077
201	0x3efa4c6e	0.48886436
202	0x3fa51de9	1.2899753
203	0xbfacdd07	-1.3504952
204	0xbf1afad2	-0.6053897
205	0xbf1b45f2	-0.60653603
206	0xbebaced6	-0.36485928
207	0x3f1bb652	0.60825074
208	0x3f34d3cd	0.7063568
209	0x3f917896	1.1364925
210	0xbf11a33d	-0.56889707
211	0xbedf4a03	-0.43611154
212	0xbf6c21c1	-0.92239004
213	0xbf0d9bb3	-0.55315703
214	0x400a5c1f	2.1618726
215	0x3e7783c2	0.24171355
216	0xbf6a9306	-0.9163059
217	0xbfa4c86d	-1.2873665
218	0x3fcccf0b	1.6000684
219	0x3f5ede99	0.8705841
220	0xbe0cfc45	-0.13768108
221	0xbe915892	-0.28387886
222	0x3f83d768	1.0300112
223	0x3e79c54e	0.24391672
224	0x3f870352	1.0547888
225	0xbe782f81	-0.24236871
226	0x3f887740	1.0661392
227	0xbf8e9261	-1.1138421
228	0xbfce5df7	-1.6122426
229	0x3f878136	1.0586307
230	0x3f8fb55f	1.1227225
231	0x3b570f94	0.0032815682
232	0xbfafd295	-1.373614
233	0x3d78e7b2	0.060767837
234	0x3f84c2a9	1.0371906
235	0xbfa5ba55	-1.2947489
236	0xbfa37157	-1.2768964
237	0x3f46feb1	0.7773238
238	0xbf9be693	-1.2179741
239	0xbf5bce7b	-0.8586194
240	0xbf8acb27	-1.0843247
241	0xbf21de09	-0.63229424
242	0xbf0ad52d	-0.5423153
243	0xbf8c107d	-1.0942532
244	0xbeb21424	-0.3478099
245	0xbe183f73	-0.14867954
246	0x3f88d6aa	1.069051
247	0xc0163e8b	-2.3475673
248	0xbf347cb5	-0.7050279
249	0x3f110aa2	0.5665685
250	0x3eaff6b4	0.34367907
251	0x3ea2eb35	0.31820074
252	0xbfb03ab2	-1.3767912
253	0x4029609b	2.6465213
254	0x3fb4b028	1.4116259
255	0x3f0538d3	0.5203983

blocks.0.sa.heads.0.tril f4 [32, 32]
0	0x3f800000	1.0
1	0x00000000	0.0
2	0x00000000	0.0
3	0x00000000	0.0
4	0x00000000	0.0
5	0x00000000	0.0
6	0x00000000	0.0
7	0x00000000	0.0
8	0x00000000	0.0
9	0x00000000	0.0
10	0x00000000	0.0
11	0x00000000	0.0
12	0x00000000	0.0
13	0x00000000	0.0
14	0x00000000	0.0
15	0x00000000	0.0
16	0x00000000	0.0
17	0x00000000	0.0
18	0x00000000	0.0
19	0x00000000	0.0
20	0x00000000	0.0
21	0x00000000	0.0
22	0x00000000	0.0
23	0x00000000	0.0
24	0x00000000	0.0
25	0x00000000	0.0
26	0x00000000	0.0
27	0x00000000	0.0
28	0x00000000	0.0
29	0x00000000	0.0
30	0x00000000	0.0
31	0x00000000	0.0
32	0x3f800000	1.0
33	0x3f800000	1.0
34	0x00000000	0.0
35	0x00000000	0.0
36	0x00000000	0.0
37	0x00000000	0.0
38	0x00000000	0.0
39	0x00000000	0.0
40	0x00000000	0.0
41	0x00000000	0.0
42	0x00000000	0.0
43	0x00000000	0.0
44	0x00000000	0.0
45	0x00000000	0.0
46	0x00000000	0.0
47	0x00000000	0.0
48	0x00000000	0.0
49	0x00000000	0.0
50	0x00000000	0.0
51	0x00000000	0.0
52	0x00000000	0.0
53	0x00000000	0.0
54	0x00000000	0.0
55	0x00000000	0.0
56	0x00000000	0.0
57	0x00000000	0.0
58	0x00000000	0.0
59	0x00000000	0.0
60	0x00000000	0.0
61	0x00000000	0.0
62	0x00000000	0.0
63	0x00000000	0.0
64	0x3f800000	1.0
65	0x3f800000	1.0
66	0x3f800000	1.0
67	0x00000000	0.0
68	0x00000000	0.0
69	0x00000000	0.0
70	0x00000000	0.0
71	0x00000000	0.0
72	0x00000000	0.0
73	0x00000000	0.0
74	0x00000000	0.0
75	0x00000000	0.0
76	0x00000000	0.0
77	0x00000000	0.0
78	0x00000000	0.0
79	0x00000000	0.0
80	0x00000000	0.0
81	0x00000000	0.0
82	0x00000000	0.0
83	0x00000000	0.0
84	0x00000000	0.0
85	0x00000000	0.0
86	0x00000000	0.0
87	0x00000000	0.0
88	0x00000000	0.0
89	0x00000000	0.0
90	0x00000000	0.0
91	0x00000000	0.0
92	0x00000000	0.0
93	0x00000000	0.0
94	0x00000000	0.0
95	0x00000000	0.0
96	0x3f800000	1.0
97	0x3f800000	1.0
98	0x3f800000	1.0
99	0x3f800000	1.0
100	0x00000000	0.0
101	0x00000000	0.0
102	0x00000000	0.0
103	0x00000000	0.0
104	0x00000000	0.0
105	0x00000000	0.0
106	0x00000000	0.0
107	0x00000000	0.0
108	0x00000000	0.0
109	0x00000000	0.0
110	0x00000000	0.0
111	0x00000000	0.0
112	0x00000000	0.0
113	0x00000000	0.0
114	0x00000000	0.0
115	0x00000000	0.0
116	0x00000000	0.0
117	0x00000000	0.0
118	0x00000000	0.0
119	0x00000000	0.0
120	0x00000000	0.0
121	0x00000000	0.0
122	0x00000000	0.0
123	0x00000000	0.0
124	0x00000000	0.0
125	0x00000000	0.0
126	0x00000000	0.0
127	0x00000000	0.0
128	0x3f800000	1.0
129	0x3f800000	1.0
130	0x3f800000	1.0
131	0x3f800000	1.0
132	0x3f800000	1.0
133	0x00000000	0.0
134	0x00000000	0.0
135	0x00000000	0.0
136	0x00000000	0.0
137	0x00000000	0.0
138	0x00000000	0.0
139	0x00000000	0.0
140	0x00000000	0.0
141	0x00000000	0.0
142	0x00000000	0.0
143	0x00000000	0.0
144	0x00000000	0.0
145	0x00000000	0.0
146	0x00000000	0.0
147	0x00000000	0.0
148	0x00000000	0.0
149	0x00000000	0.0
150	0x00000000	0.0
151	0x00000000	0.0
152	0x00000000	0.0
153	0x00000000	0.0
154	0x00000000	0.0
155	0x00000000	0.0
156	0x00000000	0.0
157	0x00000000	0.0
158	0x00000000	0.0
159	0x00000000	0.0
160	0x3f800000	1.0
161	0x3f800000	1.0
162	0x3f800000	1.0
163	0x3f800000	1.0
164	0x3f800000	1.0
165	0x3f800000	1.0
166	0x00000000	0.0
167	0x00000000	0.0
168	0x00000000	0.0
169	0x00000000	0.0
170	0x00000000	0.0
171	0x00000000	0.0
172	0x00000000	0.0
173	0x00000000	0.0
174	0x00000000	0.0
175	0x00000000	0.0
176	0x00000000	0.0
177	0x00000000	0.0
178	0x00000000	0.0
179	0x00000000	0.0
180	0x00000000	0.0
181	0x00000000	0.0
182	0x00000000	0.0
183	0x00000000	0.0
184	0x00000000	0.0
185	0x00000000	0.0
186	0x00000000	0.0
187	0x00000000	0.0
188	0x00000000	0.0
189	0x00000000	0.0
190	0x00000000	0.0
191	0x00000000	0.0
192	0x3f800000	1.0
193	0x3f800000	1.0
194	0x3f800000	1.0
195	0x3f800000	1.0
196	0x3f800000	1.0
197	0x3f800000	1.0
198	0x3f800000	1.0
199	0x00000000	0.0
200	0x00000000	0.0
201	0x00000000	0.0
202	0x00000000	0.0
203	0x00000000	0.0
204	0x00000000	0.0
205	0x00000000	0.0
206	0x00000000	0.0
207	0x00000000	0.0
208	0x00000000	0.0
209	0x00000000	0.0
210	0x00000000	0.0
211	0x00000000	0.0
212	0x00000000	0.0
213	0x00000000	0.0
214	0x00000000	0.0
215	0x00000000	0.0
216	0x00000000	0.0
217	0x00000000	0.0
218	0x00000000	0.0
219	0x00000000	0.0
220	0x00000000	0.0
221	0x00000000	0.0
222	0x00000000	0.0
223	0x00000000	0.0
224	0x3f800000	1.0
225	0x3f800000	1.0
226	0x3f800000	1.0
227	0x3f800000	1.0
228	0x3f800000	1.0
229	0x3f800000	1.0
230	0x3f800000	1.0
231	0x3f800000	1.0
232	0x00000000	0.0
233	0x00000000	0.0
234	0x00000000	0.0
235	0x00000000	0.0
236	0x00000000	0.0
237	0x00000000	0.0
238	0x00000000	0.0
239	0x00000000	0.0
240	0x00000000	0.0
241	0x00000000	0.0
242	0x00000000	0.0
243	0x00000000	0.0
244	0x00000000	0.0
245	0x00000000	0.0
246	0x00000000	0.0
247	0x00000000	0.0
248	0x00000000	0.0
249	0x00000000	0.0
250	0x00000000	0.0
251	0x00000000	0.0
252	0x00000000	0.0
253	0x00000000	0.0
254	0x00000000	0.0
255	0x00000000	0.0

blocks.0.sa.heads.0.key.weight f4 [16, 64]
0	0x3d9ee8a4	0.077592164
1	0x3bfb0dde	0.007661565
2	0xbd3a3110	-0.045456946
3	0xbd0710c1	-0.032974962
4	0xbd7cf6f1	-0.06175894
5	0x3ab4a92e	0.001378333
6	0x3c773134	0.0150874145
7	0xbd129b5b	-0.03579269
8	0x3e1195a3	0.14217238
9	0x3e336181	0.17517664
10	0x3c1b312d	0.009472174
11	0x3d980970	0.07423675
12	0x3e11e335	0.14246829
13	0xbe1d5558	-0.15364587
14	0x3be80d41	0.007081658
15	0xbd7f56fa	-0.062338807
16	0xbdd79490	-0.10526383
17	0x3d78c338	0.06073305
18	0x3d2221d3	0.03958304
19	0xbde36d19	-0.11104793
20	0x3ce4d971	0.027935715
21	0xbdde2f42	-0.108488575
22	0x3bd19292	0.0063956464
23	0x3d33107d	0.043716896
24	0x3d868533	0.065683745
25	0x3dc65d17	0.09685724
26	0x3d0f3a1a	0.03496752
27	0xbbf3e684	-0.007443251
28	0x3da1f3a8	0.07907802
29	0x3d11ac82	0.035564907
30	0xbd8d771e	-0.069074854
31	0xbda504a1	-0.080575235
32	0x3e0ccfb5	0.13751109
33	0x3deff9f5	0.117175974
34	0x3d04824a	0.032350816
35	0xbcd7ce59	-0.026343511
36	0x3d94bd1c	0.07262632
37	0x3ce8f6dd	0.028438026
38	0xbdc74d3f	-0.097315304
39	0x3de093ef	0.10965716
40	0x3d08521c	0.03328143
41	0x3bb5fd28	0.00555386
42	0x3c6ee028	0.01457981
43	0x3c0d88f8	0.008638613
44	0xbd699cbd	-0.057034243
45	0x3dcf1ece	0.101132974
46	0x3debab33	0.11507263
47	0xbbc4d5fb	-0.006006954
48	0x3d71e65f	0.05905759
49	0xbe0fe6ef	-0.14052938
50	0x3d6791ba	0.05653546
51	0xbd9f6519	-0.07782955
52	0xba590215	-0.00082782033
53	0xbe0a4ee5	-0.13506658
54	0xbdd9bc8c	-0.106316656
55	0x3e0a2d21	0.13493778
56	0xbd3cdd6c	-0.0461096
57	0x3bed6106	0.007244232
58	0xbd6b34c4	-0.057423368
59	0x3db2887e	0.0871744
60	0x3d69cfbc	0.057082877
61	0xbba910e0	-0.0051594824
62	0x3c28e8e5	0.010309433
63	0xbdbedd57	-0.09319561
64	0x3df953d7	0.12174194
65	0xbd1b2a9e	-0.03788244
66	0xbd939df1	-0.07207859
67	0xbdbf5191	-0.093417294
68	0xbc3fc5d3	-0.01170488
69	0xbd85e20a	-0.06537254
70	0xbd90ede0	-0.07076621
71	0xbce1e3e1	-0.027574481
72	0xbce13a7e	-0.027493712
73	0x3d1510e3	0.036393058
74	0xbe116506	-0.14198694
75	0xbdceb664	-0.10093382
76	0xbd100c05	-0.035167713
77	0x3e29e5bb	0.16591541
78	0x3d82d51e	0.06388305
79	0xbd516ee1	-0.051131133
80	0x3db22ebe	0.087003216
81	0xbdfb93ff	-0.122840874
82	0xbd83ba4c	-0.06432018
83	0xbdf5013b	-0.11963125
84	0x3e265d77	0.16246592
85	0xbd637aef	-0.05553716
86	0xbdbe313c	-0.092867345
87	0xbdec5efc	-0.11541554
88	0xbc54f466	-0.012997722
89	0x3cf12f09	0.029441373
90	0x3d844e6f	0.064602725
91	0xbd4a14c0	-0.049336195
92	0x3e11f892	0.14254978
93	0x3dd34158	0.10315198
94	0x3d9790a6	0.074006364
95	0x3d5c7d5a	0.053830482
96	0xbdfe159b	-0.12406465
97	0xbd58cba7	-0.052928593
98	0xbcfd9bef	-0.030958144
99	0xbe1ea712	-0.1549342
100	0x3d40e454	0.04709275
101	0xbc8c1dd8	-0.017104074
102	0xbd94439a	-0.072394565
103	0x3dd88346	0.105719134
104	0x3dbeb31e	0.09311508
105	0x3d4a63d1	0.0494116
106	0xbd0f0122	-0.03491319
107	0x3e81dba2	0.2536288
108	0x3bbca24d	0.0057566524
109	0x3d111c16	0.035427175
110	0xbd99d8fc	-0.075120896
111	0xbce3b4fa	-0.027796257
112	0xbe4565b5	-0.1927708
113	0x3d8bfc13	0.06835189
114	0xbd143fb2	-0.036193557
115	0x3b6c5285	0.0036059928
116	0x3d2a5d58	0.041592926
117	0x3c9b3c93	0.018949782
118	0xbd4dd185	-0.05024864
119	0x3d108ba1	0.03528941
120	0xbd50b81e	-0.050956838
121	0x3daf8bdb	0.08571597
122	0xbdb7c5e0	-0.089732885
123	0xbe0cb0e2	-0.1373935
124	0x3d0cfc97	0.034420576
125	0xbd816fd3	-0.06320157
126	0xbcd86207	-0.02641393
127	0xbe242d37	-0.16032873
128	0xbcd1d07f	-0.025612114
129	0x3dd617c2	0.1045375
130	0xbc9be46b	-0.019029817
131	0xbc4939ff	-0.012281894
132	0x3ddc6015	0.10760514
133	0x3c9d720b	0.019219419
134	0xbe362dd3	-0.17790918
135	0x3e335ef9	0.17516698
136	0x3e09b9f5	0.13449843
137	0x3db96210	0.09051907
138	0x3d65c6b7	0.056097712
139	0x3d5038fa	0.050835587
140	0xbc46f530	-0.012143418
141	0xbc1a974e	-0.009435488
142	0x3de7fff1	0.11328114
143	0x3d7f0d92	0.0622688
144	0x3cabf73f	0.02099192
145	0x3c6899d3	0.014196831
146	0xbd4e4474	-0.05035825
147	0xbdee1f7e	-0.116271004
148	0xbd5bbb1e	-0.053645246
149	0x3e0379b2	0.12839392
150	0xbd17879b	-0.036994558
151	0x3e1ef3f6	0.15522751
152	0xbe4b7e7e	-0.19872472
153	0xbd2d84b5	-0.042362887
154	0xbd107215	-0.035265047
155	0x3b532165	0.003221595
156	0xbce0f62b	-0.027461132
157	0xbd86cd85	-0.065821685
158	0xbd512f42	-0.05107046
159	0x3c114065	0.0088654505
160	0xbe23feb6	-0.16015133
161	0xbd840f0f	-0.06448185
162	0xbd97e037	-0.074158125
163	0xbce76eb1	-0.028251024
164	0x3da023ea	0.0781935
165	0xbdcb9204	-0.0993996
166	0xbcfe0a6f	-0.031010835
167	0xbd254732	-0.0403511
168	0xbcd2b0a9	-0.025719004
169	0xbce732f9	-0.028222548
170	0xbabc7b95	-0.0014380092
171	0x3b9c2c66	0.004766035
172	0xbc87a1ce	-0.016556647
173	0xbdc52a7e	-0.09627245
174	0xbc24de0c	-0.010062706
175	0x3d96f149	0.0737024
176	0x3e17bbef	0.14817785
177	0x3e0ee136	0.13953099
178	0xbd0e8278	-0.034792393
179	0x3d4ea79e	0.05045282
180	0xbe31dc96	-0.17369303
181	0x3d89b4dc	0.06723949
182	0x3c114852	0.00886734
183	0xbdbdc4cf	-0.09266054
184	0xbd97285b	-0.07380744
185	0x3dc7b68b	0.09751614
186	0xbd7784d6	-0.060429417
187	0xbcf29b63	-0.02961511
188	0xbcbed988	-0.023297086
189	0x3dbbc30a	0.0916806
190	0xbceb25b6	-0.028704505
191	0x3ba1e68f	0.004940815
192	0xbd8baf2c	-0.06820521
193	0xbdc0cfef	-0.0941466
194	0x3cb3d630	0.021952718
195	0x3dc0a108	0.09405714
196	0xbc91c8f8	-0.017796025
197	0xbde3deb6	-0.11126463
198	0x3c09f811	0.00842096
199	0x3ded0498	0.11573142
200	0x3da2641c	0.079292506
201	0x3c67fbb2	0.01415913
202	0xbbdb5f7b	-0.006694732
203	0x3ccf7600	0.025324821
204	0x3d79d28c	0.06099181
205	0x3cb0cf5c	0.021583252
206	0xbbda4899	-0.0066614863
207	0x3d3cfe66	0.04614105
208	0xbe24474c	-0.16042823
209	0xbd8cdf5d	-0.06878541
210	0xbd5e91e1	-0.05433834
211	0xbd05fbf2	-0.032710977
212	0x3ddbf2ca	0.10739668
213	0xbd1fcb81	-0.039012436
214	0x3dcfe681	0.10151387
215	0x3db03f26	0.086057946
216	0x3dd1b614	0.10239807
217	0xbd3c7507	-0.046010043
218	0x3e00e0c0	0.12585735
219	0x3dcd5b02	0.10027124
220	0xbd5ac3fa	-0.053409554
221	0x3dd55c2c	0.10417971
222	0x3e02b06a	0.12762609
223	0xbced8842	-0.028995637
224	0xbdc4e42d	-0.096138336
225	0xbde6dc57	-0.11272495
226	0xbd9dd797	-0.07707136
227	0x3d5dc2ba	0.054140784
228	0xbe1a615d	-0.15076204
229	0x3e0b9192	0.1362975
230	0xbdb711a3	-0.08938911
231	0xbd04624a	-0.0323203
232	0x3ded984f	0.11601316
233	0xbc1fc82c	-0.009752315
234	0xbcdbe632	-0.026843164
235	0xbd89722f	-0.06711232
236	0xbd994d00	-0.0748539
237	0xbd0cf1eb	-0.0344104
238	0x3c829cd6	0.015943926
239	0x3dac469a	0.08411904
240	0x3a5a1a4b	0.0008319958
241	0xbbcf9270	-0.0063345954
242	0x3da1a6df	0.07893156
243	0xbd102c8d	-0.035198737
244	0x3d89b046	0.067230746
245	0xbd4f08a2	-0.050545342
246	0x3d53d75d	0.05171906
247	0xbd043954	-0.032281235
248	0xbdbc2c31	-0.09188116
249	0xbd47ac9d	-0.0487486
250	0x3d16575d	0.03670441
251	0xbdc7dc97	-0.09758871
252	0x3db06e87	0.086148314
253	0x3e0ec889	0.13943686
254	0x3db7bd11	0.089716084
255	0xbd00eb6b	-0.031474512

blocks.0.sa.heads.0.query.weight f4 [16, 64]
0	0x3deab012	0.11459364
1	0xbcf4d3a0	-0.029886067
2	0x3d227bdb	0.0396689
3	0xbdf547fb	-0.1197662
4	0x3c6c9438	0.014439635
5	0xbe2ed2a3	-0.17072539
6	0x3e1776f1	0.14791466
7	0xbda4aeac	-0.080411285
8	0xbda119ef	-0.078662746
9	0xbc737f75	-0.014861931
10	0x3b4959b0	0.0030723624
11	0x3d918db8	0.07107109
12	0xbcf25cb3	-0.029585218
13	0xbcb33042	-0.021873597
14	0xbc91af08	-0.017783657
15	0x3d85cf44	0.065336734
16	0x3e2b0034	0.16699296
17	0x3dcf3460	0.101174116
18	0xbc10d0c8	-0.00883884
19	0x3d536b0d	0.051615763
20	0x3cb7e4d5	0.022447983
21	0xbd864478	-0.06556028
22	0xbd8515ca	-0.064982966
23	0xbe2140f7	-0.15747438
24	0xbc292b1b	-0.010325219
25	0x3b886f1d	0.0041636364
26	0x3e04993d	0.12949081
27	0xbcf2f339	-0.029656993
28	0x3c841f54	0.01612822
29	0x3d648640	0.055792093
30	0xbdcac072	-0.09899987
31	0x3ddee49e	0.10883449
32	0xbdcd8e12	-0.100368634
33	0xbd836a7b	-0.06416794
34	0xbd51cf5a	-0.051223136
35	0xbe2b7edc	-0.16747612
36	0x3e2e0028	0.16992247
37	0xbdd456ac	-0.10368094
38	0x3cf227d6	0.02956001
39	0x3d5f9ec4	0.05459477
40	0x3d8132f8	0.0630855
41	0x3cbbe153	0.022934591
42	0xbb80323c	-0.0039122384
43	0xbd4e223b	-0.050325613
44	0xbba95709	-0.005167846
45	0x3e07bee5	0.13256414
46	0xb95e3f28	-0.00021195097
47	0xbd8d4511	-0.06897939
48	0xbd767ee2	-0.0601796
49	0xbd5ca51a	-0.05386839
50	0x3e021d8a	0.12706581
51	0xbdab4835	-0.08363382
52	0x3de046d6	0.10951011
53	0x3d03b5e3	0.032155883
54	0xbe3648e9	-0.1780125
55	0xbc2dc158	-0.010605179
56	0xbd847258	-0.06467122
57	0x3e0a0532	0.13478544
58	0xbd23036a	-0.039798178
59	0xbd8b9103	-0.06814768
60	0x3d160463	0.036625277
61	0x3e04f6ec	0.12984818
62	0xbbc9b397	-0.006155442
63	0x3d80f5aa	0.06296857
64	0xbd5f0832	-0.054451175
65	0x3ce42569	0.02784987
66	0xbcf77e22	-0.030211512
67	0x3d7b21a4	0.06131138
68	0x3db9e97d	0.090777375
69	0xba96cf8c	-0.0011505946
70	0xbdd8419c	-0.10559389
71	0xbc2eea6b	-0.010676007
72	0xbca8c24a	-0.020600457
73	0x3d73f640	0.059561014
74	0xbd6a479c	-0.0571972
75	0x3a3c9142	0.0007193276
76	0x3a2983d0	0.000646648
77	0x3d22771c	0.039664373
78	0xbe022d94	-0.12712699
79	0x3d2d8411	0.042362276
80	0xbcb53367	-0.022119237
81	0x3c3da130	0.011574075
82	0x3d3da033	0.046295356
83	0xbd5c77e3	-0.05382527
84	0x3d5b2bea	0.053508677
85	0x3dc03429	0.09384949
86	0x3d07b08f	0.033127364
87	0xbd2ccaad	-0.042185474
88	0xbde4b642	-0.111675754
89	0xbe52d25e	-0.20588061
90	0xbcd9b315	-0.02657465
91	0xba94c7db	-0.0011351065
92	0x3c8cdb7b	0.0171945
93	0x3c970423	0.01843459
94	0xbd42e3db	-0.04758058
95	0x3de1c148	0.110231936
96	0x3db4a0bf	0.088197224
97	0xbbbea4e5	-0.005817997
98	0xbd277c72	-0.040890165
99	0x3c36bf61	0.011154027
100	0x3d91f75e	0.0712726
101	0xbd02f51a	-0.03197203
102	0xbd161d2f	-0.036648925
103	0xbe426a46	-0.18985853
104	0xbe0374dd	-0.12837549
105	0x3c99bcaf	0.01876673
106	0x3d4c6a09	0.04990581
107	0xbd894081	-0.06701756
108	0xbdc2f847	-0.095200114
109	0x3d8c2da1	0.068446405
110	0x3dd8d8f3	0.10588255
111	0xbd4d82c6	-0.050173543
112	0x3cb32dd8	0.021872446
113	0x3e0c9963	0.13730387
114	0xbc0a5189	-0.008442291
115	0x3d4ae8da	0.04953847
116	0x3e07aabd	0.13248725
117	0xbd6b165c	-0.05739437
118	0x3cf7eb8a	0.030263681
119	0xbd877eec	-0.06616005
120	0xbc82c680	-0.015963793
121	0x3e35b213	0.17743711
122	0x3d858e50	0.065212846
123	0x3daf24fd	0.08551977
124	0xbd09c270	-0.033632696
125	0x3d98f2a6	0.074681565
126	0xbdb91c54	-0.09038606
127	0x3d154782	0.03644515
128	0xbe0e7fca	-0.13915935
129	0x3c0bea8e	0.008539809
130	0x3e2cc6a2	0.16872647
131	0xbdb3c69e	-0.087781176
132	0xbda5ec6f	-0.08101737
133	0x3e25e0ad	0.16198988
134	0x3c12892d	0.008943838
135	0xbb956f81	-0.0045604114
136	0xbd126a57	-0.035745945
137	0xbda24066	-0.07922439
138	0xbdcd3c24	-0.100212365
139	0xbc9fc2fc	-0.019502155
140	0x3d7302f8	0.059329003
141	0x3deef096	0.11666982
142	0xbe09c971	-0.1345575
143	0xbd4660d4	-0.048432186
144	0xbd6eceb4	-0.058302596
145	0x3dbb928e	0.091588125
146	0x3d8e930e	0.06961642
147	0x3dbb4cad	0.09145484
148	0x3d5f49e9	0.054513846
149	0xbcacc801	-0.021091463
150	0xbabbfee0	-0.0014342926
151	0xbd7df970	-0.06200546
152	0x3e00ef83	0.12591366
153	0xbd2613cc	-0.040546224
154	0xbe167c20	-0.14695787
155	0xbcb09bb9	-0.02155863
156	0x3dee1401	0.11624909
157	0x3ca7db94	0.020490445
158	0x3ccf24b8	0.025286064
159	0xbd5ba3c9	-0.053622995
160	0xbd9a20a3	-0.07525756
161	0xbdc54a49	-0.096333094
162	0xbd9d2f73	-0.07675066
163	0x3e0057f5	0.12533553
164	0xbd9242ed	-0.07141671
165	0x3e3559d9	0.17710055
166	0x3def2768	0.11677438
167	0xbd21de26	-0.039518498
168	0xbddf0548	-0.10889679
169	0x3d851341	0.06497813
170	0xbd0e537a	-0.03474758
171	0xbde59cff	-0.11211585
172	0xbd0150e7	-0.031571295
173	0xbd554e58	-0.052076668
174	0xbde35ae2	-0.11101319
175	0xbc457215	-0.012051125
176	0x3d8fd1b0	0.070224166
177	0xbde90060	-0.11377025
178	0x3bab12b3	0.005220735
179	0xbd590b98	-0.052989572
180	0xbdda043d	-0.1064534
181	0xbd8d2609	-0.0689202
182	0x3d9e8b52	0.07741417
183	0x3e11bcdd	0.14232202
184	0xbdd14595	-0.1021835
185	0xbc3db102	-0.0115778465
186	0x3c032a7f	0.008005737
187	0xbd50fedd	-0.051024307
188	0xbcdf3918	-0.027248904
189	0xbe09f2b8	-0.13471496
190	0x3da7ea47	0.08198982
191	0xbd955742	-0.07292034
192	0xbd63f739	-0.05565569
193	0xbc899cac	-0.01679834
194	0xbdc3d107	-0.09561353
195	0xbc8b9926	-0.0170408
196	0xbd8571ce	-0.06515847
197	0x3d32cc63	0.04365195
198	0x3c0b54f1	0.008504138
199	0x3dbafb8e	0.091300115
200	0x3daeddd8	0.08538407
201	0xbde4660b	-0.11152276
202	0x3d3d0e88	0.046156436
203	0x3dd518cc	0.1040512
204	0x3d3b6f55	0.04576047
205	0x3d7e3a0a	0.06206707
206	0x3df7bbf3	0.12096395
207	0xbd6d9022	-0.057998784
208	0x3d45bd00	0.048275948
209	0xbcbaf719	-0.022822903
210	0x3e464e66	0.19365844
211	0x3d581a12	0.052759238
212	0xbc6b4599	-0.014359855
213	0xbd289dce	-0.04116612
214	0x3c56ff03	0.013122323
215	0x3def1eec	0.1167582
216	0xbd7e8277	-0.06213614
217	0xbe22ea50	-0.15909696
218	0x3b0dce57	0.002163788
219	0x3dc12e1b	0.09432622
220	0xbcac0890	-0.021000177
221	0xbd193ddb	-0.037412506
222	0x3cf57b93	0.029966151
223	0xbdeae43c	-0.114693135
224	0x3d8ba29f	0.06818127
225	0xbd192f47	-0.037398603
226	0x3b15d7ab	0.0022864144
227	0xbd6b1ffb	-0.057403546
228	0x3cb7d935	0.02244244
229	0x3c825940	0.015911698
230	0xbc7dd679	-0.015493029
231	0xbd976fd2	-0.07394375
232	0x3db43079	0.08798308
233	0xbce872c7	-0.028375043
234	0x3d9650a1	0.073395975
235	0x3cd26872	0.025684569
236	0x3e322c7e	0.17399785
237	0x3dc20f40	0.09475565
238	0x3d6907da	0.056892253
239	0xbd54fa03	-0.051996242
240	0xbc7655ed	-0.015035135
241	0xbd20b99b	-0.039239507
242	0x3c93e3cc	0.018052958
243	0xbcdf0a41	-0.02722657
244	0xbdc645f8	-0.09681314
245	0x3dedb955	0.11607615
246	0xbbf68050	-0.0075226203
247	0xbd161c51	-0.0366481
248	0xbdb4b66c	-0.08823857
249	0xbc12ac5a	-0.008952225
250	0xbdadb5ae	-0.08481918
251	0x3d54af5d	0.051925052
252	0x3cd49566	0.025950145
253	0xbd46571b	-0.048422914
254	0xbb7cac4b	-0.0038554843
255	0x3d6357ca	0.055503644

blocks.0.sa.heads.0.value.weight f4 [16, 64]
0	0x3d0cb455	0.034351666
1	0xbd841e54	-0.06451097
2	0xb70558d0	-7.948096e-06
3	0xbd0e93de	-0.034808986
4	0xbd9332b6	-0.07187407
5	0xbd14b8f8	-0.036309212
6	0x3cdd88ad	0.027042711
7	0xbdc981b6	-0.098391935
8	0xbd4c9296	-0.049944483
9	0xbd2d0a8e	-0.042246394
10	0xbd615478	-0.055012196
11	0x3e1ca2e2	0.1529651
12	0xbd87d0e0	-0.066316366
13	0xbd297c9d	-0.041378606
14	0x3db2c144	0.08728269
15	0xbcb3da9a	-0.021954823
16	0xbdc57fed	-0.096435405
17	0xbd9ebd5f	-0.077509634
18	0xbcba4aa8	-0.022740677
19	0xbd41ec8a	-0.04734472
20	0x38d31bae	0.0001006642
21	0xbd995a77	-0.07487958
22	0x3b8ba064	0.0042610634
23	0x3c1a0a9c	0.009401944
24	0x3dffa3b6	0.12482397
25	0x3d9db08b	0.076996885
26	0xbdedb60a	-0.11606987
27	0x3d090dc1	0.033460382
28	0x3c4b4eca	0.0124089215
29	0x3dfdec7a	0.1239862
30	0xbd00e2e7	-0.03146639
31	0xbd80883b	-0.06275984
32	0xbca54baf	-0.02017769
33	0x3e08242e	0.13295051
34	0x3e1d20d2	0.15344551
35	0x3d2fb5e9	0.042898092
36	0x3c643802	0.013929369
37	0x3e0ed00f	0.13946556
38	0xbe20e341	-0.1571169
39	0xbe125023	-0.14288382
40	0xbd729713	-0.059226107
41	0x3e0c83c0	0.13722134
42	0xbd846e48	-0.06466347
43	0x3d80a10d	0.06280718
44	0xbd710609	-0.058843646
45	0xbde0914d	-0.10965214
46	0x3db9da2d	0.09074817
47	0xbcac04ac	-0.020998321
48	0xbd8d01d3	-0.068851136
49	0xbdaeb814	-0.08531204
50	0xbd4d0e6f	-0.050062593
51	0xbc821d99	-0.015883254
52	0x3d2cd454	0.04219468
53	0xbd635b1b	-0.055506807
54	0xbd421a52	-0.047388382
55	0xbd916c93	-0.07100787
56	0x3d23e629	0.04001442
57	0xbd9f271d	-0.07771132
58	0x3c0f4813	0.008745211
59	0x3d5939d5	0.05303367
60	0xbe028ad2	-0.12748268
61	0xbdc2aa70	-0.095051646
62	0x3cc3c071	0.023895474
63	0x3b92ddc0	0.004482001
64	0xbcb2c371	-0.02182171
65	0xbdbf8aa4	-0.093526155
66	0xbc6b7608	-0.014371403
67	0xbd293202	-0.041307457
68	0xbd232202	-0.039827354
69	0x3dc7634c	0.09735736
70	0x3dc16696	0.09443395
71	0xbde24201	-0.110477455
72	0xbd0e55af	-0.034749683
73	0xbcab48a7	-0.020908667
74	0x3ddf48ef	0.10902583
75	0x3b0f8248	0.0021897722
76	0xbe4a6ecf	-0.19768833
77	0x3e1d2cad	0.15349074
78	0x3e207e60	0.15673208
79	0x3cfaf67a	0.030635107
80	0x3e067e59	0.13134135
81	0x3d98e94e	0.07466374
82	0xbcb26bfe	-0.02178001
83	0xbc920471	-0.017824383
84	0x3cde9f4d	0.02717557
85	0x3cce6751	0.02519575
86	0xbdbaab90	-0.09114754
87	0xbdba80cb	-0.091065966
88	0xbdd0e151	-0.10199226
89	0x3c23584d	0.009969783
90	0x3d53672c	0.051612064
91	0xbddb0fcf	-0.106963746
92	0x3d8c0fdf	0.06838965
93	0x3d3b4673	0.045721482
94	0x3c80cdc4	0.015723117
95	0x3dfbc7d8	0.122939765
96	0xbe0bf006	-0.1366578
97	0x3cb3e8ec	0.021961652
98	0x3d86438e	0.06555854
99	0x3c37782c	0.011198085
100	0xbdaab88b	-0.0833598
101	0xbda1cc0f	-0.07900249
102	0x3c4d4dd3	0.012530762
103	0xbddf0065	-0.10888747
104	0x3b13629b	0.0022489193
105	0x3dd52a9d	0.104085185
106	0xbdd00033	-0.10156288
107	0x3ce227aa	0.027606804
108	0x3d1e12dc	0.038592204
109	0xbd80f633	-0.06296959
110	0x3dbb194d	0.09135685
111	0x3d2b5350	0.0418275
112	0xbdb4bb42	-0.08824779
113	0x3da28348	0.07935196
114	0x3e09b116	0.13446459
115	0x3c17e4f6	0.009270897
116	0x3dacff13	0.08447089
117	0xbb1e0140	-0.0024109632
118	0xbe00b740	-0.12569904
119	0xbd16bc37	-0.03680059
120	0xbe55025a	-0.20801678
121	0xbe0e2891	-0.13882662
122	0xbc91259b	-0.017718127
123	0xbd82dc5d	-0.06389687
124	0xbdc30bdf	-0.095237486
125	0x3d5976dc	0.05309187
126	0x3d6a8124	0.057252064
127	0xbd84fc44	-0.06493428
128	0xbcb49e8b	-0.022048255
129	0xbe0611aa	-0.13092676
130	0x3c7a6ee3	0.0152852265
131	0x3d044951	0.032296482
132	0xbd31b225	-0.043382782
133	0x3d163c16	0.036678396
134	0x3ddf4c02	0.10903169
135	0x3ddc31bb	0.10751673
136	0x3d797d11	0.06091029
137	0xbd140ce5	-0.03614511
138	0xbd819bd7	-0.06328552
139	0xbe16bf7e	-0.14721486
140	0xbdb3be60	-0.087765455
141	0xbd8bc821	-0.06825281
142	0xbce6faf8	-0.028195843
143	0xbd2df7b7	-0.042472567
144	0xbcbd29e7	-0.02309127
145	0xbd4e234a	-0.050326623
146	0x3c11a19b	0.008888627
147	0xbe461ec9	-0.19347681
148	0xbcef8443	-0.029237872
149	0x3da3ce44	0.079983264
150	0x3d7c2fc7	0.061569
151	0x3c3cc3ee	0.011521323
152	0xbd11ae0b	-0.03556637
153	0xbcc53ec7	-0.024077786
154	0xbc0e3994	-0.00868072
155	0xbc4df089	-0.012569555
156	0x3d40030b	0.046877902
157	0xbe029c0d	-0.12754841
158	0xbd0e589a	-0.034752466
159	0x3d641cbb	0.055691462
160	0x3dea39ec	0.11436829
161	0x3ce89d16	0.028395217
162	0x3d6288e9	0.05530635
163	0xbcb3d533	-0.021952247
164	0xbcf27542	-0.029596929
165	0x3c6be40e	0.014397634
166	0x3ddd0d45	0.107935466
167	0x3ded09c5	0.11574129
168	0xbdd91191	-0.10599054
169	0xbbf83dbb	-0.007575718
170	0x3e3e3407	0.18574534
171	0xbdc29dec	-0.095027775
172	0x3e1a32ed	0.15058489
173	0x3dc35fa6	0.09539728
174	0x3caf5b3e	0.021405812
175	0xbdb5af75	-0.088713564
176	0x3e15956e	0.14607784
177	0xbe4604b8	-0.19337738
178	0xbe013f9a	-0.12621918
179	0xbb3901b5	-0.0028229777
180	0xbdb254fe	-0.08707617
181	0x3d8aa476	0.0676965
182	0x3d9d361e	0.07676338
183	0xbd25a42b	-0.040439766
184	0x3da14ed6	0.07876365
185	0xbd8103d4	-0.06299558
186	0xbe02ecb0	-0.12785602
187	0xbd804185	-0.06262497
188	0xbc84ecba	-0.016226161
189	0x3d2f2c1a	0.042766668
190	0xbdb88fad	-0.09011779
191	0xbe0cd468	-0.13752902
192	0xbd3cbd99	-0.046079252
193	0x3dc86727	0.097853
194	0xbdff5989	-0.12468249
195	0x3ca8c1af	0.020600168
196	0xbd0e5856	-0.034752212
197	0x3df43443	0.11924031
198	0xbdb59dda	-0.088679984
199	0x3d9700d2	0.07373203
200	0xbda67b87	-0.0812903
201	0xbd7ed63e	-0.062216036
202	0x3d452744	0.04813315
203	0xbd17881f	-0.03699505
204	0xbdab3702	-0.08360101
205	0x3c9d6520	0.01921326
206	0x3d65f7e1	0.0561446
207	0xbc26b26d	-0.010174376
208	0xbcbc471e	-0.02298313
209	0xbdc133d8	-0.094337165
210	0x3bc6b4c0	0.0060640275
211	0xbcdb12a0	-0.02674228
212	0x3d85fced	0.065423824
213	0x3bef5ff0	0.007305138
214	0xbcd4e7d9	-0.02598946
215	0x3dacc76b	0.084364735
216	0xbd266fee	-0.04063409
217	0xbc4d1479	-0.012517088
218	0x3dafb0f9	0.08578677
219	0x3dd5f68a	0.10447414
220	0xbd99a29d	-0.07501719
221	0xbd3e73a7	-0.046497013
222	0xbd96b8d5	-0.07359473
223	0x3d539c10	0.051662505
224	0x3d24a0ed	0.040192533
225	0xbd812dc7	-0.063075595
226	0xbd867c23	-0.06566646
227	0xbceb5dab	-0.028731188
228	0xbdd4e97b	-0.10396095
229	0xbd468562	-0.048467048
230	0x3d06285b	0.03275333
231	0x3e0852ce	0.13312837
232	0xbd3c4bbd	-0.045970667
233	0x3ddd6c01	0.10811616
234	0xbe1a555f	-0.15071629
235	0xbd242382	-0.040072925
236	0xbe219176	-0.15778145
237	0x3dd2d103	0.10293772
238	0x3d936119	0.07196254
239	0x3c950339	0.018190013
240	0x3cf125af	0.029436914
241	0x3d83745c	0.06418678
242	0x3e266c51	0.16252257
243	0xbc80871d	-0.015689427
244	0xbda651f7	-0.08121102
245	0xbda1ef27	-0.07906943
246	0xbdc81f64	-0.09771612
247	0xbd4cc021	-0.049987916
248	0xbd2649c8	-0.040597707
249	0x3ca8aed9	0.020591186
250	0xbd1ea290	-0.03872925
251	0x3cf6aa7e	0.030110594
252	0xbdcb4186	-0.09924607
253	0x3d400c56	0.046886764
254	0x3c605b40	0.013693631
255	0xbd9d051c	-0.0766699

blocks.0.sa.heads.1.tril f4 [32, 32]
0	0x3f800000	1.0
1	0x00000000	0.0
2	0x00000000	0.0
3	0x00000000	0.0
4	0x00000000	0.0
5	0x00000000	0.0
6	0x00000000	0.0
7	0x00000000	0.0
8	0x00000000	0.0
9	0x00000000	0.0
10	0x00000000	0.0
11	0x00000000	0.0
12	0x00000000	0.0
13	0x00000000	0.0
14	0x00000000	0.0
15	0x00000000	0.0
16	0x00000000	0.0
17	0x00000000	0.0
18	0x00000000	0.0
19	0x00000000	0.0
20	0x00000000	0.0
21	0x00000000	0.0
22	0x00000000	0.0
23	0x00000000	0.0
24	0x00000000	0.0
25	0x00000000	0.0
26	0x00000000	0.0
27	0x00000000	0.0
28	0x00000000	0.0
29	0x00000000	0.0
30	0x00000000	0.0
31	0x00000000	0.0
32	0x3f800000	1.0
33	0x3f800000	1.0
34	0x00000000	0.0
35	0x00000000	0.0
36	0x00000000	0.0
37	0x00000000	0.0
38	0x00000000	0.0
39	0x00000000	0.0
40	0x00000000	0.0
41	0x00000000	0.0
42	0x00000000	0.0
43	0x00000000	0.0
44	0x00000000	0.0
45	0x00000000	0.0
46	0x00000000	0.0
47	0x00000000	0.0
48	0x00000000	0.0
49	0x00000000	0.0
50	0x00000000	0.0
51	0x00000000	0.0
52	0x00000000	0.0
53	0x00000000	0.0
54	0x00000000	0.0
55	0x00000000	0.0
56	0x00000000	0.0
57	0x00000000	0.0
58	0x00000000	0.0
59	0x00000000	0.0
60	0x00000000	0.0
61	0x00000000	0.0
62	0x00000000	0.0
63	0x00000000	0.0
64	0x3f800000	1.0
65	0x3f800000	1.0
66	0x3f800000	1.0
67	0x00000000	0.0
68	0x00000000	0.0
69	0x00000000	0.0
70	0x00000000	0.0
71	0x00000000	0.0
72	0x00000000	0.0
73	0x00000000	0.0
74	0x00000000	0.0
75	0x00000000	0.0
76	0x00000000	0.0
77	0x00000000	0.0
78	0x00000000	0.0
79	0x00000000	0.0
80	0x00000000	0.0
81	0x00000000	0.0
82	0x00000000	0.0
83	0x00000000	0.0
84	0x00000000	0.0
85	0x00000000	0.0
86	0x00000000	0.0
87	0x00000000	0.0
88	0x00000000	0.0
89	0x00000000	0.0
90	0x00000000	0.0
91	0x00000000	0.0
92	0x00000000	0.0
93	0x00000000	0.0
94	0x00000000	0.0
95	0x00000000	0.0
96	0x3f800000	1.0
97	0x3f800000	1.0
98	0x3f800000	1.0
99	0x3f800000	1.0
100	0x00000000	0.0
101	0x00000000	0.0
102	0x00000000	0.0
103	0x00000000	0.0
104	0x00000000	0.0
105	0x00000000	0.0
106	0x00000000	0.0
107	0x00000000	0.0
108	0x00000000	0.0
109	0x00000000	0.0
110	0x00000000	0.0
111	0x00000000	0.0
112	0x00000000	0.0
113	0x00000000	0.0
114	0x00000000	0.0
115	0x00000000	0.0
116	0x00000000	0.0
117	0x00000000	0.0
118	0x00000000	0.0
119	0x00000000	0.0
120	0x00000000	0.0
121	0x00000000	0.0
122	0x00000000	0.0
123	0x00000000	0.0
124	0x00000000	0.0
125	0x00000000	0.0
126	0x00000000	0.0
127	0x00000000	0.0
128	0x3f800000	1.0
129	0x3f800000	1.0
130	0x3f800000	1.0
131	0x3f800000	1.0
132	0x3f800000	1.0
133	0x00000000	0.0
134	0x00000000	0.0
135	0x00000000	0.0
136	0x00000000	0.0
137	0x00000000	0.0
138	0x00000000	0.0
139	0x00000000	0.0
140	0x00000000	0.0
141	0x00000000	0.0
142	0x00000000	0.0
143	0x00000000	0.0
144	0x00000000	0.0
145	0x00000000	0.0
146	0x00000000	0.0
147	0x00000000	0.0
148	0x00000000	0.0
149	0x00000000	0.0
150	0x00000000	0.0
151	0x00000000	0.0
152	0x00000000	0.0
153	0x00000000	0.0
154	0x00000000	0.0
155	0x00000000	0.0
156	0x00000000	0.0
157	0x00000000	0.0
158	0x00000000	0.0
159	0x00000000	0.0
160	0x3f800000	1.0
161	0x3f800000	1.0
162	0x3f800000	1.0
163	0x3f800000	1.0
164	0x3f800000	1.0
165	0x3f800000	1.0
166	0x00000000	0.0
167	0x00000000	0.0
168	0x00000000	0.0
169	0x00000000	0.0
170	0x00000000	0.0
171	0x00000000	0.0
172	0x00000000	0.0
173	0x00000000	0.0
174	0x00000000	0.0
175	0x00000000	0.0
176	0x00000000	0.0
177	0x00000000	0.0
178	0x00000000	0.0
179	0x00000000	0.0
180	0x00000000	0.0
181	0x00000000	0.0
182	0x00000000	0.0
183	0x00000000	0.0
184	0x00000000	0.0
185	0x00000000	0.0
186	0x00000000	0.0
187	0x00000000	0.0
188	0x00000000	0.0
189	0x00000000	0.0
190	0x00000000	0.0
191	0x00000000	0.0
192	0x3f800000	1.0
193	0x3f800000	1.0
194	0x3f800000	1.0
195	0x3f800000	1.0
196	0x3f800000	1.0
197	0x3f800000	1.0
198	0x3f800000	1.0
199	0x00000000	0.0
200	0x00000000	0.0
201	0x00000000	0.0
202	0x00000000	0.0
203	0x00000000	0.0
204	0x00000000	0.0
205	0x00000000	0.0
206	0x00000000	0.0
207	0x00000000	0.0
208	0x00000000	0.0
209	0x00000000	0.0
210	0x00000000	0.0
211	0x00000000	0.0
212	0x00000000	0.0
213	0x00000000	0.0
214	0x00000000	0.0
215	0x00000000	0.0
216	0x00000000	0.0
217	0x00000000	0.0
218	0x00000000	0.0
219	0x00000000	0.0
220	0x00000000	0.0
221	0x00000000	0.0
222	0x00000000	0.0
223	0x00000000	0.0
224	0x3f800000	1.0
225	0x3f800000	1.0
226	0x3f800000	1.0
227	0x3f800000	1.0
228	0x3f800000	1.0
229	0x3f800000	1.0
230	0x3f800000	1.0
231	0x3f800000	1.0
232	0x00000000	0.0
233	0x00000000	0.0
234	0x00000000	0.0
235	0x00000000	0.0
236	0x00000000	0.0
237	0x00000000	0.0
238	0x00000000	0.0
239	0x00000000	0.0
240	0x00000000	0.0
241	0x00000000	0.0
242	0x00000000	0.0
243	0x00000000	0.0
244	0x00000000	0.0
245	0x00000000	0.0
246	0x00000000	0.0
247	0x00000000	0.0
248	0x00000000	0.0
249	0x00000000	0.0
250	0x00000000	0.0
251	0x00000000	0.0
252	0x00000000	0.0
253	0x00000000	0.0
254	0x00000000	0.0
255	0x00000000	0.0

blocks.0.sa.heads.1.key.weight f4 [16, 64]
0	0xbe3a60d9	-0.18201007
1	0xbc71fa54	-0.0147691555
2	0x3b2c43e3	0.002628558
3	0x3df1845d	0.117928244
4	0x3dea90eb	0.11453422
5	0x38e2a598	0.00010807364
6	0x3d24ae3b	0.04020522
7	0x3c0cd351	0.008595304
8	0xbe485170	-0.19562316
9	0xbc3004df	-0.010743349
10	0xbcae01ac	-0.021241032
11	0xbd0c1a24	-0.034204617
12	0xbdb3ba18	-0.08775729
13	0x3d2a1dc2	0.041532286
14	0x3c35eb34	0.01110344
15	0xbca9d97c	-0.020733587
16	0xbcfbb37c	-0.030725233
17	0x3d88c48d	0.06678114
18	0x3d661c5f	0.0561794
19	0xbe149ad2	-0.14512184
20	0xbe44810f	-0.19189857
21	0x3dd92cb1	0.10604227
22	0xbd1a4e60	-0.0376724
23	0x3d9a19c6	0.07524447
24	0x3cf118a9	0.029430704
25	0x3c1b6572	0.009484636
26	0xbc8a8a08	-0.016911522
27	0xbb134667	-0.0022472383
28	0x3c3e6355	0.011620362
29	0x3e135409	0.14387526
30	0x3d922da4	0.071376115
31	0xbe1d3b3d	-0.15354629
32	0x3d8f41a5	0.069949426
33	0xbe41532d	-0.18879385
34	0x3d9fa887	0.07795816
35	0xbe46c623	-0.1941152
36	0x3b97aade	0.0046285233
37	0xbc806ad5	-0.015675941
38	0x3b9071da	0.0044081034
39	0xbda8f100	-0.08249092
40	0x3d8ffb1d	0.07030318
41	0x3d35b8ae	0.044365577
42	0xbdcc21e3	-0.09967401
43	0xbd391270	-0.0451836
44	0xbde99a52	-0.114063874
45	0xbdca5ef1	-0.0988139
46	0x3e19b5e4	0.15010792
47	0xbdd07412	-0.10178389
48	0x3dd5367c	0.10410783
49	0xbc06b699	-0.008222246
50	0xbd9ea52d	-0.077463485
51	0x3d0338c2	0.03203655
52	0x3d8c4155	0.068483986
53	0xbcc27608	-0.023737922
54	0x3e13c922	0.14432195
55	0xbe398a2b	-0.18119113
56	0xbdd5edb1	-0.10445727
57	0x3cbe5861	0.023235502
58	0xbd3e4a08	-0.04645732
59	0x3e392195	0.18079217
60	0xbe4e89b7	-0.20169722
61	0xbd585953	-0.05281956
62	0xbdd9bb36	-0.10631411
63	0x3e505e0c	0.20348376
64	0x3e22b3ca	0.15888897
65	0xbe23ce98	-0.15996778
66	0xbe2506f4	-0.16115934
67	0x3b85e628	0.0040862747
68	0x3e362c17	0.17790256
69	0x3cf8839d	0.030336196
70	0xbe4b92f5	-0.19880278
71	0x3cb35c88	0.021894708
72	0x3df8bb1a	0.12145062
73	0xbd8d90b2	-0.06912364
74	0xbd33689e	-0.043800943
75	0xbdd9b637	-0.10630458
76	0xbcaa86df	-0.020816265
77	0x3e14f76f	0.14547513
78	0xbdcf2ee3	-0.10116365
79	0xbd9d6662	-0.076855436
80	0x3de98058	0.11401433
81	0xbd3f87fa	-0.046760537
82	0xbcf499d6	-0.029858511
83	0xbe7ce279	-0.24695767
84	0x3df2832f	0.118414275
85	0xbda588c0	-0.080827236
86	0x3e10c8f8	0.14139163
87	0xbe2c2608	-0.16811383
88	0xbc38c36c	-0.011277061
89	0xbe2c329c	-0.16816181
90	0x3d7ab3c2	0.061206587
91	0xbb46a8ac	-0.0030312939
92	0xbd4d0f12	-0.0500632
93	0x3d5a5b59	0.053309772
94	0x3dcc3632	0.099712744
95	0x3ceed795	0.029155532
96	0xbc4d0d3a	-0.0125153605
97	0x3daa4955	0.08314768
98	0x3d3491db	0.04408441
99	0x3cff8ef1	0.03119609
100	0x3db05300	0.08609581
101	0xbd5b2936	-0.0535061
102	0xbd38dc66	-0.045132063
103	0xbdd1ebf8	-0.102500856
104	0xbdc318c0	-0.09526205
105	0xbd19db21	-0.037562493
106	0xbda982ba	-0.08276887
107	0x3d395f9d	0.0452572
108	0xbe2fa11e	-0.17151305
109	0x3da57cc8	0.08080441
110	0x3d77bc84	0.060482517
111	0xbe625f6e	-0.22106716
112	0xbd543263	-0.051805865
113	0x3dab9f26	0.083799645
114	0x3dafbd97	0.08581083
115	0x3cacd157	0.021095915
116	0x3dc24c0a	0.094871596
117	0x3e50a719	0.20376243
118	0x3c9e1585	0.01929737
119	0xbdd5a908	-0.10432631
120	0xbe444bb3	-0.19169502
121	0x3d8f8174	0.07007113
122	0x3da21182	0.079134956
123	0x3da50bb5	0.080588736
124	0xbd36727e	-0.044542782
125	0xbe0a27e3	-0.13491778
126	0x3e06beb9	0.13158692
127	0x3c7c454c	0.015397381
128	0x3d8ef67b	0.06980606
129	0xbdfa3de9	-0.1221884
130	0x3d5aee70	0.053450048
131	0xbd6f0067	-0.058349993
132	0xbe220c9d	-0.15825124
133	0xbc1301c3	-0.008972588
134	0xbcbe8430	-0.023256391
135	0xbd4a3b91	-0.049373213
136	0x3e6bc7eb	0.23025481
137	0xbd0efea4	-0.034910813
138	0x3e055569	0.13020863
139	0xbd584a12	-0.052805014
140	0x3dc4cabf	0.09608983
141	0xbc28bbd9	-0.010298693
142	0x3d69b54a	0.057057656
143	0x3e93a8af	0.28839633
144	0x3d1de4f2	0.038548417
145	0x3d34e527	0.04416385
146	0xbe2a71c3	-0.16644959
147	0x3c418cb4	0.011813331
148	0xbb9cc481	-0.0047841673
149	0xbccb11c0	-0.024788737
150	0x3d43ff0b	0.04785065
151	0x3e08dc42	0.13365272
152	0xbe0c66c7	-0.13711081
153	0xbe6c9a51	-0.23105742
154	0xbe0c6eb0	-0.13714099
155	0xbe12d491	-0.143389
156	0xbd965ac0	-0.07341528
157	0x3d39b0af	0.045334514
158	0x3cdb4620	0.026766837
159	0x3dea41dd	0.11438344
160	0xbd50fcf6	-0.051022492
161	0x3db7bc40	0.08971453
162	0xbcc64862	-0.024204437
163	0x3de32a37	0.11092036
164	0x3dee0226	0.116215035
165	0x3dd25ed4	0.10271993
166	0xbb297951	-0.0025859664
167	0x3dc6d07c	0.09707734
168	0x3dd39ea9	0.103329964
169	0x3c9068e1	0.017628135
170	0x3d76dab3	0.06026716
171	0xbd68af13	-0.05680759
172	0x3d8a29e9	0.06746275
173	0xbd6a8be0	-0.0572623
174	0x3e179326	0.14802226
175	0xbc3f85a1	-0.011689574
176	0xbc6bf629	-0.014401951
177	0x3cdf0c61	0.027227582
178	0x3b61bdb3	0.0034445345
179	0xbcf0fffb	-0.029418936
180	0x3d50cb8e	0.050975375
181	0xbd0e5204	-0.034746185
182	0xbda874f3	-0.08225431
183	0xbd67b674	-0.056570485
184	0x3d768d1a	0.06019316
185	0xbe1a3150	-0.15057874
186	0x3cf9de22	0.030501429
187	0xbe4a952b	-0.19783466
188	0xbe093abe	-0.13401315
189	0xbcd53606	-0.026026737
190	0x3cd50ab4	0.02600608
191	0xbd80736d	-0.06272016
192	0xbc57c5b6	-0.013169697
193	0xbe6f6a71	-0.23380448
194	0xbd46ce93	-0.04853685
195	0xbe03c25f	-0.12867115
196	0xbd34b373	-0.04411645
197	0x3dcfea5a	0.10152121
198	0xbd8b32dc	-0.0679681
199	0xbbd863c4	-0.00660369
200	0xbe14e22c	-0.14539403
201	0xbde2adbd	-0.11068294
202	0x3c720317	0.0147712445
203	0x3d8d575c	0.06901428
204	0x3d8f6f9f	0.07003712
205	0x3b82826d	0.003982833
206	0xbde1e121	-0.11029268
207	0xbc04c25e	-0.008102981
208	0x3e2ef434	0.17085344
209	0x3c6d5ad9	0.014486992
210	0xbc48e603	-0.01226187
211	0x3d9933a7	0.07480555
212	0xbdf1e572	-0.11811341
213	0x3df5dcf1	0.12005032
214	0x3e19f3b4	0.15034372
215	0x3e02834c	0.12745398
216	0x3d92cc8a	0.07167919
217	0xbd66e64c	-0.056371972
218	0x3dbf899f	0.09352421
219	0xbc16a5f2	-0.009194838
220	0xbd486ab9	-0.048929904
221	0xbd69817c	-0.05700825
222	0xbe074839	-0.13211145
223	0xbbc117f5	-0.0058927485
224	0xbe31e4f4	-0.17372495
225	0x3da1f1d2	0.07907452
226	0x3e037486	0.12837419
227	0xbdff6a9d	-0.12471507
228	0xbd300f82	-0.04298354
229	0x3d0a3d2b	0.03374974
230	0x3cd8afba	0.02645098
231	0xbd80a91d	-0.06282256
232	0x3dac3fdf	0.0841062
233	0xbdeafc45	-0.11473898
234	0x3d0167c3	0.031593096
235	0xbe2061c0	-0.15662289
236	0x3e102092	0.14074925
237	0x3d859fad	0.06524596
238	0xbdabff34	-0.083982855
239	0xbc2f8322	-0.010712417
240	0x3e32aef5	0.17449553
241	0xbddce3df	-0.107856505
242	0x3c2cad3a	0.010539347
243	0x3dc2c864	0.09510878
244	0x3ccd1299	0.025033282
245	0x3e32c82b	0.1745917
246	0xbd834d42	-0.0641122
247	0xbe11dfd7	-0.14245544
248	0xbd3d96fe	-0.046286575
249	0xbe21daec	-0.15806168
250	0xbdc7a87e	-0.09748934
251	0xbe17a894	-0.14810401
252	0xbd6b87ec	-0.057502672
253	0x3e4e607a	0.2015399
254	0x3ddce04e	0.1078497
255	0x3e485a72	0.19565752
