LanguageModels/mechanics/model.pth (torch, 955634 bytes, 110 tensors)

token_embedding_table.weight f4 [102, 64]
000000 ef 86 bc bd b5 fe a3 3e 7c f5 29 3e d3 ea 07 bf
       -0.09205424 0.32030264 0.16597551 -0.5309269
000010 e5 53 c8 be 1c c2 be be da 2d dc bf f1 c4 be bf
       -0.39126506 -0.3725747 -1.7201493 -1.4903852
000020 39 e2 3e 3d 47 27 bf be 48 f4 2b bf c0 8d 0e 40
       0.04660246 -0.37334654 -0.6716962 2.2274017
000030 de 20 8b bf 5e 32 aa 3f 4c 7a 3b 3f 26 f6 65 bf
       -1.0869405 1.3296621 0.73233485 -0.8982872
000040 18 92 8d bf ba 8f 1b bf 88 09 05 bf be 86 9a 3f
       -1.1060209 -0.60766184 -0.5196767 1.207237
000050 93 5e f2 bc 6e 51 42 3f fd da 1e 3e 1e cb a7 be
       -0.029586112 0.759055 0.15513225 -0.32772154
000060 11 a9 af 3f 81 23 26 bf 0e 8c 9f be 20 93 30 3f
       1.372347 -0.64897925 -0.3116154 0.68974495
000070 23 85 f5 3d 36 9e 2c bf 01 4a 23 3f 30 6e dc 3f
       0.119882844 -0.6742891 0.63784796 1.7221127
000080 6a 8c fe 3f 16 6e 8f bf 4d c5 6d bf d7 2b a2 3f
       1.9886601 -1.120547 -0.9287918 1.2669629
000090 47 1d c8 3f 2f 47 84 3e cc 18 93 3e 46 65 42 bf
       1.5633935 0.2583556 0.28729856 -0.7593578
0000a0 cf 98 ae 3f 4c bb 02 bf 96 a9 a9 bf 67 87 a3 3f
       1.3640383 -0.5106704 -1.3254879 1.2775697
0000b0 ad 41 eb be 1f f4 e4 3f d4 04 44 3f 54 75 8b be
       -0.45948544 1.7887 0.7656987 -0.27237952
0000c0 f8 0b 9a 3d 7b 94 fc 3d 79 b4 b2 bf c5 3e 7b 3f
       0.07521814 0.12333008 -1.3961326 0.98142654
0000d0 20 f0 e8 3e 88 d4 b2 be e6 e2 7d 3f 4a 0f 24 40
       0.454957 -0.34927773 0.99174345 2.5634332
0000e0 29 5e ac bd 0f d5 ad be a3 4d b1 be 5a 7c 7f 3e
       -0.08416397 -0.33951613 -0.34629545 0.2494978
0000f0 2a b9 2e bf 72 26 1f 3f 2d 89 6e bf 3e 33 55 bc
       -0.6825129 0.6216804 -0.93178064 -0.013012705
000100 be 67 c4 3e 94 e9 72 3f 92 66 ba bc 9e 07 89 3f
       0.383604 0.9488766 -0.022753987 1.070545
000110 06 e2 96 bf 8f bc 2c 3f 23 a9 21 bf 11 94 1c c0
       -1.1787727 0.6747522 -0.6314871 -2.4465373
000120 98 23 1a 3f d8 20 ab 3e 0a 72 b9 be fd 20 61 3f
       0.6021056 0.33423495 -0.36219817 0.8794096
000130 cc b9 fa bf 97 5e d0 3e 62 cf ce 3f 36 d6 96 3e
       -1.9587951 0.40697166 1.6157038 0.29460305
000140 91 26 25 bf c7 39 8c 3f 08 88 a8 be da aa 42 3f
       -0.6451197 1.0955132 -0.32916284 0.7604195
000150 e8 c8 60 bd 83 1c 00 3d 5d 59 2f 3f f6 db bb 3f
       -0.0548791 0.03127719 0.6849573 1.4676502
000160 6a 69 85 3e 41 10 c5 bf 3a b8 f5 3f 40 2d 22 3e
       0.26056987 -1.5395585 1.9196846 0.15837574
000170 ac 6d 57 bf 36 d3 f8 3d b8 fe b3 3f 1f e9 0e be
       -0.8415172 0.1214966 1.4062109 -0.13956116
000180 e4 b4 29 3f b3 e0 3a bf be be 21 bf ec 3f 0f 40
       0.6629164 -0.72999114 -0.63181674 2.2382765
000190 de 9e a8 bd 17 00 15 40 1b 38 be bf 39 bf ca 3e
       -0.082334265 2.3281305 -1.4860872 0.39599016
0001a0 7a 0a d5 3e 18 b8 31 bf 2c 6f d5 3e e8 81 5f be
       0.41609555 -0.6942153 0.4168638 -0.21826899
0001b0 e7 cf e5 3f f6 74 b1 3e 00 11 ab be 68 0f a1 3e
       1.7954072 0.34659547 -0.33411407 0.31457067
0001c0 bf da 45 3f 18 a0 18 bf 12 8e 9c be a7 51 7c be
       0.77286905 -0.59619284 -0.3057714 -0.24640523
0001d0 74 06 ec bf d7 b6 f3 3d 75 f7 d5 bf 00 ec 8b be
       -1.8439469 0.11900108 -1.6716143 -0.2732849
0001e0 ce 63 38 3f 03 54 34 40 8d f2 10 3f 8f b0 86 3f
       0.7202729 2.8176277 0.56620103 1.0522631
0001f0 93 ad 8c 3f 2c 42 89 be 35 9e b2 3f b0 a7 fa 3e
       1.0990471 -0.26808298 1.3954531 0.4895606
000200 c7 04 90 3f b1 49 46 be 65 86 c4 bf 10 dd 83 bf
       1.1251458 -0.19364049 -1.5353514 -1.0301838
000210 07 31 40 3f 94 ba 38 3f 87 b7 9f be 46 b8 26 bf
       0.7507481 0.72159696 -0.31194708 -0.6512493
000220 80 34 42 bf d5 1c 34 3f 0b 56 80 3f 93 9d 98 3e
       -0.7586136 0.70356494 1.0026258 0.2980772
000230 7a 4e c6 bf 78 05 d8 bc a1 4a 10 3d 4a b0 f5 3e
       -1.5492699 -0.026369795 0.03522742 0.4798606
000240 8e e8 c1 bf bb b9 97 3e 86 93 b4 bf 96 b0 56 3f
       -1.5149095 0.2963389 -1.410752 0.838632
000250 b0 0c 1f 40 41 80 a3 3d e8 5f 85 3e fb 04 73 3f
       2.4851494 0.07983447 0.26049733 0.94929475
000260 68 f9 99 bd ef 3f bc be bf 9c f7 be 51 10 1d bf
       -0.075182736 -0.36767527 -0.48361775 -0.6135302
000270 94 a6 89 bf 48 d0 f1 be 11 ff c0 3d 08 bf a6 3f
       -1.0753961 -0.47229218 0.0942365 1.3027048
000280 45 c7 bf 3f 2c d4 5d 3f f4 7a 7b 3f d6 2c 5d 3f
       1.4982687 0.86651874 0.98234487 0.8639654
000290 2e ee 00 3f ef 01 70 bf 1b a2 2e bf 5f 95 90 bc
       0.50363433 -0.9375295 -0.68216103 -0.01764935
0002a0 cd f1 a7 be fd c8 a4 3d 36 68 a0 3f 10 75 85 3f
       -0.32801667 0.08046148 1.2531803 1.042635
0002b0 e6 a7 02 3e d3 1a f6 3e ed 93 4f bd 0f ae 20 bf
       0.1275936 0.4806734 -0.050678182 -0.6276559
0002c0 f6 e8 64 3f 08 21 c6 3e 2b 44 50 3f c9 db a1 3d
       0.8941797 0.38697076 0.81354016 0.07903249
0002d0 9c 24 27 3f 30 e0 91 bf fd 4c 4a 3f 11 45 65 bf
       0.65290236 -1.1396542 0.79023725 -0.8955851
0002e0 87 b2 3f 3d 44 21 5c 3f 7d 4a ee be f3 84 5f be
       0.046801116 0.8598826 -0.46541205 -0.2182806
0002f0 8f 9b 3e be e2 60 4c be fa d5 7f bf ac 10 64 bf
       -0.18614028 -0.19958833 -0.9993588 -0.8908794
000300 7e 95 d8 3e ef 21 25 bf 16 7b 82 be 0e 3b 68 be
       0.42301553 -0.64504904 -0.25484532 -0.22678778
000310 21 e6 ab 3f 79 e2 8c bf cf de 66 be 39 05 88 3f
       1.3429605 -1.1006614 -0.22545932 1.0626594
000320 cf 3e fc 3d 42 58 67 be 25 90 d1 3f f5 93 80 be
       0.12316667 -0.22592261 1.6372114 -0.25112882
000330 9e 71 af bf 49 f6 af bf 5b 59 9c bf fd bb 9d bf
       -1.3706548 -1.3747035 -1.2214769 -1.2322994
000340 fc 48 cb bf ba 67 04 40 f1 27 d3 bf 15 aa 82 3f
       -1.5881648 2.068831 -1.6496564 1.0208155
000350 eb 91 93 bf 97 ec ca 3f 46 1c 9e bf c8 6b 01 be
       -1.1528906 1.5853451 -1.2352378 -0.12638772
000360 57 0d 8f 3d 27 a6 e0 be d4 25 f4 be 15 37 d0 bf
       0.06984966 -0.43876764 -0.4768511 -1.626681
000370 42 14 39 bf 9e 1a c4 3e 12 fa c1 be 66 3a a3 3f
       -0.72296536 0.38301557 -0.378861 1.2752197
000380 c4 8a 96 3e 94 32 08 3f af 45 b0 bf 21 50 0e 3d
       0.29402745 0.53202176 -1.3771266 0.034744386
000390 f1 9a 9f 3f a7 6f f9 bd 37 c7 19 3e 48 a3 86 3e
       1.2469159 -0.12179499 0.150174 0.2629645
0003a0 85 bb 05 40 ba c8 a4 bf 10 44 49 c0 f3 fd a1 be
       2.0895703 -1.2873757 -3.1447792 -0.3163906
0003b0 5a 42 68 3e b7 99 c7 3e 51 2d fb 3e b2 c7 24 c0
       0.22681561 0.38984463 0.4905801 -2.5746884
0003c0 93 0f 94 be db 9d 0d bf 55 1b 74 3f 13 3c a7 3c
       -0.28918132 -0.55318993 0.95354205 0.020414388
0003d0 c6 68 44 3e 53 c5 fb 3f 08 fa 98 3f 6d a7 ec be
       0.19180593 1.9669594 1.1951303 -0.46221486
0003e0 62 80 a9 3f 91 87 cf be f3 3d 27 3f 7e 1b ad 3e
       1.3242304 -0.40533116 0.653289 0.33810037
0003f0 87 ff 90 3e 3b 52 6a 3e 7e 7d ff 3e 99 bd a9 3e
       0.28319952 0.22882931 0.4990043 0.33152464

position_embedding_table.weight f4 [32, 64]
000000 6c 92 82 3f f6 d9 c8 bf a7 1f da 3f 77 67 94 bf
       1.0200934 -1.5691516 1.704091 -1.1594075
000010 40 7b d0 3e a3 00 18 bf ec 07 d2 be 9e 76 99 3e
       0.40719032 -0.5937597 -0.4102167 0.2997331
000020 2e 6e 8d bc 12 65 dd bf a3 d0 17 3f c7 85 f8 be
       -0.017264452 -1.7296469 0.5930273 -0.48539564
000030 88 5a 9f bf 1a 7d 2e be e3 f7 0a c0 34 92 3e 3f
       -1.2449503 -0.1703991 -2.1713798 0.7444184
000040 55 6d b6 bf 7d 53 62 3f c4 db 4d 3f d1 a8 d7 be
       -1.4252115 0.88408643 0.8041346 -0.42120984
000050 bf b9 24 bf f8 9b d5 bf 14 77 9c bf 4c c4 ca 3f
       -0.64345926 -1.6688223 -1.222384 1.5841155
000060 41 bc 1c bf 68 6f d2 3e 34 ec 59 be 47 68 90 bf
       -0.6122475 0.4110062 -0.2128151 -1.1281823
000070 c0 97 fc bc 91 5e 00 3f 1b df 1e 40 bd 88 c4 bf
       -0.030834079 0.50144297 2.4823673 -1.5354229
000080 b7 71 d2 3f 56 89 83 bf 84 4a c4 bd 01 72 01 bf
       1.6440953 -1.0276287 -0.09584525 -0.5056458
000090 02 f0 50 3e 78 68 61 3e 22 4b d1 3f 1a 52 92 bf
       0.20404056 0.22012508 1.6351054 -1.1431305
0000a0 11 d4 88 be 03 f0 4c 3e 14 e1 62 bf 25 77 e8 3c
       -0.26724294 0.20013432 -0.8862469 0.028377125
0000b0 83 94 62 3e bd 04 8f 3f bd ca 58 be 81 af 25 3f
       0.22126965 1.1173321 -0.21171089 0.6472092
0000c0 3d 22 14 be 1b 74 e7 3e fc 11 1d 40 e9 d0 b5 be
       -0.14466186 0.4520577 2.4542227 -0.35510948
0000d0 6e 54 26 3f e6 17 07 40 e3 a2 a8 be d6 63 b0 be
       0.6497258 2.1108336 -0.32936773 -0.3445117
0000e0 29 fc 92 3f 87 29 fd bf 02 8e b4 3e d2 cd 12 bf
       1.1483203 -1.9778298 0.35264593 -0.57345307
0000f0 86 45 ad 3e 7e e5 94 3f 85 6d 5b bf b1 64 b6 be
       0.33842105 1.1632535 -0.8571399 -0.35623696
000100 ad 59 f4 bd f3 d1 eb 3e b9 ca 96 bd 07 c6 84 bf
       -0.11931167 0.46058616 -0.07362885 -1.0372933
000110 07 ad 05 3f 79 fa 8f 3e 3d f7 7a bf 14 53 97 3f
       0.52217144 0.28120783 -0.98033506 1.1822228
000120 7b bd 19 c0 5f cf 9b 3f 2b 08 88 3e d4 f7 49 be
       -2.40219 1.217266 0.26568732 -0.19723445
000130 8a 7b c0 bf 63 d9 9f be 7b 65 96 bf 66 06 db bd
       -1.5037701 -0.3122054 -1.1749719 -0.1069458
000140 c8 25 81 3f 6a b3 7d bf 64 b5 e2 bf b0 1c 7c 3f
       1.0089655 -0.9910189 -1.7711606 0.98481274
000150 73 91 a3 3f a7 c2 70 bf 4d 64 89 bf 5f 12 9d bf
       1.2778763 -0.94047016 -1.0733734 -1.2271231
000160 85 ee 01 c0 80 e4 9f 3f 6f 92 86 3b ee 11 8b 3c
       -2.030183 1.2491608 0.0041068117 0.016976323
000170 ce d3 1c 3f 85 51 07 bf ff 64 5b be 5e 6b 62 bf
       0.6126069 -0.52858764 -0.21425246 -0.8844508
000180 b1 d6 92 bf 71 fc 75 3e 98 0b 7d 3f 14 2f a2 be
       -1.1471769 0.2402208 0.98845816 -0.31676543
000190 ca 53 e1 be 7e 60 b2 3f 0c 73 8e 3f b7 cc 9e bf
       -0.44009238 1.3935697 1.112886 -1.2406224
0001a0 25 8f 1e 3f ca f5 2c 3e 9c 95 64 3f 30 ff b7 3e
       0.6193717 0.16890636 0.89290786 0.3593688
0001b0 a3 4e 2c 40 0e c1 d7 be 45 43 13 bc a2 fb cd 3e
       2.6922996 -0.42139477 -0.008988206 0.40231043
0001c0 ec d0 b9 3f c3 1b 53 bf b0 37 c2 3e 66 1e 0f 3e
       1.4516883 -0.82464236 0.3793311 0.1397644
0001d0 50 92 72 bf de cb ef 3e 79 aa 15 bf 58 75 18 be
       -0.94754505 0.46835226 -0.58463246 -0.14888513
0001e0 57 0f c3 bf 10 42 82 3f 39 14 35 bf 45 e9 99 3f
       -1.5239056 1.0176411 -0.7073398 1.2024313
0001f0 10 8f 29 bf 6a 7a c3 be 6b fb 57 3f 32 df 90 3f
       -0.6623392 -0.38179332 0.8436801 1.1318114
000200 d3 f1 90 be d9 4b 79 3e 14 75 9c 3f 65 43 78 3f
       -0.28309497 0.2434534 1.222323 0.96977836
000210 86 db 56 bf 47 f3 99 3f a1 66 58 3f fc 5e 77 bf
       -0.83928716 1.2027367 0.845316 -0.9662931
000220 2b 31 c7 3f 77 3b 89 3f e1 b7 b0 3e 14 72 bb 3d
       1.556188 1.0721272 0.34515288 0.09152618
000230 0b 35 25 bf 11 34 89 bf 90 6b 91 3f db 3f cf 3c
       -0.6453406 -1.0719014 1.136095 0.025299003
000240 74 d5 c2 be 0a 52 9d bf c3 e8 10 be 10 c7 2e be
       -0.38053477 -1.2290661 -0.14151292 -0.17068124
000250 d1 22 88 3f 9b de cf 3f ae 1c bd bf 03 c4 80 3f
       1.0635625 1.6239809 -1.4774377 1.0059818
000260 82 71 3c bf 09 17 8a 3e 30 56 36 bf 90 8c 7b 3f
       -0.736107 0.269707 -0.7122526 0.98261356
000270 5e 51 06 be c5 2e af 3f 21 ae af 3e 69 c5 c7 bf
       -0.13116977 1.3686148 0.34312537 -1.560712
000280 ac 3b 0a 3d 17 de 7e 3f ea b4 2c be a9 f5 a3 3d
       0.033748314 0.9955763 -0.16865888 0.0800584
000290 e6 ee 21 bf 94 2c 8b 3f f5 c4 2f 3f 61 7e 44 bf
       -0.63255155 1.0872979 0.6865991 -0.7675534
0002a0 11 0e 3d bf 8e c2 3a bf 2a 1b 95 3f 05 fa 10 bf
       -0.7384959 -0.72953117 1.1648915 -0.566315
0002b0 d3 7b ff 3e 02 1c a7 3e f3 e5 6a 3e 65 21 05 be
       0.49899158 0.32638556 0.22939281 -0.1300102
0002c0 54 7b 23 3c 76 cf 87 bf 75 4b 0d 3f b3 25 1f 3d
       0.009978134 -1.0610187 0.55193263 0.038854312
0002d0 26 b4 68 3f 84 95 a4 3f 1f 84 9e 3e da 49 21 3f
       0.90899885 1.2858129 0.30960175 0.63003314
0002e0 2f 35 af bf 01 40 0a 40 8a bd 64 3f 06 44 38 be
       -1.3688105 2.1601565 0.89351714 -0.17994699
0002f0 52 55 2a be 14 9b 0c bf dc 78 9f bf 39 48 8f 3f
       -0.1663411 -0.5492413 -1.2458758 1.1193916
000300 77 08 60 3f cc 34 3c bf 5f 6e 53 3f 2d 0c aa 3e
       0.87512916 -0.7351806 0.8259029 0.33212414
000310 3f 82 1a 3f 58 43 3d 3f 24 cb b9 bf e3 b2 be 3e
       0.6035499 0.73930883 -1.4515119 0.37245855
000320 7c cd 88 3f 58 4b a5 3f b0 de d3 3f 3b dc 43 bf
       1.0687709 1.2913618 1.6552334 -0.7650792
000330 b7 0e 98 bd ac 8a a2 bf 6f a6 84 3f af 7e d7 3f
       -0.07424682 -1.2698569 1.0363292 1.6835536
000340 e0 80 d3 3f b2 a5 04 3f 53 c9 a3 bf 57 46 eb 3e
       1.6523705 0.5181533 -1.2795814 0.45952103
000350 b9 e4 a7 be fc 38 ed be cc 97 7d 3f 65 9f 80 3e
       -0.3279169 -0.46332538 0.9905975 0.25121608
000360 19 5e 34 bf 04 03 98 3e 99 35 f7 3d 48 68 5d 3e
       -0.7045608 0.296898 0.1207077 0.21621811
000370 87 fb 9c 3e 79 7b 70 3d 5c d5 c0 3f 9a 7a f6 bd
       0.3066065 0.058711503 1.5065112 -0.12035103
000380 d5 74 31 bf 1b 23 9c 3f b9 0e cd 3f cd ac cc 3e
       -0.69318897 1.2198213 1.6020118 0.39975587
000390 e0 84 09 3f 3c 8e 0e bf d3 63 10 40 c4 4d 4a bf
       0.53718376 -0.5568578 2.2560928 -0.7902491
0003a0 89 48 51 3f e4 d9 13 bf b9 76 d6 3f 66 f5 b2 3f
       0.81751305 -0.5775435 1.6754981 1.398114
0003b0 cc 51 b5 3f 38 bc 45 bf 6b f4 65 3f 8d f9 28 bf
       1.4165587 -0.77240324 0.8982608 -0.66005784
0003c0 86 4a a8 bf 43 c0 92 be a7 da 23 be 7b 30 96 3f
       -1.3147743 -0.2866231 -0.16001378 1.1733545
0003d0 a6 b8 09 40 89 a1 71 be 40 4c 81 3f 70 ed 20 3f
       2.151895 -0.23596777 1.0101395 0.628623
0003e0 c4 0d a1 3e cd 23 c6 be 70 2f 05 bf 38 57 0d 3e
       0.31455815 -0.3869919 -0.5202551 0.13802803
0003f0 90 d6 df be 5c f2 f6 3e 72 c2 38 3f a6 9e 7e 3f
       -0.43718386 0.4823178 0.721717 0.9946083

blocks.0.sa.heads.0.tril f4 [32, 32]
000000 00 00 80 3f 00 00 00 00 00 00 00 00 00 00 00 00
       1.0 0.0 0.0 0.0
000010 00 00 00 00 00 00 00 00 00 00 00 00 00 00 00 00
       0.0 0.0 0.0 0.0
000020 00 00 00 00 00 00 00 00 00 00 00 00 00 00 00 00
       0.0 0.0 0.0 0.0
000030 00 00 00 00 00 00 00 00 00 00 00 00 00 00 00 00
       0.0 0.0 0.0 0.0
000040 00 00 00 00 00 00 00 00 00 00 00 00 00 00 00 00
       0.0 0.0 0.0 0.0
000050 00 00 00 00 00 00 00 00 00 00 00 00 00 00 00 00
       0.0 0.0 0.0 0.0
000060 00 00 00 00 00 00 00 00 00 00 00 00 00 00 00 00
       0.0 0.0 0.0 0.0
000070 00 00 00 00 00 00 00 00 00 00 00 00 00 00 00 00
       0.0 0.0 0.0 0.0
000080 00 00 80 3f 00 00 80 3f 00 00 00 00 00 00 00 00
       1.0 1.0 0.0 0.0
000090 00 00 00 00 00 00 00 00 00 00 00 00 00 00 00 00
       0.0 0.0 0.0 0.0
0000a0 00 00 00 00 00 00 00 00 00 00 00 00 00 00 00 00
       0.0 0.0 0.0 0.0
0000b0 00 00 00 00 00 00 00 00 00 00 00 00 00 00 00 00
       0.0 0.0 0.0 0.0
0000c0 00 00 00 00 00 00 00 00 00 00 00 00 00 00 00 00
       0.0 0.0 0.0 0.0
0000d0 00 00 00 00 00 00 00 00 00 00 00 00 00 00 00 00
       0.0 0.0 0.0 0.0
0000e0 00 00 00 00 00 00 00 00 00 00 00 00 00 00 00 00
       0.0 0.0 0.0 0.0
0000f0 00 00 00 00 00 00 00 00 00 00 00 00 00 00 00 00
       0.0 0.0 0.0 0.0
000100 00 00 80 3f 00 00 80 3f 00 00 80 3f 00 00 00 00
       1.0 1.0 1.0 0.0
000110 00 00 00 00 00 00 00 00 00 00 00 00 00 00 00 00
       0.0 0.0 0.0 0.0
000120 00 00 00 00 00 00 00 00 00 00 00 00 00 00 00 00
       0.0 0.0 0.0 0.0
000130 00 00 00 00 00 00 00 00 00 00 00 00 00 00 00 00
       0.0 0.0 0.0 0.0
000140 00 00 00 00 00 00 00 00 00 00 00 00 00 00 00 00
       0.0 0.0 0.0 0.0
000150 00 00 00 00 00 00 00 00 00 00 00 00 00 00 00 00
       0.0 0.0 0.0 0.0
000160 00 00 00 00 00 00 00 00 00 00 00 00 00 00 00 00
       0.0 0.0 0.0 0.0
000170 00 00 00 00 00 00 00 00 00 00 00 00 00 00 00 00
       0.0 0.0 0.0 0.0
000180 00 00 80 3f 00 00 80 3f 00 00 80 3f 00 00 80 3f
       1.0 1.0 1.0 1.0
000190 00 00 00 00 00 00 00 00 00 00 00 00 00 00 00 00
       0.0 0.0 0.0 0.0
0001a0 00 00 00 00 00 00 00 00 00 00 00 00 00 00 00 00
       0.0 0.0 0.0 0.0
0001b0 00 00 00 00 00 00 00 00 00 00 00 00 00 00 00 00
       0.0 0.0 0.0 0.0
0001c0 00 00 00 00 00 00 00 00 00 00 00 00 00 00 00 00
       0.0 0.0 0.0 0.0
0001d0 00 00 00 00 00 00 00 00 00 00 00 00 00 00 00 00
       0.0 0.0 0.0 0.0
0001e0 00 00 00 00 00 00 00 00 00 00 00 00 00 00 00 00
       0.0 0.0 0.0 0.0
0001f0 00 00 00 00 00 00 00 00 00 00 00 00 00 00 00 00
       0.0 0.0 0.0 0.0
000200 00 00 80 3f 00 00 80 3f 00 00 80 3f 00 00 80 3f
       1.0 1.0 1.0 1.0
000210 00 00 80 3f 00 00 00 00 00 00 00 00 00 00 00 00
       1.0 0.0 0.0 0.0
000220 00 00 00 00 00 00 00 00 00 00 00 00 00 00 00 00
       0.0 0.0 0.0 0.0
000230 00 00 00 00 00 00 00 00 00 00 00 00 00 00 00 00
       0.0 0.0 0.0 0.0
000240 00 00 00 00 00 00 00 00 00 00 00 00 00 00 00 00
       0.0 0.0 0.0 0.0
000250 00 00 00 00 00 00 00 00 00 00 00 00 00 00 00 00
       0.0 0.0 0.0 0.0
000260 00 00 00 00 00 00 00 00 00 00 00 00 00 00 00 00
       0.0 0.0 0.0 0.0
000270 00 00 00 00 00 00 00 00 00 00 00 00 00 00 00 00
       0.0 0.0 0.0 0.0
000280 00 00 80 3f 00 00 80 3f 00 00 80 3f 00 00 80 3f
       1.0 1.0 1.0 1.0
000290 00 00 80 3f 00 00 80 3f 00 00 00 00 00 00 00 00
       1.0 1.0 0.0 0.0
0002a0 00 00 00 00 00 00 00 00 00 00 00 00 00 00 00 00
       0.0 0.0 0.0 0.0
0002b0 00 00 00 00 00 00 00 00 00 00 00 00 00 00 00 00
       0.0 0.0 0.0 0.0
0002c0 00 00 00 00 00 00 00 00 00 00 00 00 00 00 00 00
       0.0 0.0 0.0 0.0
0002d0 00 00 00 00 00 00 00 00 00 00 00 00 00 00 00 00
       0.0 0.0 0.0 0.0
0002e0 00 00 00 00 00 00 00 00 00 00 00 00 00 00 00 00
       0.0 0.0 0.0 0.0
0002f0 00 00 00 00 00 00 00 00 00 00 00 00 00 00 00 00
       0.0 0.0 0.0 0.0
000300 00 00 80 3f 00 00 80 3f 00 00 80 3f 00 00 80 3f
       1.0 1.0 1.0 1.0
000310 00 00 80 3f 00 00 80 3f 00 00 80 3f 00 00 00 00
       1.0 1.0 1.0 0.0
000320 00 00 00 00 00 00 00 00 00 00 00 00 00 00 00 00
       0.0 0.0 0.0 0.0
000330 00 00 00 00 00 00 00 00 00 00 00 00 00 00 00 00
       0.0 0.0 0.0 0.0
000340 00 00 00 00 00 00 00 00 00 00 00 00 00 00 00 00
       0.0 0.0 0.0 0.0
000350 00 00 00 00 00 00 00 00 00 00 00 00 00 00 00 00
       0.0 0.0 0.0 0.0
000360 00 00 00 00 00 00 00 00 00 00 00 00 00 00 00 00
       0.0 0.0 0.0 0.0
000370 00 00 00 00 00 00 00 00 00 00 00 00 00 00 00 00
       0.0 0.0 0.0 0.0
000380 00 00 80 3f 00 00 80 3f 00 00 80 3f 00 00 80 3f
       1.0 1.0 1.0 1.0
000390 00 00 80 3f 00 00 80 3f 00 00 80 3f 00 00 80 3f
       1.0 1.0 1.0 1.0
0003a0 00 00 00 00 00 00 00 00 00 00 00 00 00 00 00 00
       0.0 0.0 0.0 0.0
0003b0 00 00 00 00 00 00 00 00 00 00 00 00 00 00 00 00
       0.0 0.0 0.0 0.0
0003c0 00 00 00 00 00 00 00 00 00 00 00 00 00 00 00 00
       0.0 0.0 0.0 0.0
0003d0 00 00 00 00 00 00 00 00 00 00 00 00 00 00 00 00
       0.0 0.0 0.0 0.0
0003e0 00 00 00 00 00 00 00 00 00 00 00 00 00 00 00 00
       0.0 0.0 0.0 0.0
0003f0 00 00 00 00 00 00 00 00 00 00 00 00 00 00 00 00
       0.0 0.0 0.0 0.0

blocks.0.sa.heads.0.key.weight f4 [16, 64]
000000 00 4c 72 3b ab 79 4d 3d 09 c6 bd bb 2e 02 c6 bd
       0.003697157 0.05016486 -0.00579143 -0.096683845
000010 6b 27 33 3e 93 e7 5f 3e 56 52 46 bd 68 02 37 3d
       0.17495506 0.21865682 -0.048418365 0.04468003
000020 e4 cd 1e 3d 2e c0 cd 3d 7f c9 bc bc 18 f9 a3 3d
       0.03877057 0.10046421 -0.0230453 0.08006495
000030 94 55 b5 bd a8 20 c9 bd c1 b3 00 be 51 2a 88 3d
       -0.08854213 -0.09820682 -0.1256857 0.06648696
000040 32 12 92 3c 0c 93 9c bd 9b 7d e0 bd fc d6 d4 bd
       0.017830942 -0.076452345 -0.10961457 -0.103925675
000050 3c 5e 2c 3d 1d 80 af 3c 4d 42 53 be b7 3c ee 3d
       0.042082056 0.021423394 -0.2063076 0.11632674
000060 d4 dd 2d 3c 0e 79 5d bd a3 1f 90 bd 5c 7a bd 3c
       0.01061197 -0.054070525 -0.07037284 0.023129635
000070 37 c4 77 be 0c ed 60 3e c7 86 01 be d3 8d 04 3c
       -0.24195944 0.21965426 -0.1264907 0.008090454
000080 0e 47 2b be 8e 6d 59 bc c6 fb 9f bd d1 d7 81 bc
       -0.16726324 -0.013270749 -0.07811694 -0.01584998
000090 a9 74 79 bd 95 80 d4 3d 55 38 f0 3d a0 1f 50 3c
       -0.06090227 0.103760876 0.117294945 0.0127028525
0000a0 02 be 9d 3d 2d f7 a7 bc dd a7 9a 3d 97 9a 5b bb
       0.07702257 -0.020503605 0.07551549 -0.003350889
0000b0 94 67 77 3d 62 81 9e 3d 0a 38 cf 3d 79 6d ff 3b
       0.060401514 0.077395216 0.101181105 0.0077950326
0000c0 d8 68 9a 3d 2a f0 05 be 2b f0 96 bc c0 f8 0d be
       0.075395286 -0.13079897 -0.018425068 -0.13864422
0000d0 bc 86 35 3d a0 db 3d 3d 96 dd 47 3d 67 7b 71 3d
       0.044317946 0.04635203 0.048795305 0.058955576
0000e0 c2 44 3a bd 82 08 f7 bd 2e 1e a8 3d 2e 25 41 bd
       -0.04547573 -0.120621696 0.08208881 -0.047154598
0000f0 58 cc 8e bd 62 6f 0c 3d 50 e7 5f be 9b 3e 4b bd
       -0.06972569 0.03428591 -0.21865582 -0.049620252
000100 8b 38 7b 3d 99 08 bb 3d 59 ca 04 3e 76 b3 53 3e
       0.06133322 0.09132499 0.12967815 0.20673928
000110 d7 f0 c8 3b 97 0e 60 3d 53 eb ec bd 06 09 63 bd
       0.006132226 0.054701414 -0.11568322 -0.055428527
000120 02 cf 19 be 9d 5d 57 3c 4a f8 07 3c 2d 1f 9e 3d
       -0.15020373 0.013144878 0.008298943 0.0772079
000130 1e 98 6d 3d 2c c2 73 bd 79 44 a1 bd 5a 03 3d be
       0.0580064 -0.05951135 -0.07874388 -0.1845831
000140 29 09 40 3d ea 19 d1 3c 1b 1a 45 3e 37 63 af 3c
       0.046883736 0.025525052 0.1924824 0.021409614
000150 72 33 4d bd 65 f8 16 3d 6d f6 28 3e bc af e7 bd
       -0.05009789 0.03685798 0.16500254 -0.113128155
000160 6b 8f 1e 3e e3 4c 0a 3e 08 c6 88 3d 77 d3 2a be
       0.15484397 0.13505892 0.066783965 -0.1668223
000170 41 be 9c 3d 78 88 3d bd 6f 4a 9c bd 3e 98 26 be
       0.076534756 -0.046272725 -0.076313846 -0.16269013
000180 ef f7 19 be 53 1c b1 3b f2 32 de 3d 60 a9 cf 3d
       -0.15035985 0.005404988 0.10849561 0.101397276
000190 1c 99 de 3d 07 38 ee bc bc fe f2 bc c4 b1 02 3e
       0.10869047 -0.02907945 -0.029662482 0.12763125
0001a0 52 e5 a7 bc 91 ae df 3b a5 d3 65 bc 4c 34 10 bc
       -0.02049509 0.00682623 -0.014027511 -0.008801531
0001b0 44 20 2d be 94 92 65 3d 7e b3 28 3d 2c e0 97 bd
       -0.1690684 0.05604799 0.041186802 -0.07415804
0001c0 09 82 0a be 20 06 8b 3d 1d b4 0b 3e c6 d3 a3 bd
       -0.13526167 0.067882776 0.13642927 -0.07999377
0001d0 71 b8 09 be 9e 96 c6 3c 69 ef e1 bd 31 69 df 3c
       -0.13449265 0.024241742 -0.11031992 0.027271839
0001e0 f0 89 41 3d ad 16 fb 3a 35 3c 7e 3d bf af 29 3e
       0.047250688 0.0019156538 0.062069137 0.16570948
0001f0 f1 e1 84 bc bd 11 13 3c be 63 6f bd f7 63 a2 3d
       -0.016221019 0.008976397 -0.05844473 0.07929223
000200 e4 78 2f bd ae 29 65 3d f6 09 8c bd 5a fd f5 3d
       -0.0428399 0.055947952 -0.068378374 0.120112136
000210 7e 32 89 3b 8c bc c6 3c 62 63 13 3d 5e 40 96 3d
       0.0041869273 0.024259828 0.03598345 0.07336496
000220 81 ba 09 3e d7 43 8a bd 8c e9 20 3d e9 bb 2c 3c
       0.13450052 -0.06751221 0.039285228 0.010542848
000230 dc 97 00 be 96 66 89 3d 02 b1 b7 bd 22 0e 0e 3e
       -0.1255793 0.0670902 -0.089693084 0.13872579
000240 d3 69 03 be 3f cf 0d 3d 96 2a 0b be 20 7d c6 bd
       -0.12833337 0.034621473 -0.13590464 -0.096918344
000250 eb 08 ce bd 83 29 01 3d 83 54 25 bd 78 f8 88 bd
       -0.10060295 0.03153373 -0.0403638 -0.06688017
000260 ce 73 c2 bc f1 5e 64 bd 4b 50 e0 bd e7 2f b3 3c
       -0.02373686 -0.055754606 -0.10952815 0.021873428
000270 d2 eb 60 3d 7b fe 96 3b 48 fb 06 be b6 e2 1d 3d
       0.054912396 0.004607973 -0.13181794 0.038546287
000280 ba f9 ac bd be e9 97 ba 2a ec 5d bd 82 d9 43 bd
       -0.08446069 -0.0011590046 -0.0541803 -0.047814853
000290 9b ba a0 bd 86 6d c4 bd 9e ab 10 3e a1 2f c0 3d
       -0.07848092 -0.095912024 0.14127967 0.093840845
0002a0 7d 1f 81 bd b5 41 a9 bd dd 2d 8a bd 96 35 d8 3d
       -0.06304834 -0.08264486 -0.06747029 0.10557096
0002b0 3c 40 a0 3d 82 ae 6c bd b7 dc 83 bd 5e 5d f7 3a
       0.07824752 -0.05778361 -0.064385824 0.001887243
0002c0 1a e7 5d bd 20 25 22 3b 6a cd 08 3e c2 61 44 3d
       -0.054175474 0.0024741367 0.13359609 0.04794479
0002d0 c1 c5 24 3d eb cd 1b 3e 23 97 94 bd 45 56 ae 3d
       0.040227655 0.1521527 -0.072553895 0.08512548
0002e0 be 08 3d 3d 60 a8 c2 3c 33 60 98 bd dc 37 07 be
       0.046150915 0.023761928 -0.074402235 -0.13204902
0002f0 d3 43 da bc 22 12 e7 39 f8 49 d8 3c 31 1a 3a be
       -0.02664367 0.00044073263 0.026402459 -0.18174054
000300 26 3f 15 3e 2f 76 a6 3d aa 78 9f bd 70 12 48 3d
       0.1457487 0.081280105 -0.07786687 0.04884571
000310 4c 81 91 bd b8 3d d5 bd 2a b1 66 bd ba 05 70 3d
       -0.071047395 -0.104121625 -0.0563213 0.05859921
000320 09 01 c4 3d 86 ab e8 3d 11 e1 de 3d 84 a4 1f 3e
       0.0957051 0.113608405 0.10882772 0.15590101
000330 30 25 1f bd b5 55 46 bc 63 4e 26 3e d9 a7 c4 3c
       -0.038853824 -0.012105395 0.1624084 0.024005817
000340 f5 bc 7f 3c 8a 4f 2f 3e 13 62 95 3d 9a b2 cd 3d
       0.015609016 0.17120185 0.07294097 0.10043831
000350 60 14 95 3d e8 03 a2 bd 50 4e 47 bc 04 5c c8 bc
       0.07279277 -0.07910901 -0.012164667 -0.024457939
000360 73 6e f7 bd 3a 14 d9 bd 00 a3 13 3d c5 61 29 be
       -0.120816134 -0.10599561 0.03604412 -0.16541202
000370 61 e7 ae bd 63 44 2a bd 7d 09 b4 bd 76 03 e3 bd
       -0.08540226 -0.041569125 -0.08790872 -0.110846445
000380 1a 26 f8 3d 43 3b 22 3e 37 66 28 3c ca cf 06 be
       0.12116642 0.15842919 0.010278276 -0.13165203
000390 42 e3 30 be 3b 21 56 be b5 48 87 3d d9 d6 02 be
       -0.17274192 -0.20911114 0.06605665 -0.1277727
0003a0 85 00 2b be 6e e6 f0 3b 59 fa 09 bd ae 12 b2 bd
       -0.16699417 0.007351688 -0.033686016 -0.08694969
0003b0 e3 81 82 bd c5 a7 d4 3d 71 33 00 bd 0c 9a c2 3d
       -0.0637243 0.10383562 -0.03129906 0.09502038
0003c0 d7 29 c5 bb 39 36 08 3d 73 99 4b bd c5 36 ba 3d
       -0.0060169506 0.033254836 -0.049706887 0.09092478
0003d0 93 bd 3d bd ac 28 9b 3d 44 f3 d1 3c 3f 23 8b 3d
       -0.04632337 0.07576117 0.025628693 0.06793832
0003e0 ff db 6e 3c 4d 44 00 3e cf c9 04 be 6e 73 33 3e
       0.014578818 0.12526055 -0.12967609 0.17524502
0003f0 dd 14 9c bd fb 74 08 3d e3 63 66 3c 8a 11 13 be
       -0.07621167 0.033314686 0.014061901 -0.1436216

blocks.0.sa.heads.0.query.weight f4 [16, 64]
000000 02 c3 37 3e a3 3c 2a be 75 fe 21 bd 78 84 fa bd
       0.17945483 -0.16624694 -0.03954931 -0.12232298
000010 ac 1f 90 3d 0e 30 6a bc ba 33 43 3d 72 60 7e 3e
       0.07037291 -0.014293684 0.047656752 0.24841478
000020 92 10 95 3c 5f 05 2d 3d 87 ec 3b bc 36 e5 0f be
       0.018196378 0.04224145 -0.011469967 -0.14052281
000030 3e 7a 41 bd 6d 85 95 3b 82 76 b8 bd eb c4 9c 3d
       -0.04723572 0.0045630247 -0.090069786 0.076547466
000040 2c ad ce 3b 00 2a 59 3d f3 be 72 3c 7d 3c a5 bc
       0.006307265 0.05301857 0.014816034 -0.020170445
000050 c1 cc 28 3c 24 11 2d bd 99 6c 14 3e 22 e7 2d bd
       0.010302723 -0.042252675 0.14494552 -0.042456754
000060 e0 3f e8 bc 58 5b 86 3d be d3 30 3d 92 72 5b 3d
       -0.02835077 0.06560391 0.043170683 0.05357606
000070 5c df b9 bd 6f 53 3a 3d 55 5d c1 3c 08 36 f1 bd
       -0.090758055 0.045489725 0.023604074 -0.11777884
000080 60 d3 69 3d 34 07 cd 3d 7b b1 c0 3d a6 58 2a be
       0.05708635 0.100111395 0.09408852 -0.16635379
000090 40 e8 ce 3d 78 48 29 bd 1f ed 3c 3d b7 07 2b 3d
       0.10102892 -0.041328877 0.046124574 0.041755404
0000a0 f2 82 1a be b0 5f 88 3d f1 52 67 3c 71 df 01 be
       -0.15089014 0.06658876 0.014118896 -0.12682892
0000b0 b8 69 8d bd 31 b8 bf bd cc ff 0f be b9 25 c4 bd
       -0.0690493 -0.093613036 -0.14062423 -0.095775075
0000c0 f9 8d ee 3c 9e 5b 08 3d 1c 24 13 be 7e 41 5d bd
       0.029120432 0.033290498 -0.14369243 -0.054017536
0000d0 f0 33 59 3e 63 e6 8f bd 1e 28 5d 3d dc fa 15 3d
       0.21211219 -0.07026365 0.053993337 0.03661619
0000e0 d7 ab 38 3e ab 3d d9 3c 94 90 cd bd 23 fa 89 3d
       0.18034302 0.026518663 -0.10037342 0.06737163
0000f0 5a e3 06 be a1 dd ba 3c 6d 44 30 bc f1 68 ba 3d
       -0.13172665 0.022810759 -0.0107585015 0.09102047
000100 62 55 e5 bd f5 96 95 bc 54 29 b4 bc c9 61 45 bd
       -0.11197926 -0.018260458 -0.021992363 -0.04818896
000110 80 63 c6 bd 1c 61 a1 bc 84 5b cd bc 0b e8 32 be
       -0.09686947 -0.019699626 -0.025068052 -0.1747133
000120 e4 c0 ea 3b 73 47 5b bd 09 18 f1 3c 50 17 0d 3d
       0.0071641076 -0.053534936 0.029430406 0.03444606
000130 ab e1 37 bd c3 2a 39 be 3f 30 a6 3d ef 49 8e 3d
       -0.044892948 -0.18082719 0.08114671 0.069476955
000140 92 88 32 be ce d2 7d be 3b 98 94 3d 5c cc 1f 3e
       -0.1743491 -0.24787447 0.07255598 0.156053
000150 df 42 fb bb e1 14 ea 3d 05 8b 3c bd e6 79 6c 3c
       -0.0076678838 0.114297636 -0.046031017 0.01443336
000160 49 cd c8 3a 5d 58 04 3c 5e 78 a2 3d 41 7f c7 bd
       0.0015319969 0.008077708 0.079331145 -0.09741069
000170 9e 2a 14 3e 5b 32 0d be 5d 41 17 be 5b 2e 98 bc
       0.14469382 -0.1378874 -0.14771028 -0.018576792
000180 64 36 a6 bd 31 90 cb 3d 6d bc c2 bd e2 f8 c9 3c
       -0.08115843 0.09939612 -0.095085956 0.02465481
000190 ec 76 d8 3b 56 72 14 3d cc 2c 2d bd d2 db 2e 3e
       0.0066059735 0.03624185 -0.04227905 0.17076042
0001a0 85 aa 10 3e d3 fc b9 bd 0c 8f ab 3b be d9 04 3d
       0.14127548 -0.090814255 0.0052355584 0.032434218
0001b0 88 72 5e 3d 4e 5c 84 bd ab 7e 34 bd a6 a3 c0 bc
       0.054308444 -0.06462918 -0.044066112 -0.023515534
0001c0 cc 11 7b bd e0 39 84 3b 81 7b 31 bd 0e 2e 1e bc
       -0.06129627 0.0040352196 -0.043330673 -0.009654535
0001d0 78 39 c2 3c cd cf 88 bd 7b 68 76 bd 12 5c 1d bc
       0.023709044 -0.0668026 -0.060158234 -0.009604471
0001e0 26 f3 e4 3d 1e fc 6a 39 de d7 83 3d 30 0d 17 bc
       0.111791894 0.000224099 0.06437658 -0.009219453
0001f0 a1 b7 2e 3e a0 b7 f4 3d f1 05 07 3e ad 52 bc 3d
       0.17062236 0.11949086 0.1318586 0.09195457
000200 89 3a 95 3d f2 2b ec bd 77 b7 08 3d 56 d7 06 3e
       0.07286555 -0.115318194 0.03337809 0.13168082
000210 17 97 e5 3c e9 c1 3c bc f0 98 7c 3c 6d 0e be 3d
       0.028026147 -0.011520841 0.0154173225 0.09280095
000220 09 bc 17 3e 01 a9 14 3a 36 f6 02 be b6 c2 d5 bd
       0.14817823 0.00056709355 -0.12789235 -0.10437529
000230 78 22 08 3d 15 1c 36 3d 63 ab 17 bb 09 8e b5 3d
       0.033235997 0.044460375 -0.0023142926 0.08864982
000240 2a e7 69 3c 0e 8d 7f bd 24 2a 80 3d 5d 30 b8 bc
       0.014276305 -0.06239038 0.06258038 -0.022483999
000250 52 d3 85 3c 8c 83 af bd 85 11 88 bd f5 0f 9b bd
       0.016336117 -0.085700125 -0.066439666 -0.07571403
000260 ca be 4e bd 86 40 74 3d a3 8a 99 bd 99 85 b2 bd
       -0.05047492 0.059631847 -0.07497146 -0.08716888
000270 7a 84 89 bd 7c fc 72 bd e8 a6 28 3d 4b 70 ed 3d
       -0.06714721 -0.05932282 0.0411748 0.11593684
000280 69 04 bb 3c cf 8f 9f 3d 40 a2 3c be ff da e5 bc
       0.022829251 0.07791101 -0.18421268 -0.028058527
000290 ba fd 69 bc 6f 3d 8a bd fa 31 49 3d 84 bd ad bd
       -0.0142816845 -0.06749999 0.049119927 -0.08483413
0002a0 a4 30 00 be cd ba f0 bd ce b2 9b 3d 81 72 4e bd
       -0.12518555 -0.117543794 0.07602464 -0.05040217
0002b0 2e 03 05 3e 20 97 3d 3d d3 f2 d7 3d 73 cf 88 bd
       0.12989494 0.046286702 0.10544362 -0.06680193
0002c0 fc 03 ec bd ec aa 19 3d 64 73 9c 3c f3 ca c2 3d
       -0.115241975 0.03751652 0.019097991 0.09511366
0002d0 7a 54 47 bd 1b 15 23 bc 5f 88 d3 bd 3b 49 d6 bd
       -0.048664548 -0.009953762 -0.10328745 -0.10463186
0002e0 5d 93 d5 3b be cd 0a 3d 70 35 ca bd 71 6b 2d 3d
       0.006517811 0.033887617 -0.09873474 0.042338792
0002f0 34 b9 90 3d 7d ec a5 bd 06 0f d2 3d a6 63 21 bd
       0.07066575 -0.08101747 0.10256772 -0.039401673
000300 b4 bd a2 bd 2c 74 68 3c 77 0b e2 bc 16 15 22 3e
       -0.07946339 0.014187854 -0.027593357 0.15828356
000310 bb 66 8b 3d cf f7 03 3d 8e 03 54 3c cd 05 56 bd
       0.06806704 0.03221875 0.012940301 -0.052251626
000320 9b 12 91 3d 74 f6 4e bc 17 80 2c 3c 6b 37 23 3e
       0.07083627 -0.012632001 0.010528586 0.15939109
000330 47 b1 6a be 39 40 9f 3d da c2 c1 3b 0c 31 90 bb
       -0.22919188 0.077759214 0.0059131207 -0.004400378
000340 94 86 a8 bd 7d e2 a3 3c 30 40 12 3e 4b cb a6 bd
       -0.08228794 0.020005459 0.14282298 -0.08144244
000350 51 31 ef bd 42 d8 a1 3d 29 e1 a8 3d 2a 8f f5 39
       -0.11679328 0.07902576 0.08246071 0.00046836707
000360 d7 c4 e2 bd 16 4e 2d bd de f7 ab 3d 48 42 85 3c
       -0.110727005 -0.042310797 0.08396886 0.016266957
000370 b0 a6 70 3d 54 e3 34 3d 51 6c f4 bd 57 19 5b 3d
       0.058752716 0.04416211 -0.11934722 0.053490963
000380 1e 7b a9 bd 36 19 f7 bc b5 bb 86 3d b5 75 75 3d
       -0.08275436 -0.030163389 0.06578771 0.059926707
000390 6c f7 34 be eb 2c 80 be 89 2d 21 bd f5 4f 83 3b
       -0.17672509 -0.2503427 -0.039350066 0.0040073344
0003a0 1f ad 79 3d dd 97 2c bd a7 ca 1f 3c ac 78 93 bc
       0.060956117 -0.042137016 0.009752906 -0.018001877
0003b0 e4 38 3f 3b 8f f8 14 bd a9 a0 fc bd f9 d4 c0 bd
       0.0029178197 -0.036369856 -0.12335331 -0.09415621
0003c0 5c 6a 45 3e 3f 1d 13 3d 7c e6 1b 39 94 84 52 3e
       0.19278854 0.035916563 0.00014867814 0.20558387
0003d0 11 75 2f bd 6d 63 29 3e 97 5b 90 3d 54 d0 bc 3c
       -0.042836253 0.16541834 0.070487194 0.023048557
0003e0 4b b3 8a bc cc 04 bd bb 6f 2d d3 bd d1 a7 ba bb
       -0.016931197 -0.005768394 -0.103114 -0.005696275
0003f0 e5 ca db 3d 5d 03 95 bd de 8d 24 bd f0 fb 0a be
       0.107320584 -0.07276032 -0.040174358 -0.13572669

blocks.0.sa.heads.0.value.weight f4 [16, 64]
000000 c1 62 f6 bc 81 18 47 be 0a 61 11 be ac f4 b4 bd
       -0.030076386 -0.19442941 -0.14197174 -0.0883573
000010 a7 8c a3 3d 5c 53 44 bd 84 2e 86 3d be d1 b5 bd
       0.07985812 -0.04793106 0.06551841 -0.08877896
000020 32 39 07 3e e1 2c c8 3d 10 d5 25 bd 54 ef f8 3c
       0.13205412 0.09774185 -0.040486395 0.030387558
000030 03 7e 05 be 61 a0 49 be b8 21 44 3c 03 00 da 3d
       -0.13036351 -0.19690086 0.01197093 0.106445335
000040 e9 44 af 3c a7 df 85 3c cc ef f8 bd a7 b7 94 3c
       0.021395164 0.016341997 -0.121551126 0.018153979
000050 1e de ab bb 62 eb 82 bd 44 f1 8e 3d 38 ac 14 3d
       -0.0052449843 -0.06392552 0.069796115 0.036297053
000060 47 0f 03 be 9f 89 db bd de 23 7f 3d aa 36 3b be
       -0.12798797 -0.107196085 0.062290065 -0.18282571
000070 18 a8 1d 3d 6b 6b 52 3d 38 f0 62 bb ab dc d2 3c
       0.038490385 0.051371973 -0.0034628045 0.025739988
000080 d7 ef d9 3b 2c 41 e6 3d 7e 87 fe 3c 7b c6 5c bd
       0.0066509056 0.11242899 0.031070467 -0.053900223
000090 0d 37 81 bd f8 00 06 3e 75 19 1d 3d 48 b5 16 be
       -0.06309328 0.13086307 0.038354356 -0.14717591
0000a0 80 8a 13 3e 97 c9 b0 3c 80 f6 13 3d ef f1 3b be
       0.14408302 0.0215805 0.036123753 -0.18354009
0000b0 9a 4d 26 bd 43 ce 90 bd f0 7f f1 bc 0f 40 8d bd
       -0.04060135 -0.07070591 -0.02947995 -0.06896984
0000c0 a4 74 d2 bd d7 37 e6 3d e7 77 3a 3d 7e e5 2e 3d
       -0.10276154 0.11241119 0.045524504 0.04269933
0000d0 5b 6e a6 bc 32 f9 73 3e 4c 16 91 3d 47 cc 12 3e
       -0.020316293 0.23825529 0.07084331 0.14335738
0000e0 74 c3 88 3c 94 7b eb 3d 42 3b 87 3d 08 cf 3b be
       0.016694762 0.1149818 0.066030994 -0.18340695
0000f0 9b 79 f7 bd f1 cf 24 be e4 e1 f6 3a b4 41 37 bb
       -0.12083741 -0.16094948 0.0018835631 -0.0027962746
000100 7f 9d ac bd 5b 48 ef bd 88 ed 82 bd e1 31 0b 39
       -0.084284775 -0.116837226 -0.06392962 0.00013274654
000110 10 d3 e9 bc 25 26 05 be 10 34 f1 3d 59 6a 0c be
       -0.028543025 -0.13002832 0.11777508 -0.13712443
000120 8f 34 e2 bb 96 c3 8f bb d5 e8 98 bd 5c 82 a3 bd
       -0.006903238 -0.0043873293 -0.07466284 -0.079838485
000130 cc 3a ce 3d c1 f5 84 3d 2e d8 76 3b 1c 87 17 3d
       0.10069808 0.06492186 0.0037665474 0.036994085
000140 bb f3 a0 3d 98 cb 39 bd 97 05 d9 3c 99 fd 00 be
       0.07858988 -0.045360178 0.026491923 -0.1259674
000150 80 b8 ad bc 20 38 8e bc 5e 2e 0b be c6 e2 b9 3d
       -0.02120614 -0.017360747 -0.13591906 0.09076457
000160 84 94 b3 3b 9c ce a2 39 35 8e 9b 3c e9 d9 77 bd
       0.005480351 0.00031052984 0.018988708 -0.06051055
000170 b0 f3 8f bd 11 e7 d3 3d 17 61 bb 3d a3 3d bb 3d
       -0.070289016 0.10346807 0.09149378 0.09142616
000180 1c b6 1f 3e 53 68 bd 3d b5 18 b9 bb 4d 20 78 bd
       0.15596813 0.09248414 -0.0056486973 -0.06057768
000190 88 b6 a2 bd a6 27 b9 3d ec 68 18 3d a9 df 3f 3d
       -0.07944971 0.090407655 0.037209436 0.04684416
0001a0 81 91 e6 bc c7 f7 3d 3e 63 d1 8d 3c fd 74 fc 3d
       -0.028145554 0.18551551 0.017311757 0.12327001
0001b0 9c c1 95 3d 73 d8 b1 3d 3b ca 40 bd 56 27 dd bd
       0.07312319 0.086838625 -0.047067862 -0.10798518
0001c0 6a be 11 3e d5 34 47 bd 42 31 62 bd 71 b3 b6 3d
       0.14232793 -0.04863437 -0.055222757 0.089209445
0001d0 2b 05 2d bd 47 a6 ab bd 53 12 1a 3e 41 d1 91 3d
       -0.042241257 -0.08381324 0.15046053 0.0711999
0001e0 da 13 35 3b 86 81 00 3e a0 32 4a bd 18 3b 41 bc
       0.002763024 0.1254941 -0.049364686 -0.011793874
0001f0 f7 b3 e7 bc 5e 98 a0 bc f3 0b ac bd d6 d7 7b 3d
       -0.028284056 -0.019603904 -0.08400717 0.061485134
000200 5f b9 60 be 30 5c 70 3e 3b b0 e8 bd b6 bc 56 3c
       -0.21945713 0.23472667 -0.11361738 0.013106516
000210 9d f4 dd 3d 8b 26 ef bd 62 2b c5 bd 82 7b 16 3d
       0.10837672 -0.11677273 -0.09627415 0.03673888
000220 66 c3 0d 3e fb 71 02 be 38 c2 7f 3c d5 e2 1d bd
       0.1384407 -0.12738793 0.01561027 -0.038546402
000230 79 75 0e 3a ea f3 d1 3c 60 17 88 ba 80 6d 92 3c
       0.0005434375 0.025629003 -0.0010382943 0.01787448
000240 51 be 83 bc 9d a7 5f 3d 30 51 da 3d b5 db 92 3d
       -0.01608196 0.054603208 0.106600165 0.07170812
000250 ac 45 3f be 87 7f 5d 3c 8a 65 01 3d 43 aa 13 be
       -0.18678921 0.013519174 0.031590976 -0.14420418
000260 b7 85 21 3e 96 f1 b5 bd 3e 63 df 3d e4 dc 95 3d
       0.15773664 -0.088839695 0.10907601 0.07317522
000270 dc 5a 40 3e 89 48 9e bd da 2e fc 3b 92 13 25 3e
       0.1878466 -0.07728679 0.007696015 0.16120747
000280 1c a6 04 be f2 09 a7 3b 87 0c 01 be 43 85 c2 3d
       -0.1295399 0.005097621 -0.12602435 0.09498074
000290 6f 02 ee bd 76 0c 17 be 8f 3b 81 3d eb 0f 04 3e
       -0.11621558 -0.14750847 0.06310188 0.12896697
0002a0 22 a6 d9 3c 9c 46 9f bd a0 23 a1 3d 22 78 52 3d
       0.026568476 -0.077771395 0.07868123 0.0513841
0002b0 64 6f 08 bc 81 ae 6f 3c 76 05 cd bc df d6 81 bd
       -0.008327339 0.014629007 -0.025027018 -0.063398115
0002c0 95 dd e1 bd fd 83 c5 3d 45 e7 17 3d 47 00 84 bc
       -0.110285915 0.096443154 0.03708579 -0.016113413
0002d0 4c 32 56 bd 88 6b d6 3c cf a8 d6 3c 8d 74 6d bd
       -0.05229406 0.026174322 0.026203541 -0.05797248
0002e0 e9 89 6a bd 36 c0 cf bd 27 25 1c 3d 76 8b 7b 3d
       -0.057260428 -0.10144083 0.03812137 0.061412297
0002f0 c2 20 6f bd 0a af 00 be 8e 8f 51 3e 75 64 34 be
       -0.05838085 -0.12566772 0.20464918 -0.17616446
000300 bf 86 70 bd 73 cb 9e 3d 90 1b 23 3c a1 e0 19 3e
       -0.058722254 0.077536486 0.009955302 0.15027095
000310 69 82 44 3d ce 7d 43 be e6 22 a5 bd 36 55 1a 3d
       0.04797593 -0.1909096 -0.08063297 0.03767892
000320 81 0d 3e bd c7 4c 79 bd 26 ca 5b be 65 10 5e 3d
       -0.046399597 -0.060864236 -0.21463832 0.054214854
000330 e7 7f f3 bc 54 3b 37 3d ce d7 e0 3d ab 5f e5 bd
       -0.029724075 0.044734314 0.109786615 -0.11199888
000340 64 6e 77 3d f4 c4 99 bd 2c 79 99 3d 00 78 3d 3e
       0.06040801 -0.07508269 0.07493815 0.18502808
000350 a2 35 54 bd 88 85 cc 3d e5 5a 0f 3e e5 8d b5 bd
       -0.05180896 0.099864066 0.13999517 -0.08864955
000360 7d ca 56 bd b5 30 9e bc d4 e0 2e 3d 9c f2 1a be
       -0.0524392 -0.019310335 0.04269488 -0.1513161
000370 e8 f7 c7 3d 9e c7 4b 3e 2e 45 ca bd ba 81 bf 3d
       0.09764081 0.19900367 -0.09876476 0.09350915
000380 43 e5 59 bd 16 04 80 bb 44 b5 cc 3d 84 d4 37 bd
       -0.053197157 -0.003906737 0.09995511 -0.044880405
000390 7c 02 be 3d ab e6 14 3c 79 83 a9 bd 53 62 1b 3e
       0.092778176 0.009088199 -0.082770295 0.15174226
0003a0 11 7a 09 bc 6e 3f 07 be c7 f3 56 3c 0f 67 20 3d
       -0.008390919 -0.1320779 0.0131196445 0.039160784
0003b0 7f 65 27 bd 40 d7 53 bd 2c c5 78 3d 27 9b 55 bc
       -0.04086828 -0.05171895 0.060734913 -0.0130374795
0003c0 b7 81 48 3c 72 54 72 3e 47 5c 68 bd 91 77 c0 3d
       0.012237958 0.23665026 -0.056728628 0.093978055
0003d0 5a 9c b5 bd 36 9e 8e bd 8b e9 9a bd 2a 3e 72 bd
       -0.08867712 -0.0696377 -0.07564076 -0.059141316
0003e0 48 7b db 3d d5 44 d1 bd fc 2d 73 bd db 69 bc bd
       0.107168734 -0.10218207 -0.059370026 -0.09199878
0003f0 b6 19 8c 3d 82 dc c1 3d e9 42 62 bd 22 10 3e bd
       0.068408415 0.09465887 -0.05523959 -0.046402104

blocks.0.sa.heads.1.tril f4 [32, 32]
000000 00 00 80 3f 00 00 00 00 00 00 00 00 00 00 00 00
       1.0 0.0 0.0 0.0
000010 00 00 00 00 00 00 00 00 00 00 00 00 00 00 00 00
       0.0 0.0 0.0 0.0
000020 00 00 00 00 00 00 00 00 00 00 00 00 00 00 00 00
       0.0 0.0 0.0 0.0
000030 00 00 00 00 00 00 00 00 00 00 00 00 00 00 00 00
       0.0 0.0 0.0 0.0
000040 00 00 00 00 00 00 00 00 00 00 00 00 00 00 00 00
       0.0 0.0 0.0 0.0
000050 00 00 00 00 00 00 00 00 00 00 00 00 00 00 00 00
       0.0 0.0 0.0 0.0
000060 00 00 00 00 00 00 00 00 00 00 00 00 00 00 00 00
       0.0 0.0 0.0 0.0
000070 00 00 00 00 00 00 00 00 00 00 00 00 00 00 00 00
       0.0 0.0 0.0 0.0
000080 00 00 80 3f 00 00 80 3f 00 00 00 00 00 00 00 00
       1.0 1.0 0.0 0.0
000090 00 00 00 00 00 00 00 00 00 00 00 00 00 00 00 00
       0.0 0.0 0.0 0.0
0000a0 00 00 00 00 00 00 00 00 00 00 00 00 00 00 00 00
       0.0 0.0 0.0 0.0
0000b0 00 00 00 00 00 00 00 00 00 00 00 00 00 00 00 00
       0.0 0.0 0.0 0.0
0000c0 00 00 00 00 00 00 00 00 00 00 00 00 00 00 00 00
       0.0 0.0 0.0 0.0
0000d0 00 00 00 00 00 00 00 00 00 00 00 00 00 00 00 00
       0.0 0.0 0.0 0.0
0000e0 00 00 00 00 00 00 00 00 00 00 00 00 00 00 00 00
       0.0 0.0 0.0 0.0
0000f0 00 00 00 00 00 00 00 00 00 00 00 00 00 00 00 00
       0.0 0.0 0.0 0.0
000100 00 00 80 3f 00 00 80 3f 00 00 80 3f 00 00 00 00
       1.0 1.0 1.0 0.0
000110 00 00 00 00 00 00 00 00 00 00 00 00 00 00 00 00
       0.0 0.0 0.0 0.0
000120 00 00 00 00 00 00 00 00 00 00 00 00 00 00 00 00
       0.0 0.0 0.0 0.0
000130 00 00 00 00 00 00 00 00 00 00 00 00 00 00 00 00
       0.0 0.0 0.0 0.0
000140 00 00 00 00 00 00 00 00 00 00 00 00 00 00 00 00
       0.0 0.0 0.0 0.0
000150 00 00 00 00 00 00 00 00 00 00 00 00 00 00 00 00
       0.0 0.0 0.0 0.0
000160 00 00 00 00 00 00 00 00 00 00 00 00 00 00 00 00
       0.0 0.0 0.0 0.0
000170 00 00 00 00 00 00 00 00 00 00 00 00 00 00 00 00
       0.0 0.0 0.0 0.0
000180 00 00 80 3f 00 00 80 3f 00 00 80 3f 00 00 80 3f
       1.0 1.0 1.0 1.0
000190 00 00 00 00 00 00 00 00 00 00 00 00 00 00 00 00
       0.0 0.0 0.0 0.0
0001a0 00 00 00 00 00 00 00 00 00 00 00 00 00 00 00 00
       0.0 0.0 0.0 0.0
0001b0 00 00 00 00 00 00 00 00 00 00 00 00 00 00 00 00
       0.0 0.0 0.0 0.0
0001c0 00 00 00 00 00 00 00 00 00 00 00 00 00 00 00 00
       0.0 0.0 0.0 0.0
0001d0 00 00 00 00 00 00 00 00 00 00 00 00 00 00 00 00
       0.0 0.0 0.0 0.0
0001e0 00 00 00 00 00 00 00 00 00 00 00 00 00 00 00 00
       0.0 0.0 0.0 0.0
0001f0 00 00 00 00 00 00 00 00 00 00 00 00 00 00 00 00
       0.0 0.0 0.0 0.0
000200 00 00 80 3f 00 00 80 3f 00 00 80 3f 00 00 80 3f
       1.0 1.0 1.0 1.0
000210 00 00 80 3f 00 00 00 00 00 00 00 00 00 00 00 00
       1.0 0.0 0.0 0.0
000220 00 00 00 00 00 00 00 00 00 00 00 00 00 00 00 00
       0.0 0.0 0.0 0.0
000230 00 00 00 00 00 00 00 00 00 00 00 00 00 00 00 00
       0.0 0.0 0.0 0.0
000240 00 00 00 00 00 00 00 00 00 00 00 00 00 00 00 00
       0.0 0.0 0.0 0.0
000250 00 00 00 00 00 00 00 00 00 00 00 00 00 00 00 00
       0.0 0.0 0.0 0.0
000260 00 00 00 00 00 00 00 00 00 00 00 00 00 00 00 00
       0.0 0.0 0.0 0.0
000270 00 00 00 00 00 00 00 00 00 00 00 00 00 00 00 00
       0.0 0.0 0.0 0.0
000280 00 00 80 3f 00 00 80 3f 00 00 80 3f 00 00 80 3f
       1.0 1.0 1.0 1.0
000290 00 00 80 3f 00 00 80 3f 00 00 00 00 00 00 00 00
       1.0 1.0 0.0 0.0
0002a0 00 00 00 00 00 00 00 00 00 00 00 00 00 00 00 00
       0.0 0.0 0.0 0.0
0002b0 00 00 00 00 00 00 00 00 00 00 00 00 00 00 00 00
       0.0 0.0 0.0 0.0
0002c0 00 00 00 00 00 00 00 00 00 00 00 00 00 00 00 00
       0.0 0.0 0.0 0.0
0002d0 00 00 00 00 00 00 00 00 00 00 00 00 00 00 00 00
       0.0 0.0 0.0 0.0
0002e0 00 00 00 00 00 00 00 00 00 00 00 00 00 00 00 00
       0.0 0.0 0.0 0.0
0002f0 00 00 00 00 00 00 00 00 00 00 00 00 00 00 00 00
       0.0 0.0 0.0 0.0
000300 00 00 80 3f 00 00 80 3f 00 00 80 3f 00 00 80 3f
       1.0 1.0 1.0 1.0
000310 00 00 80 3f 00 00 80 3f 00 00 80 3f 00 00 00 00
       1.0 1.0 1.0 0.0
000320 00 00 00 00 00 00 00 00 00 00 00 00 00 00 00 00
       0.0 0.0 0.0 0.0
000330 00 00 00 00 00 00 00 00 00 00 00 00 00 00 00 00
       0.0 0.0 0.0 0.0
000340 00 00 00 00 00 00 00 00 00 00 00 00 00 00 00 00
       0.0 0.0 0.0 0.0
000350 00 00 00 00 00 00 00 00 00 00 00 00 00 00 00 00
       0.0 0.0 0.0 0.0
000360 00 00 00 00 00 00 00 00 00 00 00 00 00 00 00 00
       0.0 0.0 0.0 0.0
000370 00 00 00 00 00 00 00 00 00 00 00 00 00 00 00 00
       0.0 0.0 0.0 0.0
000380 00 00 80 3f 00 00 80 3f 00 00 80 3f 00 00 80 3f
       1.0 1.0 1.0 1.0
000390 00 00 80 3f 00 00 80 3f 00 00 80 3f 00 00 80 3f
       1.0 1.0 1.0 1.0
0003a0 00 00 00 00 00 00 00 00 00 00 00 00 00 00 00 00
       0.0 0.0 0.0 0.0
0003b0 00 00 00 00 00 00 00 00 00 00 00 00 00 00 00 00
       0.0 0.0 0.0 0.0
0003c0 00 00 00 00 00 00 00 00 00 00 00 00 00 00 00 00
       0.0 0.0 0.0 0.0
0003d0 00 00 00 00 00 00 00 00 00 00 00 00 00 00 00 00
       0.0 0.0 0.0 0.0
0003e0 00 00 00 00 00 00 00 00 00 00 00 00 00 00 00 00
       0.0 0.0 0.0 0.0
0003f0 00 00 00 00 00 00 00 00 00 00 00 00 00 00 00 00
       0.0 0.0 0.0 0.0
