LanguageModels/dictionary/model.pth (torch, 972146 bytes, 110 tensors)

token_embedding_table.weight f4 [134, 64]
00000000: d08b 613e f08e cf3e 4b11 25bd f700 083e
00000010: c0cb f93d f063 f5be daf2 f63e d5c3 d1bf
00000020: cc86 643e d171 3cbf 7d20 513f c934 873e
00000030: fbcc 303f 5a8f f03f d077 21bf 8f3f 8d3d
00000040: 21f5 a7be c4e1 e53f 2922 63be a72d 6abf
00000050: 67f5 9abf bf6a 5f3e d00d 093c 5c13 23be
00000060: d3f6 f43e fa5f 6abe 3b7d f53f ac12 91be
00000070: b915 953f e64b 9a3f 0290 2fbd 2934 40bf
00000080: cf66 69bd 0a60 c6bd 2ffc 733c 0f7d 663f
00000090: d232 de3f 5ad2 813f b292 33be 3bf1 273e
000000a0: d856 7d3f 4f1a debe fe05 0840 45fb 75bd
000000b0: 43c5 7e3e 03b5 0f3f c5c8 a23e 59ff 3ebf
000000c0: 213b 993e 3f00 9abe 70ab 0f40 92da 613f
000000d0: fac9 a73f 6f4a 2ebf 4bce 2c40 8d60 4c3e
000000e0: c9b5 edbe 0a0b 353f 235e 94bf 97df 23bf
000000f0: 7f6f dcbe 5fdb a8bd 3541 9a3d 6a01 01c0
00000100: 1c58 ad3d 353b dc3f 4272 a4be b010 d53f
00000110: 5a6a 583f 7b08 b9bf fea9 9abe 1406 d33f
00000120: 0ed7 b43f 5cba b1be c100 4abf 6753 8f3f
00000130: 920b 233f 5228 0fbe 9d2c ccbc e6d8 9bbd
00000140: 752a 0940 0698 eb3f e347 adbf be66 733f
00000150: 49a0 27c0 de66 dcbe 2483 f23d 0043 9abf
00000160: 0bbe 943f c2b5 153f bf4d cf3f 0e73 41bf
00000170: 88eb a13f fa93 9e3d acfc 1bbf d130 62bf
00000180: 3ac7 1abe 363b 41bf 8f49 80bf 74f5 1ebf
00000190: 9435 20bf e6df ecbe 67d3 d53d 3979 ccbe
000001a0: 99a4 f13f 4c78 40bf 20cf 183f 6624 163e
000001b0: 83db 8ebd 4cf9 6fbf 0eea 95bf 767a 1cbf
000001c0: c697 ee3e f32f dabe ee33 83bf dbfe 0cbf
000001d0: a17c 89bf fa34 803f abce 45be 3f46 513e
000001e0: 93b4 84bf 2cc9 9ebf cc6d e23e 8fb9 a43f
000001f0: 7932 933f b4ed 3e3f 283b 26c0 65c7 c4bf
00000200: f705 1a40 ce2f 13c0 2989 0cbf b5cf 51bd
00000210: eef9 253f e5f8 7d3f c4fd 4abf ccc4 1e3f
00000220: d04a e83f 53f9 bfbe 4247 9cbe 9cb7 073e
00000230: 5a5f f73e f9c1 7cbf a607 873d a965 7fbf
00000240: 73b2 e5bf fb93 fa3f bb9f 26be ac5b f53f
00000250: 7c1b d5bd 1207 d23e 2612 1cbe feb9 a9be
00000260: eb0e 813f 2c0e 033f ecf3 1340 9586 5e3f
00000270: 44a2 c23f aee5 143f b521 303f 38be b13f
00000280: 61b5 ce3d af65 183f 2830 883f 8021 543e
00000290: 17fd 17bf 34b6 c83e 9358 b33d 8159 923e
000002a0: ed0d fcbf 8b3f 553f b766 ea3e fc8c ffbe
000002b0: a76c b13e b395 c6bf 64e2 afbf 9a9b 193f
000002c0: 8ade b43e 969a 813f c1e7 eabf 186d 10be
000002d0: 00b2 893f 04ea 33be 5761 96bf 2794 a2bf
000002e0: 30ae 893e 2392 8c3f 4294 323f 7388 d7bd
000002f0: fef1 14bf 0a39 c73c f2e1 b93f 66b6 aabf
00000300: 8ac5 8ebf 95c5 893f 8d97 673f c353 4b3f
00000310: 0c62 7a3f 3203 b0bf c800 d2bf e8ef 8a3f
00000320: e884 fcbe 42da e73f 6f2b 703e 7292 6d3f
00000330: 473d 97bf f011 b2bf edad f33e 6ce5 cc3e
00000340: a9b4 aabf 1394 56bf ea32 9d3f 6f24 483f
00000350: 7303 8c3e 412e 94bf eb20 99be e768 66bd
00000360: ad7f 0bbe 5ead ef3f ef10 173f 290b a23e
00000370: 1914 1ebd 819c 9b3f be6a bebe d333 34c0
00000380: 71dc c6bf 037c 643f b8bc f1bf 6712 8f3e
00000390: 809d c2bd 2345 2abf a9f9 a93f 35cb f4bf
000003a0: 432b aabf 1949 2d3f 653d cb3c 1f04 a73f
000003b0: 987a f2bd 6f6e bbbf 7f2e 983f 1f9d c9bd
000003c0: 67f8 6abe 1d07 cbbf 5475 77bf c3ef cb3e
000003d0: 0126 c9bf d12b c93f ef87 c6be 0ee3 863f
000003e0: 2009 803e 10b1 263f 8daf 5f3f 188c 06bf
000003f0: 5a00 fdbd e80d e4be 4e7c dfbc dcf0 ea3f
0.2202599 0.4053874 -0.040299695 0.13281618 0.12197065 -0.4792781 0.48232156 -1.6387888
0.22317046 -0.7361117 0.816902 0.2640746 0.69062775 1.8793747 -0.63073444 0.068968885
-0.32804206 1.7959523 -0.22181 -0.9147591 -1.2106141 0.21818064 0.00836511 -0.15925354
0.47844562 -0.22888175 1.9178842 -0.28334558 1.1647254 1.2054412 -0.042861946 -0.7507959
-0.05698281 -0.09686287 0.014891668 0.90034574 1.7359259 1.0142319 -0.17536429 0.16400616
0.9896064 -0.43379447 2.1253657 -0.060054082 0.24879937 0.56135577 0.317938 -0.7460838
0.29927924 -0.30078313 2.2448387 0.88224137 1.3108513 -0.68082327 2.7000911 0.19958706
-0.46427754 0.7071997 -1.1591228 -0.64013046 -0.43053815 -0.08244967 0.075319685 -2.0157113
0.08464071 1.7205569 -0.32118422 1.6645718 0.8453728 -1.4455713 -0.3020782 1.648623
1.412813 -0.34712493 -0.789074 1.1197327 0.6368953 -0.13980225 -0.024923617 -0.076097295
2.1432164 1.8405769 -1.3537563 0.9507865 -2.619158 -0.4304723 0.11841419 -1.2051697
1.1620497 0.58480465 1.6195601 -0.75566185 1.2650003 0.07743068 -0.6093242 -0.8835574
-0.15115061 -0.75480974 -1.0022448 -0.6209328 -0.62581754 -0.4626457 0.104407124 -0.39936236
1.8878356 -0.7518356 0.5969105 0.14662322 -0.06975462 -0.9373977 -1.1712053 -0.6112436
0.4660017 -0.42614707 -1.0250223 -0.5507638 -1.0741159 1.0016167 -0.19317119 0.20436953
-1.0367607 -1.2405143 0.44224393 1.2869128 1.1499778 0.74581456 -2.5973606 -1.537335
2.406614 -2.2997928 -0.5489679 -0.051223475 0.6483449 0.9920791 -0.79293466 0.6201904
1.8147831 -0.37494907 -0.30523115 0.13253635 0.48314935 -0.9873348 0.06593256 -0.99764496
-1.7945083 1.957641 -0.1627187 1.9168601 -0.10405633 0.4102102 -0.15241298 -0.33149713
1.0082678 0.511935 2.3117628 0.86924106 1.520577 0.58162963 0.6880143 1.3886175
0.10093189 0.59530157 1.0639696 0.20715904 -0.5937056 0.3920151 0.087571286 0.2858391
-1.969175 0.83300084 0.4578149 -0.4991225 0.34653208 -1.5514435 -1.3740964 0.60003054
0.35326034 1.0125301 -1.8351976 -0.14104116 1.0757446 -0.17569739 -1.1748456 -1.2701463
0.26890707 1.0982097 0.69757473 -0.105240725 -0.5818175 0.02431919 1.4522078 -1.3336914
-1.1154034 1.0763422 0.90465623 0.79424685 0.9780586 -1.3750975 -1.6406488 1.0854464
-0.4932015 1.8113482 0.23454069 0.9280158 -1.1815575 -1.3911724 0.47593632 0.40018785
-1.3336383 -0.83819693 1.2281163 0.78180593 0.27346382 -1.1576616 -0.29907927 -0.056252386
-0.13622923 1.8724782 0.59010214 0.3164914 -0.038593385 1.2157136 -0.37190813 -2.815663
-1.5536023 0.89251727 -1.8885717 0.27943727 -0.09502697 -0.66511744 1.3279315 -1.9124514
-1.3294452 0.67689663 0.024809549 1.3048133 -0.11839789 -1.4643077 1.188919 -0.098444216
-0.2294632 -1.5861546 -0.96663404 0.3983136 -1.5714723 1.5716497 -0.38775584 1.0538042
0.25006962 0.65113926 0.87377244 -0.52557516 -0.12353583 -0.4454186 -0.027280953 1.8354754

position_embedding_table.weight f4 [32, 64]
00000000: 2fd7 bbbf 3f9d 08bf 714d f33e 38e5 87bd
00000010: 17a4 94bf 99b8 0e3e 8e6b 0c3e b3ee 8f3f
00000020: fec8 26c0 7d3d 733e ae7a e4be f1c1 a3bf
00000030: 59e4 1fbf 20c6 fdbe 9a52 3fbf ad3a 0bbf
00000040: a916 20bf 2cff c63e 876d e03e f3ca 48bf
00000050: 90ac a53f 59ad b7bd 2b83 b3bf aa7e 653f
00000060: 0273 103d 1ade 663d dfae f7be 851b cabf
00000070: 3d6f 06bf 9fd7 523f 2622 39bf 3544 133e
00000080: 7ba7 1bbf 09a7 fc3f e178 40bf ff68 25bf
00000090: 395f e2bc 0696 17bf 4687 e0bf 7461 b9bf
000000a0: d4ec 183f b596 ba3d afae 78bf fd5b 0140
000000b0: d882 35bf be43 b4bf c268 a83d 1ada 5a3f
000000c0: 2abe e5be a954 24bd f381 e5be e6ea 60bf
000000d0: 086f 913f e8a0 d03f c8bc 113f c231 b03f
000000e0: 9585 923f c719 27bf add6 0740 db76 aebf
000000f0: 262c d43e a672 81bd a467 71bf 01fd 943b
00000100: 19d2 96be bfbd be3e 87bd 0440 89a6 91bd
00000110: 8630 a33f c033 843e a2f4 b43e 938b 083e
00000120: 43b7 8a3e b48f 8cbe f946 43bf 1810 9ebf
00000130: f40e ce3f 9ba7 8ebf 5605 7f3f 5508 57be
00000140: 12b6 f1be 2690 1f3f f4ed a8be fca2 7d3e
00000150: 2ade 1140 7105 a5bf e7d6 87be d98a c33e
00000160: a796 4bbf 7f07 ea3d 6e25 03bf 40e8 06bf
00000170: 7702 643f fe27 30bf 76f2 32bf 4d34 89bf
00000180: 2d39 b43f 44ad db3d 170d 0e3f fd64 4abf
00000190: 1b6b 04bf 9e9c 99bf 6749 0c3e dc8e ddbe
000001a0: 5626 36bf fb0b 1d3f 9861 2f3e 0ec6 c43e
000001b0: bacb 38bf de37 26bf fe53 02c0 1b81 9b3d
000001c0: a1c3 32bf 7827 b5bf 4433 61be 660a 9c3f
000001d0: 5ea7 c73f 6297 0540 f814 7a3f 69e4 d03e
000001e0: 7c6b d7bd f538 b73f 7142 8cbe fd26 e5bf
000001f0: 70b9 e23e d566 c0bf 6a61 0c3f e827 343d
00000200: 7924 a4bf 7a2c 46bf 42ce 9bbe f6eb 983f
00000210: fbc3 2fbe c5cc 003f 02ff 06bf 0b42 0bbe
00000220: b6fa 8e3f b0d3 b43e 8c97 6a3f b6c3 d2bf
00000230: cf6a dd3e 332b 48bf 1407 51bf 7203 ef3d
00000240: 8ad8 3ebe afa6 81be 3f23 f3bd 0c15 56be
00000250: e6fc e1be 9e73 743f 0072 c03f adcf bc3d
00000260: f5f3 71bf e870 cd3f 592f 42bf f989 e93e
00000270: 8cd6 953f 8eec 81be 87e2 b7bf 4339 dabf
00000280: 97a7 83bd a7f0 44bf e6f0 0440 5cd3 22bf
00000290: 6787 27bf c71d 49bc b82e 8e3d 2d7a b6be
000002a0: a3d0 94be 8448 743e dacf 613e 3690 093f
000002b0: 2c35 2b3f f57a 3bbf 14ed 22bf 75e9 393f
000002c0: 888f 7a3f 8eca 9c3e 59e7 773e 9b9b 8c3d
000002d0: 08a7 af3f 9743 88bf c144 b63e 63d4 24bf
000002e0: 05f1 bcbe c1bd e73e 5fb7 f3be 7dbf 993f
000002f0: e3b3 a6be d141 7bbf c65c 2d3f 83b1 2cbf
00000300: 4193 37be e39c 21bf dd81 fdbe ed86 d23e
00000310: 0c18 13bf 1883 16bf ee8d 2cbf 8183 223e
00000320: 5dc7 883f c469 b03f 0a91 963f 6e24 2a3e
00000330: 3453 183f a394 2240 de5a 8e3f 5c89 23bf
00000340: 5eea 9b3e 1553 9ebd 8154 5c3f 4429 a3bf
00000350: 95be 0dc0 fea5 0abe ad92 bb3e 2627 4e3f
00000360: 5df8 58bf 2863 dcbb ef00 303e a6e4 0abf
00000370: d723 5bbf 2c05 903e 9613 05c0 7893 1abf
00000380: b666 5f3f b427 57bf 53e0 03bf 34c9 333f
00000390: b20f f2be 1132 cd3e 1284 773e 0b36 aebf
000003a0: 3030 033f 55ad 03bf caca 3b3f df94 58bf
000003b0: d65e cfbe 1772 833f 5d1b f43e 6540 e5be
000003c0: 5910 a1bf 77f4 67bf 01d8 64be f54f 55bf
000003d0: 5640 863f 0a5c 52bf 1038 32bf ae9f 98bf
000003e0: 6b4f 2ebf bc14 d73e 9685 89bf 43f1 fcbf
000003f0: 6d31 f7be c1fe c9bf 3ff7 703f b6be 49be
-1.4675044 -0.5336494 0.4752002 -0.06635517 -1.1612576 0.13937606 0.13712904 1.124472
-2.6060176 0.23753925 -0.44624847 -1.2793561 -0.62457806 -0.4956522 -0.74735415 -0.5438641
-0.62534577 0.38866556 0.43833563 -0.78434676 1.2943287 -0.0896861 -1.4024404 0.896464
0.03526593 0.056364156 -0.48375604 -1.5789648 -0.52513486 0.8236026 -0.7231773 0.14381488
-0.6080243 1.9738475 -0.75184447 -0.64613336 -0.027633296 -0.5921329 -1.7541282 -1.4482865
0.5973637 0.09110776 -0.97141546 2.0212395 -0.70902777 -1.4083173 0.08223106 0.85489047
-0.44871646 -0.0401198 -0.44825706 -0.87858427 1.1362009 1.6299105 0.5692868 1.3765185
1.1447016 -0.6527371 2.1224778 -1.3630022 0.41439933 -0.063206956 -0.9429877 0.004546762
-0.29457167 0.3725414 2.0740678 -0.07111842 1.2749183 0.25820732 0.3534289 0.13334493
0.27092943 -0.27453387 -0.7628017 -1.2348661 1.6098313 -1.1144899 0.99617517 -0.20999272
-0.4720922 0.6232933 -0.32994044 0.24769205 2.2791848 -1.2892286 -0.26531145 0.3819187
-0.7952675 0.11427211 -0.5122899 -0.52698135 0.8906626 -0.68811023 -0.69901216 -1.0719086
1.4079949 0.10726407 0.55488724 -0.79060346 -0.5172593 -1.2000921 0.13699876 -0.43273056
-0.71152246 0.61346406 0.17127073 0.38432354 -0.7218586 -0.64928997 -2.0363765 0.07592984
-0.69829756 -1.415267 -0.21992213 1.2190673 1.5597951 2.0873647 0.97688246 0.40799263
-0.10518548 1.4314257 -0.2739444 -1.7902523 0.44282103 -1.5031382 0.5483614 0.04398337
-1.282363 -0.77411616 -0.304308 1.194701 -0.17164604 0.50312454 -0.5273286 -0.13599412
1.1170261 0.35317755 0.9163749 -1.6465976 0.4324555 -0.78190917 -0.81651425 0.11670579
-0.1863729 -0.25322482 -0.11871957 -0.20906466 -0.4413826 0.9548892 1.503479 0.092192985
-0.94512874 1.6050081 -0.75853497 0.45613077 1.17061 -0.2537579 -1.4366006 -1.7048725
-0.064284496 -0.76929706 2.0772033 -0.6360376 -0.6544098 -0.012275166 0.06942505 -0.35640088
-0.29065427 0.23855788 0.22051945 0.53735673 0.6687801 -0.7323449 -0.63643 0.7262185
0.9787526 0.30623287 0.24209346 0.06865617 1.3722849 -1.0645627 0.3559933 -0.64386576
-0.36902633 0.45261958 -0.4760084 1.2011563 -0.32559118 -0.981473 0.67719686 -0.6745836
-0.17927267 -0.63130015 -0.4951314 0.41118565 -0.5745857 -0.58793783 -0.6740407 0.15870477
1.0685841 1.3782277 1.1763012 0.1661546 0.5950196 2.540322 1.112148 -0.6388147
0.30452245 -0.077306904 0.8606644 -1.2746968 -2.2147572 -0.13539883 0.36635342 0.80528486
-0.8475397 -0.0067256875 0.17187856 -0.5425514 -0.8560156 0.28128946 -2.0793204 -0.6038127
0.872661 -0.8404496 -0.51514167 0.70228887 -0.472776 0.4007726 0.24171475 -1.3610243
0.51245403 -0.5143636 0.73356307 -0.8460216 -0.40502042 1.0269192 0.47677127 -0.44775692
-1.2583114 -0.906074 -0.22348024 -0.8332513 1.0488384 -0.8217169 -0.69616795 -1.192373
-0.6808993 0.42008007 -1.0743892 -1.9761127 -0.48279896 -1.578087 0.9412727 -0.19701657

blocks.0.sa.heads.0.tril f4 [32, 32]
00000000: 0000 803f 0000 0000 0000 0000 0000 0000
00000010: 0000 0000 0000 0000 0000 0000 0000 0000
00000020: 0000 0000 0000 0000 0000 0000 0000 0000
00000030: 0000 0000 0000 0000 0000 0000 0000 0000
00000040: 0000 0000 0000 0000 0000 0000 0000 0000
00000050: 0000 0000 0000 0000 0000 0000 0000 0000
00000060: 0000 0000 0000 0000 0000 0000 0000 0000
00000070: 0000 0000 0000 0000 0000 0000 0000 0000
00000080: 0000 803f 0000 803f 0000 0000 0000 0000
00000090: 0000 0000 0000 0000 0000 0000 0000 0000
000000a0: 0000 0000 0000 0000 0000 0000 0000 0000
000000b0: 0000 0000 0000 0000 0000 0000 0000 0000
000000c0: 0000 0000 0000 0000 0000 0000 0000 0000
000000d0: 0000 0000 0000 0000 0000 0000 0000 0000
000000e0: 0000 0000 0000 0000 0000 0000 0000 0000
000000f0: 0000 0000 0000 0000 0000 0000 0000 0000
00000100: 0000 803f 0000 803f 0000 803f 0000 0000
00000110: 0000 0000 0000 0000 0000 0000 0000 0000
00000120: 0000 0000 0000 0000 0000 0000 0000 0000
00000130: 0000 0000 0000 0000 0000 0000 0000 0000
00000140: 0000 0000 0000 0000 0000 0000 0000 0000
00000150: 0000 0000 0000 0000 0000 0000 0000 0000
00000160: 0000 0000 0000 0000 0000 0000 0000 0000
00000170: 0000 0000 0000 0000 0000 0000 0000 0000
00000180: 0000 803f 0000 803f 0000 803f 0000 803f
00000190: 0000 0000 0000 0000 0000 0000 0000 0000
000001a0: 0000 0000 0000 0000 0000 0000 0000 0000
000001b0: 0000 0000 0000 0000 0000 0000 0000 0000
000001c0: 0000 0000 0000 0000 0000 0000 0000 0000
000001d0: 0000 0000 0000 0000 0000 0000 0000 0000
000001e0: 0000 0000 0000 0000 0000 0000 0000 0000
000001f0: 0000 0000 0000 0000 0000 0000 0000 0000
00000200: 0000 803f 0000 803f 0000 803f 0000 803f
00000210: 0000 803f 0000 0000 0000 0000 0000 0000
00000220: 0000 0000 0000 0000 0000 0000 0000 0000
00000230: 0000 0000 0000 0000 0000 0000 0000 0000
00000240: 0000 0000 0000 0000 0000 0000 0000 0000
00000250: 0000 0000 0000 0000 0000 0000 0000 0000
00000260: 0000 0000 0000 0000 0000 0000 0000 0000
00000270: 0000 0000 0000 0000 0000 0000 0000 0000
00000280: 0000 803f 0000 803f 0000 803f 0000 803f
00000290: 0000 803f 0000 803f 0000 0000 0000 0000
000002a0: 0000 0000 0000 0000 0000 0000 0000 0000
000002b0: 0000 0000 0000 0000 0000 0000 0000 0000
000002c0: 0000 0000 0000 0000 0000 0000 0000 0000
000002d0: 0000 0000 0000 0000 0000 0000 0000 0000
000002e0: 0000 0000 0000 0000 0000 0000 0000 0000
000002f0: 0000 0000 0000 0000 0000 0000 0000 0000
00000300: 0000 803f 0000 803f 0000 803f 0000 803f
00000310: 0000 803f 0000 803f 0000 803f 0000 0000
00000320: 0000 0000 0000 0000 0000 0000 0000 0000
00000330: 0000 0000 0000 0000 0000 0000 0000 0000
00000340: 0000 0000 0000 0000 0000 0000 0000 0000
00000350: 0000 0000 0000 0000 0000 0000 0000 0000
00000360: 0000 0000 0000 0000 0000 0000 0000 0000
00000370: 0000 0000 0000 0000 0000 0000 0000 0000
00000380: 0000 803f 0000 803f 0000 803f 0000 803f
00000390: 0000 803f 0000 803f 0000 803f 0000 803f
000003a0: 0000 0000 0000 0000 0000 0000 0000 0000
000003b0: 0000 0000 0000 0000 0000 0000 0000 0000
000003c0: 0000 0000 0000 0000 0000 0000 0000 0000
000003d0: 0000 0000 0000 0000 0000 0000 0000 0000
000003e0: 0000 0000 0000 0000 0000 0000 0000 0000
000003f0: 0000 0000 0000 0000 0000 0000 0000 0000
1.0 0.0 0.0 0.0 0.0 0.0 0.0 0.0
0.0 0.0 0.0 0.0 0.0 0.0 0.0 0.0
0.0 0.0 0.0 0.0 0.0 0.0 0.0 0.0
0.0 0.0 0.0 0.0 0.0 0.0 0.0 0.0
1.0 1.0 0.0 0.0 0.0 0.0 0.0 0.0
0.0 0.0 0.0 0.0 0.0 0.0 0.0 0.0
0.0 0.0 0.0 0.0 0.0 0.0 0.0 0.0
0.0 0.0 0.0 0.0 0.0 0.0 0.0 0.0
1.0 1.0 1.0 0.0 0.0 0.0 0.0 0.0
0.0 0.0 0.0 0.0 0.0 0.0 0.0 0.0
0.0 0.0 0.0 0.0 0.0 0.0 0.0 0.0
0.0 0.0 0.0 0.0 0.0 0.0 0.0 0.0
1.0 1.0 1.0 1.0 0.0 0.0 0.0 0.0
0.0 0.0 0.0 0.0 0.0 0.0 0.0 0.0
0.0 0.0 0.0 0.0 0.0 0.0 0.0 0.0
0.0 0.0 0.0 0.0 0.0 0.0 0.0 0.0
1.0 1.0 1.0 1.0 1.0 0.0 0.0 0.0
0.0 0.0 0.0 0.0 0.0 0.0 0.0 0.0
0.0 0.0 0.0 0.0 0.0 0.0 0.0 0.0
0.0 0.0 0.0 0.0 0.0 0.0 0.0 0.0
1.0 1.0 1.0 1.0 1.0 1.0 0.0 0.0
0.0 0.0 0.0 0.0 0.0 0.0 0.0 0.0
0.0 0.0 0.0 0.0 0.0 0.0 0.0 0.0
0.0 0.0 0.0 0.0 0.0 0.0 0.0 0.0
1.0 1.0 1.0 1.0 1.0 1.0 1.0 0.0
0.0 0.0 0.0 0.0 0.0 0.0 0.0 0.0
0.0 0.0 0.0 0.0 0.0 0.0 0.0 0.0
0.0 0.0 0.0 0.0 0.0 0.0 0.0 0.0
1.0 1.0 1.0 1.0 1.0 1.0 1.0 1.0
0.0 0.0 0.0 0.0 0.0 0.0 0.0 0.0
0.0 0.0 0.0 0.0 0.0 0.0 0.0 0.0
0.0 0.0 0.0 0.0 0.0 0.0 0.0 0.0

blocks.0.sa.heads.0.key.weight f4 [16, 64]
00000000: 7866 c03d 7c81 5cbd e828 debc f213 aabd
00000010: e3aa c93c 44af f93d 1754 953d d8e9 8a3d
00000020: 9635 04be 97ed 31be eacc 313d c2d5 07bd
00000030: db82 893c 71fa 29bd e111 c5bd 5dc9 84bd
00000040: c061 063d 0215 d7bd 70c3 c3bd aa7b a7b9
00000050: ed2d 883d 015c c53d c9ea 88bb 2ff1 703d
00000060: 2ab7 793a d3db d83d 7ef2 8ebd b6dc b8bc
00000070: 210a 673e 42d4 873e 0855 413d c47a 93bd
00000080: 0a65 b7bc 4801 afbd ea3a 0fbe fa1f a63d
00000090: 5d6e 13be 99c4 303d d39b 5bbd 63b5 9fbc
000000a0: 1ff9 493e eb02 493d a5d2 7e3e 2514 b43d
000000b0: 77ff b63d 276c bf3d 6126 85bd d5fb f43c
000000c0: ee62 e4bd d5a6 aabc 5e3b 5ebd b9a4 ffbd
000000d0: 731f 88bd 7bfe bebc 38dd d83d 65f2 2abd
000000e0: 63ca 6a3d 631c 39bd 4633 9e3c e288 1bbd
000000f0: aec1 9e3c 9030 2bbd 956c d5bd 0d8e 3a3d
00000100: f518 2d3d 5149 4ebd 16da 59bd bbf7 f73c
00000110: 87ce ef3d 2677 803d dc34 46bd cf41 b9bd
00000120: 4ef5 4c3c 5d7b fe3c 94b6 32be a74f de3d
00000130: 6b07 02bd 2dcc d9bd f964 6d3d 5919 03bc
00000140: e0dc e0bd c560 853d d07d d1bd f3b1 66bd
00000150: 99e8 34be 7224 92bc 72b7 08be 2bca 383e
00000160: b2aa 07be fc1e 153c 9156 63be 2dbd 493d
00000170: 923c d03c c2b8 793d 6b49 0bbc 4082 573d
00000180: 3279 2c3e 7cfe e3bc 4fb8 84bd 2ce7 45b9
00000190: d846 ce3c a963 1fbd b453 9ebd 8140 443d
000001a0: 361d 9f3c 142f 18be 73d0 243c 44fa 9abd
000001b0: 3bfa d33d 00f8 36bd a44d 08be fabb 083e
000001c0: 549c 613d f646 77bd fc4a f63d f83b 99bd
000001d0: bd03 823d c88a 7bbd 5afb 03be 20a2 fbbc
000001e0: e22d e43d 320a 3dbd 2b53 27bc bd29 a23d
000001f0: 309c db3d 7b9d d33c a60a 8c3d 485e dcbd
00000200: a557 e03d 077b 09bd 1174 c73d f412 183e
00000210: 956a 983c 440d 29bd f4f9 19be 2ad5 a9bd
00000220: f7e0 1bbd 5932 a03d 3539 84bd a9cf 9fbd
00000230: f3f1 07bd 94cd 7dbd 6b60 bebd 8cf3 403e
00000240: 66f5 1fbd 90a6 21bd 6627 b73d bc43 453d
00000250: 0699 a9bc 30f2 60bc 0f89 083e fa7f d23d
00000260: b93d c13c 3b8e cbbd 6ccc 083d 4b85 32bd
00000270: 6924 423d 1369 16be d11d 5b3d be4e 9fbb
00000280: cacc 00be d70d 91bd 6d31 e7bd 125d 743c
00000290: 7e41 12be 81e2 863c bf03 0c3b dcfd bb3d
000002a0: 98d4 763d bf00 da3c 8e06 a1bd ff79 15ba
000002b0: cbf0 ed3d 7571 063d 520e a43d 479c 0c3e
000002c0: 8bbb 0cbe 2e23 33bd 2bf8 ee3d d07c 62bd
000002d0: c122 013e 7e02 8cbc 1be8 17be 2ca4 293e
000002e0: 8ff5 86bd ad5e 79be 021f 273d 7048 e63d
000002f0: 0bc4 75bb a356 a7bd 90ef 5bbb 8c37 b9bc
00000300: b8f3 103e 45ff 873d 42e1 7d3a 6159 223c
00000310: 773e f1bc ba91 3b3e da51 20bd 76c2 11bd
00000320: 0664 963d ee60 68bd 2f44 6dbe c8be 493d
00000330: 6816 3fbe d3c8 ec3d 9110 6dbc eed5 3e3b
00000340: abd1 043c 4c67 87bc 5581 19bd 2dd5 4f3d
00000350: bcbd 8e3d fc12 12bd 2d51 cf3c b005 513d
00000360: 1c30 b73d 7ec1 2cbd b994 d13b fc39 a53d
00000370: 4e0e 89bc e674 acbd a052 163d 68e0 c5bd
00000380: 2849 253d 8ed2 7c3d 5dad 2e3c 92aa 9a3d
00000390: 6f0d d8bd 7d57 98bd 29da 90bc 3b7d 15bd
000003a0: 6367 bfbc 189d a03e e38c 4ebe 029f febc
000003b0: e833 e53d bf5a 963d cc32 203d 699f 46be
000003c0: 09af 623d 4bb6 ec3d 9ae4 cb3d af78 e6bd
000003d0: a4c5 69be dd0d c5bc 8fd4 ba3d f2b2 3abe
000003e0: 1e8d 29be 8d22 f83c 702c a43d e846 633d
000003f0: 49dd 60be 60b6 903d 83d5 943d 3674 623e
0.09394544 -0.053834423 -0.027119115 -0.083045855 0.024617618 0.121916324 0.072914295 0.067828834
-0.12911066 -0.1737579 0.043408312 -0.03316284 0.01678603 -0.041498605 -0.09622551 -0.064837195
0.032808065 -0.10502054 -0.09558761 -0.0003194486 0.06649385 0.09636689 -0.004178379 0.05882376
0.000952589 0.10588803 -0.069798455 -0.02256618 0.22562458 0.26529127 0.047200233 -0.0720115
-0.022387046 -0.08545166 -0.13987318 0.08111568 -0.14397569 0.04315624 -0.053615402 -0.019495672
0.19723938 0.04907505 0.24885042 0.08792905 0.08935445 0.093468 -0.06501461 0.02990524
-0.11151682 -0.020831505 -0.054255836 -0.1248259 -0.066466235 -0.023314705 0.10589069 -0.04173507
0.057321917 -0.045193087 0.019311558 -0.03797234 0.019379463 -0.04179436 -0.10421101 0.045545626
0.04226013 -0.05036289 -0.0531865 0.030269494 0.11709314 0.06272726 -0.048390254 -0.09045755
0.012509657 0.031064684 -0.1745246 0.10855036 -0.031745356 -0.106346466 0.057957623 -0.008001649
-0.109796286 0.06512598 -0.10229075 -0.05632205 -0.17666854 -0.017839644 -0.13351229 0.18045871
-0.13248709 0.0091016255 -0.22200991 0.049252678 0.025419507 0.060967214 -0.008501391 0.05261445
0.16843107 -0.027831309 -0.064804666 -0.00018873502 0.025180265 -0.038913403 -0.07730809 0.04791308
0.019423109 -0.14861709 0.010059464 -0.07567266 0.10350462 -0.044670105 -0.13310868 0.13352957
0.055080727 -0.060370408 0.12026021 -0.07482141 0.06348369 -0.06141165 -0.12888852 -0.030716956
0.11141564 -0.0461523 -0.0102127 0.07918117 0.1072315 0.025831928 0.068379685 -0.1076017
0.10954217 -0.033564594 0.09738935 0.1485098 0.01860551 -0.041272417 -0.15036756 -0.08292611
-0.03805634 0.07822103 -0.06456224 -0.0780328 -0.033189725 -0.061963633 -0.09295734 0.18842906
-0.03905239 -0.039465487 0.089430615 0.0481603 -0.02070285 -0.013729617 0.13333534 0.10278316
0.023589002 -0.09939238 0.033398077 -0.04358415 0.047398005 -0.1468852 0.053495232 -0.0048616817
-0.12578121 -0.07082718 -0.11288724 0.014914768 -0.14282796 0.016465427 0.0021364538 0.09179279
0.06026134 0.026611684 -0.07862578 -0.0005702078 0.11618193 0.032823045 0.08010544 0.1373149
-0.13743417 -0.04373472 0.11668428 -0.05529481 0.12610914 -0.017091032 -0.14834635 0.16566533
-0.06589805 -0.24352522 0.040801056 0.11244285 -0.0037500884 -0.081708215 -0.0033559538 -0.022609495
0.14155471 0.06640486 0.000968475 0.009909005 -0.02944873 0.18317309 -0.03914056 -0.035585843
0.07343297 -0.056733064 -0.23170541 0.04925421 -0.18660891 0.11561742 -0.014469282 0.0029119211
0.008106629 -0.016528748 -0.037476856 0.05074041 0.06969783 -0.035662636 0.025307262 0.051030815
0.08944723 -0.042176716 0.006395903 0.080677 -0.016730454 -0.08420734 0.03669989 -0.09661943
0.04035297 0.061724238 0.01066145 0.07552065 -0.10549437 -0.07438562 -0.017682152 -0.036496382
-0.023364728 0.31369853 -0.20170932 -0.03108168 0.11191541 0.07341527 0.039110944 -0.19396748
0.055342708 0.11558207 0.09955712 -0.11253487 -0.228293 -0.024054462 0.091225736 -0.18232325
-0.16557738 0.030289913 0.08016288 0.055487543 -0.21959414 0.07066035 0.07267287 0.22114643

blocks.0.sa.heads.0.query.weight f4 [16, 64]
00000000: deb2 7c3d 6ebc 14bd 8987 2e3e f62d f63d
00000010: d6c5 613b 20ff 7ebb 05d5 1dbd 01ac 2fbc
00000020: 6335 27bd ca8e fabd 1e4c d2bd d038 1abe
00000030: 3872 953d ad43 093c f852 cb3d 5a79 6d3d
00000040: 4bdf 013e b7c1 743d fcc0 b8bd c1de babd
00000050: 6bf1 d13d 2b10 eebd 41f3 8f3c 3c50 b7bd
00000060: e0e5 b53c 3833 063e 9e9c 01be ead4 16be
00000070: 6e09 5cbe f397 a33d c575 893c 0b34 3d3d
00000080: c7e9 78bd 348d 69bc 593a 3cbd 502d d63d
00000090: b766 83bc 6bdd eabd a1f7 083d 98cd 3ebd
000000a0: 0972 47bd da12 a13d 94fb 86bd 5969 853b
000000b0: f0f7 04bd 1798 01be 99a8 e83d d540 1e3e
000000c0: 3922 fb3d 5b84 15be 820e 0e3d 223a e53c
000000d0: 2882 2abd 4c67 2f3d 8ba6 cd3c 465a c43d
000000e0: 9299 453d a93c 013e 0bb2 16be 90b7 99bc
000000f0: f554 adbc 3fea a03c cc42 a837 79ed 523d
00000100: e772 bcbc 51e4 8dbd 369c 1e3d f1b7 e13d
00000110: 4a9d 913b 73d7 b83d 372b 183d 9b78 cf3b
00000120: ea4f 123c 8474 01be e4b1 5d3d 93eb 7cbd
00000130: 6f2e 5fbc 603a 24be 3679 f3bd e3ee 633d
00000140: ac8b 8e3d 9280 8f3d fe35 413e f025 a8bd
00000150: 3ade 2abd e904 08bc da73 183e aa49 65bd
00000160: bc74 6bbd cafa 793d 0eb9 23bd e52c 95bd
00000170: 64e1 23bd 62ae 9c3d e808 1abe 8ca9 61bd
00000180: 0fe3 c4bd de14 abbd 704a e4bc 81ba bfbd
00000190: d9ca b33d 3192 0a3e 1215 0cbd 4bde 803c
000001a0: 4a13 5abd 1e12 33bd 22be a23d 35d0 0bbd
000001b0: 05f6 85bc 6e0f 2a3e f50d 5dbd 57c0 6dbc
000001c0: e8cf f7bc 7dcd 4e3d 3af2 743d 21a9 4a3d
000001d0: c88b 23bd d8d6 57be 3c8d 57be edef 3abe
000001e0: 1758 e93c 515e 9ebd 8ddf 9e3d 4cea f43b
000001f0: 4e8c 253d 3706 62bc b86e bc3d fcfe c33d
00000200: a61f 2cbd ea67 f03d 840a 62bc b892 953d
00000210: 6843 203e 4e2a ab3d c10b fe3d 41bb aa3c
00000220: ec65 de3c a054 923d 1824 e1bd 7aa6 d0bd
00000230: a2e5 ccbd 7662 133e ce35 d83c d8b0 26be
00000240: 95d3 0bbe 464d c93c 1c65 8a3d c215 21be
00000250: 16b7 023d 2164 833d ada5 203e dd56 b3bd
00000260: 6d9a 373d 0010 a7bd d4d7 223d ca13 993c
00000270: 2d65 1f3d 65c2 fdbb b970 ddbd 499b 943d
00000280: 7c1e e0bd 7494 b7bd 93ed 5ebd 7492 3dbd
00000290: 4864 c53d aadb 60bb 1dc2 183e 1a36 473e
000002a0: 6463 f1bd b8ce dc3d 2b07 7d3d daed ffba
000002b0: 6b6a 60bd b03c f43d 871b c73d 919f e6bc
000002c0: f243 15be e44a c33d 8e82 873d 89a6 973d
000002d0: 431e 373c 65e6 1b3d c651 f7bc 684c 31be
000002e0: 761d abbd 08f1 8c3d 85f3 f13a 93d7 55bd
000002f0: d190 603d d134 803d 766f 913d ea97 1bbe
00000300: e320 cb3d 576a 7a3e 902a bbbd 2301 d7bc
00000310: 6517 a5bd 53e6 b3bc d5bc 483e b3d3 093d
00000320: 0770 f7bd 3ad7 bc3d 27ff f23d a7e3 7dbd
00000330: a0e4 993d 9225 d33c 4dc5 5abe d863 e6bc
00000340: e5bc 5c3e 8c99 cfbd bf29 483c 6669 8f3d
00000350: 65b8 a73d 0c90 053e 85aa b6bd b65d 8bbd
00000360: c910 3e3e 6ea1 a3bd ddae d33b 2308 13be
00000370: 6e9b 723e 259c fa3d a12a aabd 68fd 04bd
00000380: e787 c93c 7f50 15bd e381 a9bc 92fd 81bd
00000390: fc44 71bd 58d6 183d 1e18 f63d 659d b5bd
000003a0: 507f 02be def5 f6bb c5ea 163e 6c22 003e
000003b0: 7a5d 9bbc f5ac b7bc 4ac4 95bd 3d85 563d
000003c0: 7e06 313d 2b20 afbc 9f44 dcbd 8744 bf3d
000003d0: 3c57 103d 273d fd3c 98f8 0abe f82c ad3c
000003e0: 3590 cb3c 26a1 2d3e 9f62 063e b3b3 8fbd
000003f0: 7485 56bd 8236 95bd cbaa b0bd 1a41 9cbd
0.06169402 -0.036312513 0.1704389 0.12020485 0.0034450195 -0.003890939 -0.03853323 -0.010722161
-0.040822398 -0.12234266 -0.102684245 -0.15060735 0.07297176 0.008377952 0.099279344 0.057977058
0.12682836 0.059755053 -0.09021184 -0.09124518 0.10251125 -0.116241775 0.017572047 -0.0895085
0.02220434 0.13105476 -0.12657401 -0.14729658 -0.21487972 0.079879664 0.01677979 0.04619221
-0.060769822 -0.014254857 -0.045954082 0.104578614 -0.01604019 -0.114680134 0.033439282 -0.04658279
-0.048692737 0.07864924 -0.065909535 0.0040713963 -0.032463014 -0.12655674 0.113602825 0.15454419
0.12262387 -0.14601271 0.034681804 0.027981821 -0.041628033 0.04282312 0.025103828 0.09587531
0.04824216 0.12620796 -0.14716356 -0.018764287 -0.021158675 0.019642947 2.0058265e-05 0.051496003
-0.023004008 -0.069283135 0.038723193 0.11021412 0.004443799 0.09025469 0.037150588 0.006331516
0.008930186 -0.12642103 0.054124728 -0.0617481 -0.0136219105 -0.16037893 -0.118883535 0.055647742
0.06960234 0.07006945 0.18868253 -0.08210361 -0.041715838 -0.008301952 0.14887944 -0.055978455
-0.057484373 0.061030187 -0.039971404 -0.072839536 -0.04000987 0.076504484 -0.1504246 -0.055093333
-0.096136205 -0.083535895 -0.027867526 -0.09361745 0.087789245 0.1353233 -0.03419978 0.015730998
-0.05324105 -0.04371845 0.07946421 -0.03413411 -0.016352663 0.16607448 -0.05396839 -0.014511189
-0.030250505 0.050488938 0.059801318 0.0494777 -0.039928228 -0.2107805 -0.2104997 -0.18255587
0.028484387 -0.07732833 0.07757483 0.0074742194 0.040417008 -0.013795427 0.092008054 0.09570119
-0.04202237 0.1173857 -0.013796452 0.07303375 0.15650713 0.08357678 0.12404586 0.020841243
0.02714821 0.07145047 -0.109932125 -0.10188003 -0.100047365 0.14393029 0.026392844 -0.16278398
-0.13654931 0.02457298 0.06757566 -0.15730956 0.031912886 0.064155824 0.156882 -0.08756802
0.044825006 -0.08157349 0.03975661 0.018686194 0.038914848 -0.007744121 -0.10812516 0.07256181
-0.109433144 -0.08963862 -0.054425787 -0.046282247 0.09638268 -0.0034310617 0.14917798 0.19454232
-0.117865354 0.10781616 0.061774414 -0.0019525841 -0.054788988 0.11925638 0.09722047 -0.028152259
-0.145767 0.09535769 0.06616698 0.07404811 0.011176649 0.03806152 -0.03019036 -0.17314303
-0.083552286 0.068819106 0.0018459415 -0.05220754 0.054825608 0.06260074 0.071013376 -0.1519467
0.09918382 0.24454628 -0.091389775 -0.02624566 -0.08061103 -0.021960413 0.19603284 0.033649158
-0.120819144 0.09220739 0.11865073 -0.061984684 0.0751431 0.02577475 -0.21364327 -0.028123781
0.21556433 -0.101367086 0.012216984 0.07002525 0.08189467 0.13043231 -0.08919243 -0.06804983
0.1856109 -0.07989775 0.0064600543 -0.14358573 0.23692104 0.122368135 -0.08308912 -0.03246823
0.024600936 -0.03645372 -0.020691818 -0.06347193 -0.05890368 0.03731379 0.12016319 -0.08867911
-0.12743878 -0.007536634 0.14737995 0.12513131 -0.018965472 -0.02242134 -0.0731283 0.05237316
0.043219082 -0.021377644 -0.10755276 0.093392424 0.035239443 0.030912949 -0.13571393 0.021139607
0.024849037 0.16956005 0.13123558 -0.07016697 -0.052373365 -0.07285787 -0.08626326 -0.07629605

blocks.0.sa.heads.0.value.weight f4 [16, 64]
00000000: ec40 16be 7dde b73d c0c9 073e 0e1b 9d3d
00000010: 6ef1 4b3b dd57 d13c 962b 90bc 254b 343e
00000020: 2efe 4cbd 02a7 cebb ac13 e53d a6a1 f6ba
00000030: 89af 6b3d c3f1 fb3d 35e0 27bd 9e32 553c
00000040: e16f 1c3d 52f5 d23d deeb 323d 1275 40be
00000050: b6c2 453b 4e0e 18bd 1122 a4bd 2669 cebd
00000060: 8b0e e13c 159d a73c b08a 23be ba7f 093d
00000070: 542c cdbd 2f31 bb3d d7f4 1dbd 04c9 e43c
00000080: 7b73 b13d 2f43 2ebc efa1 40bd 3cda bebc
00000090: 154b 7a3c 4d55 74bd a981 1c3d 6bf8 20bc
000000a0: d210 163c a350 373c de65 dc3d 9294 02bd
000000b0: 9e6e e13d 76c5 8c3d 48cc ac3d 1fc3 09be
000000c0: bc8a ad3c 2139 6a3d bf79 13be f08e 83bd
000000d0: 24a6 20bd 1da8 a53d a630 07be cb48 613d
000000e0: 758b eebd 1dfd dd3d 4b6b 013e 2c13 ca3d
000000f0: 7022 dabd 03af 13bd e3ce cfbd 9b03 d43d
00000100: c240 9bbd b658 363c 7cbd 0ebd 4dbe a7bd
00000110: 5996 39bd 4e3e 443d 02f0 793d b468 c53d
00000120: 8355 ba3b b6e1 12bd eb25 ab3d e0b4 a7bd
00000130: a7e7 8ebd 7177 c3bd fa5b 81bd 5719 d13b
00000140: 5c1b 9abd 6823 753c 0db0 3d3e 512a 54bc
00000150: 5c48 923d 6857 2dbd 2d2e 02be 73e1 25bd
00000160: dbf7 57bd f7b5 493e a593 84bd 1898 863b
00000170: 2ba6 0bbc 5f31 90bd 4fd3 94bd 0eb1 01be
00000180: 7bfe fc3d 0dd6 613d 74e3 203d f3a0 2fbe
00000190: 347f 16bd b378 a83d 7c7e 4abc 1b09 273d
000001a0: 4e3d 403d 9876 85bd a2eb 13bd 3f16 b63d
000001b0: ad27 8b3c f0d6 9ebc 10e3 1c3d 817e 943d
000001c0: 5edb a039 7628 8bbd 893d 91bd e412 11bd
000001d0: f4df ad3c 4d72 06be 40af cd3d c393 29bd
000001e0: e5ea e23d ec5c 38bd 02eb ed3c bd3d 393c
000001f0: cf4e 51bc e66e 14bc 5aaa a2bc 4d3d e73b
00000200: 4702 dcbd b5ea 093d 02e9 febd 544d 96bc
00000210: 3f15 71bc 8a26 d8bd e11a fc3d 992f d8bd
00000220: f5bf 963d 8d95 723d 5c72 a63b d7e2 68bd
00000230: 0fdd c33c 6abc f6bc ed86 6a3d f340 9c3c
00000240: 389b f2bd 5533 cbbd bcf0 fc3b 7583 08bc
00000250: 4bcb 3abc f574 753d 7d50 d33c ba67 edbd
00000260: ec8a eebb 94bb 393e 4aa6 773d 8030 383d
00000270: b4c0 0cbd cf55 1ebd 0224 4d3d 00c2 94bd
00000280: 881b cf3d 34bb 733d f6d3 e0bb affe 9d3d
00000290: f915 d5bd 864b 43bd 9a9d 203d 28cc 523d
000002a0: 2c4d fdbc cda0 17be 54ec 0bbc 5532 7b3d
000002b0: 9665 903d 10f6 c4bd 8c12 813d fbe5 f3bc
000002c0: 8829 0fbe 05b0 f7bd e52b 06be cced df3d
000002d0: fdf5 e33c 7d3e 013e 0d3b 03be 2f15 ff3d
000002e0: b5d9 ba3d 83ce a6bc b359 c0bd 204b 3abd
000002f0: 1e1e e0bd c104 973c 5fbe 8c3c b012 af3c
00000300: f3bf f23d 0cc7 debc c0e8 04be 795b 103e
00000310: 9c8f 1b3d 48c5 893d 2c5a 873d 898b 253d
00000320: 0594 febc 8c9b 963d aefb 47bc 4397 86bd
00000330: 97b7 36bc 3d4b 053c ef53 d2bc 5481 d9bd
00000340: 88c2 2dbd 787f ffbd ce9e b6bd 347e 06be
00000350: 3398 07bd c54e 01be 2ad8 913d 11ed c1bd
00000360: a492 1a3d 6b60 7f3d b2ff c6bd 82b9 113e
00000370: c408 06bd d9e8 2d3e 3db5 cc3d acb6 283d
00000380: c3ed d1bd 46ca 87bd fb74 1abe e5b5 00bd
00000390: 8f45 043c d65b 5e3d 38b1 723d f562 3abb
000003a0: 2aad 0a3d e6a9 8ebd 8a31 893d 59a0 88bd
000003b0: 5974 fdbd b524 10bd c6b9 563e 78e5 1fbd
000003c0: b7c9 abbc c5dd 703d 0d7e 0dbe 51d5 b6bd
000003d0: d6aa a83d 40d7 51bd 792f 90bd 23e1 9dbd
000003e0: 6ba3 c03d 2e40 b43d ddfd be3d a76d 0fbe
000003f0: f727 c03d 5672 96bd aa59 f03d 7e94 9cbd
-0.14673203 0.08977983 0.13260555 0.07671176 0.0031119245 0.025554592 -0.017598908 0.1760679
-0.050047092 -0.00630653 0.11185393 -0.0018816486 0.05754045 0.12301972 -0.040985305 0.013012556
0.038192634 0.103006974 0.04368197 -0.18794659 0.0030175871 -0.037123017 -0.0801431 -0.10078649
0.027472755 0.020460645 -0.15970874 0.033569075 -0.100182205 0.091402404 -0.038563576 0.027927883
0.08664604 -0.010636135 -0.047029432 -0.023297422 0.01527669 -0.05965166 0.03820959 -0.009824852
0.009159284 0.011188659 0.10761617 -0.03187997 0.11007427 0.068736 0.08437401 -0.13453339
0.021184318 0.05718339 -0.14401911 -0.064237475 -0.039220944 0.08088706 -0.13202152 0.05500106
-0.11647693 0.10839293 0.12638585 0.09866938 -0.106511 -0.036055576 -0.101468824 0.1035225
-0.07580711 0.011129549 -0.034848675 -0.08190594 -0.0453094 0.04791098 0.061019905 0.09639111
0.0056864633 -0.035859786 0.08356842 -0.08188796 -0.06977778 -0.09544266 -0.06316371 0.0063811946
-0.0752475 0.014962055 0.1852419 -0.012949542 0.07142708 -0.042319685 -0.12712927 -0.04049821
-0.052726608 0.1969832 -0.064734735 0.0041074865 -0.008523504 -0.07040667 -0.072668664 -0.12665197
0.12353226 0.055135775 0.039279416 -0.17151241 -0.036742404 0.082261465 -0.012359258 0.040780168
0.046933465 -0.065167606 -0.03611339 0.08890962 0.016986692 -0.0193896 0.03830248 0.07250691
0.0003068102 -0.06794827 -0.07091815 -0.035418406 0.021224953 -0.1312954 0.10043192 -0.041400682
0.11079959 -0.045010492 0.029042725 0.011306223 -0.012775137 -0.009059643 -0.01985662 0.007056868
-0.10742622 0.0336711 -0.124467865 -0.01834742 -0.014714538 -0.10554226 0.12309814 -0.105559535
0.07360832 0.059224654 0.0050795507 -0.056856956 0.02390912 -0.03011914 0.05725758 0.019073939
-0.11846012 -0.099219 0.0077191275 -0.008332123 -0.011401008 0.059925992 0.025795216 -0.1159205
-0.0072797444 0.18137962 0.06046132 0.04496813 -0.034363464 -0.038656052 0.050083168 -0.07263565
0.10112673 0.059504703 -0.006861205 0.07714593 -0.104045816 -0.047679447 0.0392128 0.05146423
-0.030920587 -0.14807434 -0.008540232 0.061327297 0.07050626 -0.09617245 0.06302366 -0.02977275
-0.13980687 -0.1209412 -0.13102682 0.10934028 0.027827257 0.12621494 -0.12815495 0.12455212
0.091235556 -0.020362144 -0.09392109 -0.0454818 -0.109432444 0.018434884 0.01718062 0.021371216
0.11853018 -0.027194522 -0.12979412 0.14097394 0.037978753 0.067270815 0.06608996 0.040416274
-0.03107644 0.07353887 -0.012206001 -0.0657182 -0.01115217 0.008135614 -0.025674788 -0.106203705
-0.042421848 -0.124754846 -0.08917008 -0.1313408 -0.033104133 -0.12627704 0.07121308 -0.09469045
0.037737504 0.06234781 -0.09716739 0.14230922 -0.032723203 0.16983356 0.09995506 0.041189834
-0.102504276 -0.066303775 -0.15083687 -0.03142347 0.008073225 0.0542868 0.05925104 -0.002844033
0.03385655 -0.06965999 0.06698902 -0.06671209 -0.12375707 -0.035191257 0.20969304 -0.039037198
-0.020970209 0.058805246 -0.13817616 -0.089274056 0.08235709 -0.05123067 -0.07040305 -0.07708957
0.094061695 0.08801304 0.09325764 -0.14006673 0.09382623 -0.073460266 0.11735852 -0.0764551

blocks.0.sa.heads.1.tril f4 [32, 32]
00000000: 0000 803f 0000 0000 0000 0000 0000 0000
00000010: 0000 0000 0000 0000 0000 0000 0000 0000
00000020: 0000 0000 0000 0000 0000 0000 0000 0000
00000030: 0000 0000 0000 0000 0000 0000 0000 0000
00000040: 0000 0000 0000 0000 0000 0000 0000 0000
00000050: 0000 0000 0000 0000 0000 0000 0000 0000
00000060: 0000 0000 0000 0000 0000 0000 0000 0000
00000070: 0000 0000 0000 0000 0000 0000 0000 0000
00000080: 0000 803f 0000 803f 0000 0000 0000 0000
00000090: 0000 0000 0000 0000 0000 0000 0000 0000
000000a0: 0000 0000 0000 0000 0000 0000 0000 0000
000000b0: 0000 0000 0000 0000 0000 0000 0000 0000
000000c0: 0000 0000 0000 0000 0000 0000 0000 0000
000000d0: 0000 0000 0000 0000 0000 0000 0000 0000
000000e0: 0000 0000 0000 0000 0000 0000 0000 0000
000000f0: 0000 0000 0000 0000 0000 0000 0000 0000
00000100: 0000 803f 0000 803f 0000 803f 0000 0000
00000110: 0000 0000 0000 0000 0000 0000 0000 0000
00000120: 0000 0000 0000 0000 0000 0000 0000 0000
00000130: 0000 0000 0000 0000 0000 0000 0000 0000
00000140: 0000 0000 0000 0000 0000 0000 0000 0000
00000150: 0000 0000 0000 0000 0000 0000 0000 0000
00000160: 0000 0000 0000 0000 0000 0000 0000 0000
00000170: 0000 0000 0000 0000 0000 0000 0000 0000
00000180: 0000 803f 0000 803f 0000 803f 0000 803f
00000190: 0000 0000 0000 0000 0000 0000 0000 0000
000001a0: 0000 0000 0000 0000 0000 0000 0000 0000
000001b0: 0000 0000 0000 0000 0000 0000 0000 0000
000001c0: 0000 0000 0000 0000 0000 0000 0000 0000
000001d0: 0000 0000 0000 0000 0000 0000 0000 0000
000001e0: 0000 0000 0000 0000 0000 0000 0000 0000
000001f0: 0000 0000 0000 0000 0000 0000 0000 0000
00000200: 0000 803f 0000 803f 0000 803f 0000 803f
00000210: 0000 803f 0000 0000 0000 0000 0000 0000
00000220: 0000 0000 0000 0000 0000 0000 0000 0000
00000230: 0000 0000 0000 0000 0000 0000 0000 0000
00000240: 0000 0000 0000 0000 0000 0000 0000 0000
00000250: 0000 0000 0000 0000 0000 0000 0000 0000
00000260: 0000 0000 0000 0000 0000 0000 0000 0000
00000270: 0000 0000 0000 0000 0000 0000 0000 0000
00000280: 0000 803f 0000 803f 0000 803f 0000 803f
00000290: 0000 803f 0000 803f 0000 0000 0000 0000
000002a0: 0000 0000 0000 0000 0000 0000 0000 0000
000002b0: 0000 0000 0000 0000 0000 0000 0000 0000
000002c0: 0000 0000 0000 0000 0000 0000 0000 0000
000002d0: 0000 0000 0000 0000 0000 0000 0000 0000
000002e0: 0000 0000 0000 0000 0000 0000 0000 0000
000002f0: 0000 0000 0000 0000 0000 0000 0000 0000
00000300: 0000 803f 0000 803f 0000 803f 0000 803f
00000310: 0000 803f 0000 803f 0000 803f 0000 0000
00000320: 0000 0000 0000 0000 0000 0000 0000 0000
00000330: 0000 0000 0000 0000 0000 0000 0000 0000
00000340: 0000 0000 0000 0000 0000 0000 0000 0000
00000350: 0000 0000 0000 0000 0000 0000 0000 0000
00000360: 0000 0000 0000 0000 0000 0000 0000 0000
00000370: 0000 0000 0000 0000 0000 0000 0000 0000
00000380: 0000 803f 0000 803f 0000 803f 0000 803f
00000390: 0000 803f 0000 803f 0000 803f 0000 803f
000003a0: 0000 0000 0000 0000 0000 0000 0000 0000
000003b0: 0000 0000 0000 0000 0000 0000 0000 0000
000003c0: 0000 0000 0000 0000 0000 0000 0000 0000
000003d0: 0000 0000 0000 0000 0000 0000 0000 0000
000003e0: 0000 0000 0000 0000 0000 0000 0000 0000
000003f0: 0000 0000 0000 0000 0000 0000 0000 0000
1.0 0.0 0.0 0.0 0.0 0.0 0.0 0.0
0.0 0.0 0.0 0.0 0.0 0.0 0.0 0.0
0.0 0.0 0.0 0.0 0.0 0.0 0.0 0.0
0.0 0.0 0.0 0.0 0.0 0.0 0.0 0.0
1.0 1.0 0.0 0.0 0.0 0.0 0.0 0.0
0.0 0.0 0.0 0.0 0.0 0.0 0.0 0.0
0.0 0.0 0.0 0.0 0.0 0.0 0.0 0.0
0.0 0.0 0.0 0.0 0.0 0.0 0.0 0.0
1.0 1.0 1.0 0.0 0.0 0.0 0.0 0.0
0.0 0.0 0.0 0.0 0.0 0.0 0.0 0.0
0.0 0.0 0.0 0.0 0.0 0.0 0.0 0.0
0.0 0.0 0.0 0.0 0.0 0.0 0.0 0.0
1.0 1.0 1.0 1.0 0.0 0.0 0.0 0.0
0.0 0.0 0.0 0.0 0.0 0.0 0.0 0.0
0.0 0.0 0.0 0.0 0.0 0.0 0.0 0.0
0.0 0.0 0.0 0.0 0.0 0.0 0.0 0.0
1.0 1.0 1.0 1.0 1.0 0.0 0.0 0.0
0.0 0.0 0.0 0.0 0.0 0.0 0.0 0.0
0.0 0.0 0.0 0.0 0.0 0.0 0.0 0.0
0.0 0.0 0.0 0.0 0.0 0.0 0.0 0.0
1.0 1.0 1.0 1.0 1.0 1.0 0.0 0.0
0.0 0.0 0.0 0.0 0.0 0.0 0.0 0.0
0.0 0.0 0.0 0.0 0.0 0.0 0.0 0.0
0.0 0.0 0.0 0.0 0.0 0.0 0.0 0.0
1.0 1.0 1.0 1.0 1.0 1.0 1.0 0.0
0.0 0.0 0.0 0.0 0.0 0.0 0.0 0.0
0.0 0.0 0.0 0.0 0.0 0.0 0.0 0.0
0.0 0.0 0.0 0.0 0.0 0.0 0.0 0.0
1.0 1.0 1.0 1.0 1.0 1.0 1.0 1.0
0.0 0.0 0.0 0.0 0.0 0.0 0.0 0.0
0.0 0.0 0.0 0.0 0.0 0.0 0.0 0.0
0.0 0.0 0.0 0.0 0.0 0.0 0.0 0.0

blocks.0.sa.heads.1.key.weight f4 [16, 64]
00000000: 89a3 3a3c 81bd 0c3e 4595 93bc 91a0 8f3c
00000010: bed4 febc f940 1fbe cc72 583d ad22 22bd
00000020: 8eb1 8d3d a8e8 c6bd b903 abbd 3c9b c8bd
00000030: 4aa4 713d ced8 70bd 7d76 b9bb c9d5 c6bd
00000040: 82be 893d 420b 06bd d7b9 7cbd b118 89bd
00000050: af99 043d de9d 9c3d 673b 6a3d c810 93bd
00000060: b0ce 2cbd 6a71 923d 9e89 cfbd ba7a 9e3c
00000070: 7ddf c9bd beba 8d3d f866 2e3d 4614 17bd
00000080: 3817 c03d d12a 3e3d d579 333c 2c68 573d
00000090: 94ca 09be 7ffe ff3c 3284 b03d f2ce 01be
000000a0: c1f2 483a f2cd ed3c 2481 bebd ca3f e33d
000000b0: 44d5 d6bb c4dd 313d 2fb4 dd3d 8c61 f23b
000000c0: 63e3 0abe 4201 243d 98f4 ad3d def3 f8bc
000000d0: 5017 233c bef6 5ebd c80c 99bd 84ba 1e3d
000000e0: 7fae bb3d 62e8 60bd 5eeb 08bd b550 ad3c
000000f0: 7ef4 683d 7230 6cbb 71a5 8c3d 39d7 87bd
00000100: cf9c adbd 7c76 283d df54 8b3d 4a67 cbbc
00000110: 93dd fd3c 217a 4d3d 7310 26bc 0393 83bc
00000120: ba08 8d3d d445 1d3d 60a5 11be c93b 5a3d
00000130: 71e0 72bd 00c4 b3bc 608e 0b3e cb28 17bd
00000140: da4b c83d e41b a23b 8eb2 bb3c c9ed 22bd
00000150: a7e0 813d 961c 4cbd c665 03bd 7b07 ad3d
00000160: c938 033d f1b7 333d ad33 463d a4ae a3bb
00000170: df59 0e3c a90f 243c 3b7e 1bbe e1b0 373d
00000180: 6d34 6e3d e27b 3ebd 6689 0b3c d2be c3bd
00000190: 3ae9 3bbb e168 053d ac0a 283e 3766 763d
000001a0: 4f5d dd3d 6fd4 0fbd abeb f4bd f441 043b
000001b0: a002 503e a0bb 69bd 0431 c8bd 4ee1 403b
000001c0: bc3a e43c 85d6 2b3e 1708 5b3d 55a4 b2bd
000001d0: a490 5d3b 4ae1 673d b3d8 90bd 745d 97ba
000001e0: c990 693d 58c0 11bd da3c 533d 2d33 b83c
000001f0: bf61 f4bc 2245 94bd e63f 953d 440d b439
00000200: 7bcc 79bd 0394 1d3d 659d 92bd 1233 c13d
00000210: d2cf 923d 4657 e8bd 37af 6b3b 186b a2bc
00000220: 37d9 f4bd b43d edbd 4a88 91bd 3b99 8e3d
00000230: d609 b63b 6f20 dfbc ea93 dabd 9d6c 67bb
00000240: b552 e4bc fb5d 5abc c628 1f3d a7f1 19be
00000250: 3ad5 e73d 012e 353e 4830 2e3d 41c7 aebd
00000260: b58b d53d 8b45 053b 74c0 debc d2a0 43bd
00000270: 5ddd f2bc 347c 6ebd b9b9 cbbd 7d07 743c
00000280: 661f 083d d056 be3d 536d dfbd 3cc0 193e
00000290: 7f06 723d 88c9 e03d 8300 e23c ddad 27bd
000002a0: 0415 b43d 5fac 173d cce7 f1bd 233b 07bc
000002b0: 87d7 0abd fbd1 b6bd 2b38 053e 8f9c d0bd
000002c0: 9885 ef3c bd36 c93c 87a7 ccbc 5016 1ebe
000002d0: 9902 55bd 39ab 8c3c 7a7d b43c cc97 70bb
000002e0: fffc b93d 9079 24bd 02eb b4bd 58eb b23d
000002f0: e326 b03c 0f28 a73d 81b5 50bd 2d2b 003d
00000300: e5b0 cd3d 8fde 12bc 96d7 823b 904a 98bd
00000310: 843c 583d 246e 583d cf6a b7bc dc6b afbc
00000320: e24c f4bd a503 4ebd 4c6f b1bc adc7 67bd
00000330: 5fc2 b1bc df2a d23d 3cd8 febc 7081 163a
00000340: fa67 8e3c acb9 49bd dccc d23a a149 a6bd
00000350: 88e3 923d bddb 06bd 2403 94bc 5946 47bd
00000360: b0e2 c2bc da40 4ebd 8685 99bb abc3 d53c
00000370: 8c65 2f3d 28df 443d 7ec1 d43c f871 96bc
00000380: 88c9 92bd be31 d5bc 6810 01bd 877c c1bd
00000390: ce26 eb3d d52a 093e 5aef 8d3d 550a 57bd
000003a0: 7043 8abc 5181 9c3c 5120 45bd af3e d8bc
000003b0: 669a 21bd c06d c93d 6593 b4bd 91cf cf3c
000003c0: bfbb 16bc e5df 36bd e37b dd3d ac52 e63d
000003d0: f4e8 543d cd6d 92bc 5e84 23bc fd2b e73d
000003e0: 6b9a 143e 6d2d 553d a344 553c 682b 6f3b
000003f0: dbe4 783d 30d7 41bd bf1a 64bd 1cde 7dbd
0.011391529 0.13744165 -0.018015513 0.017532619 -0.031107303 -0.15552129 0.052843854 -0.03958385
0.069186315 -0.097123444 -0.083503194 -0.097952336 0.05899457 -0.05880051 -0.005659877 -0.09708745
0.067257896 -0.03272558 -0.06170067 -0.06694163 0.032373127 0.07647298 0.057185557 -0.07180935
-0.0421893 0.07150538 -0.1013367 0.01934563 -0.0985708 0.06920384 0.042578667 -0.03688457
0.093794286 0.04642755 0.01095434 0.05258958 -0.13456184 0.031249283 0.08618964 -0.126766
0.00076655677 0.029028866 -0.09301975 0.11096151 -0.006556185 0.043424383 0.10825383 0.0073968824
-0.13563304 0.040040262 0.08493918 -0.030389722 0.009954289 -0.05443453 -0.07473141 0.038752094
0.09164142 -0.054909118 -0.03342759 0.021156648 0.05687379 -0.0036039618 0.06867493 -0.06632847
-0.084771745 0.04112862 0.06803297 -0.024829526 0.030989444 0.0501653 -0.010135758 -0.016061312
0.0688643 0.03839667 -0.14223242 0.05327967 -0.059296075 -0.021944046 0.1362853 -0.036904138
0.097800925 0.0049471725 0.02291229 -0.03977755 0.06341677 -0.04983195 -0.03207948 0.084486924
0.032036576 0.043876592 0.048389126 -0.004995184 0.008688419 0.010013499 -0.15184872 0.04484642
0.058155466 -0.046504863 0.008516645 -0.095578805 -0.002867295 0.032570723 0.16410321 0.060156073
0.10808813 -0.0351147 -0.119590126 0.0020180913 0.20313501 -0.0570637 -0.09774974 0.0029431167
0.027860038 0.16781051 0.053474512 -0.0872275 0.0033808136 0.056611337 -0.07072582 -0.0011548237
0.057022844 -0.035583824 0.051571704 0.02248534 -0.029831765 -0.072397485 0.07287578 0.0003434216
-0.060986023 0.038471233 -0.07158927 0.09433569 0.07168545 -0.11344771 0.003596259 -0.019826457
-0.11955493 -0.115840346 -0.07106073 0.0696282 0.0055553718 -0.027237145 -0.106727436 -0.0035312541
-0.027871469 -0.013328071 0.038857244 -0.1503359 0.113199666 0.1769333 0.042526513 -0.085340984
0.104270376 0.002033564 -0.027191378 -0.047760792 -0.02964657 -0.058223918 -0.09947533 0.0148943635
0.03323307 0.09293902 -0.10909524 0.15014738 0.059088226 0.10975939 0.027588135 -0.040937293
0.08793071 0.03702962 -0.1181179 -0.008253845 -0.03389695 -0.08926769 0.13009708 -0.10186111
0.029238507 0.024562234 -0.024982227 -0.15438199 -0.05200443 0.01717149 0.022032488 -0.0036711572
0.09081458 -0.040154994 -0.08833887 0.087362945 0.021502918 0.081619374 -0.050954346 0.031291176
0.100435056 -0.008964195 0.003992985 -0.07436097 0.052792087 0.052839413 -0.022389797 -0.021413736
-0.11928727 -0.050296444 -0.021659516 -0.05658691 -0.021699129 0.10262083 -0.031108968 0.00057413336
0.017383564 -0.049249336 0.0016082781 -0.08119512 0.071723044 -0.032924403 -0.018067904 -0.048651073
-0.023789734 -0.050354816 -0.0046851067 0.026094278 0.042821452 0.04806438 0.02597117 -0.018364891
-0.07167345 -0.026024695 -0.031509787 -0.0944758 0.11482011 0.13395245 0.06930418 -0.052500088
-0.01687786 0.019104632 -0.048126522 -0.026397077 -0.039453886 0.09835386 -0.08817176 0.02536753
-0.009200036 -0.044647116 0.10814645 0.11246237 0.051979974 -0.017874623 -0.009980289 0.11287687
0.14512031 0.052045275 0.013016853 0.0036494378 0.06076513 -0.04732436 -0.05568957 -0.061979398
