LanguageModels/firstnames/model.pth (torch, 931378 bytes, 110 tensors)

token_embedding_table.weight f4 [55, 64]
00000000: 02c3 92bf 95e7 2bbf 599b 183f ddf0 533f
00000010: 6ae8 93bd cc63 65bf 2959 453f 451f 813f
00000020: 6bcc 90bf 4f63 72bf 851f a3bf fa10 f23f
00000030: 77ae 4fbf 9580 54bf 65eb 963e 0e31 d33f
00000040: 5ba2 89bf 6464 803e 2f8b 92bf 8272 a43f
00000050: 04dc 0e40 c04d a2be 536e 313f 267b 413f
00000060: e421 a13e d08b 0c3e 221f ab3f 52a0 2cbf
00000070: a603 11be 97ff 383e b863 043f 57eb 13bf
00000080: d43e b63d 88e3 3abf a49f 9e3e ac96 80bf
00000090: fe91 13c0 7370 0c3e 9b6b 70bf c7dd 1abf
000000a0: ab34 5cbe ff1a 0140 0956 b4bf 4e9a 9d3e
000000b0: 1c37 363e 13ff cdbf 96c9 873f 18a7 55bf
000000c0: a007 d1be 3b27 d93e a0a0 1d3f 29fc dabd
000000d0: bac0 533f 62e7 87be 9c13 d3bd e6fc f8bf
000000e0: 9083 723e 0110 773d fae6 d33d 849b f4bf
000000f0: 110c b8bf b9ec 9fbe ae6d aa3f 9b79 81bf
00000100: a606 853f eced 1a3f 740e 9ebf 6da8 dc3f
00000110: 614c 383f abff 93bf 0f88 813f 7c92 abbf
00000120: 3327 913d 949c 4340 5b9a 573e f634 e0bd
00000130: 35c1 393f 68f7 27bf ce42 4bbe a5cf a2bf
00000140: df90 d53f df89 18c0 cc1f 173f c15c cbbf
00000150: 27e3 6bbd b5f3 093f 108a 27bf 9aa2 9f3f
00000160: 59b2 cb3e 938e 333e 2f5c 7d3e cf94 0440
00000170: bd24 1cbf d5bd b7bf 6ed0 cf3f a191 04bf
00000180: 2734 243d 5f87 9abe dde0 e83d 1d5d 6ebf
00000190: 7a3d fb3f 172c 913f 7b42 7bbf d4f1 6fbe
000001a0: cb55 abbf a5c7 ab3f 4d1d bfbf 824a 33bf
000001b0: cfd2 c93f cc9d b9bf e5a3 79bf eadd 15c0
000001c0: ea73 b63f a825 c43f fcd2 a63f f674 c23f
000001d0: 28ff ba3e 3c1d 2cbf a4cb 823f 725d 0dbf
000001e0: 25f4 29c0 7d02 eebb cdfb 64be 8298 3dbf
000001f0: b406 bc3e dbcd 50be f069 4b3f 568c b7be
00000200: 00db 3a3f 8187 4cbf 689a b73f 7d7f efbe
00000210: a54b dc3e d531 a3bf bda9 df3e dd08 aabf
00000220: f181 0cbe 32ac 3b3f e931 033f a0d6 853f
00000230: 3e95 3dbf e19a 9abe 497b 8dbf 1515 a73e
00000240: 508d 91bc 2fd6 a4bf 19c5 683f 7815 18c0
00000250: 9a3d 143f 2931 6cbf 0825 2c3f 9251 2c3e
00000260: 7253 70bf adb0 8e3f 8ede 85bf 0cba 04c0
00000270: bc7d 8cbc 0dac bbbf 9ce8 913f d1b3 463e
00000280: 59fd 1240 8bdf cdbf ecbb 6dbf e65f a63f
00000290: ea51 9a3f 240b 813e f4a5 30bf 773e 2f3f
000002a0: 0bc7 27be dfc1 04bf 6e75 ae3e e0bc 683e
000002b0: 1218 34bf f6c4 a5bf 5f62 afbf a759 bdbf
000002c0: a1cb da3f cce4 0d3e 0fbe 0b3e 46bb 0740
000002d0: a673 94be e96e 443f 4fd2 f93f 8cc0 133f
000002e0: 0e02 f3bf 1482 a63e a3f7 d33e aba6 18bf
000002f0: 5d57 413f 901e dd3e de8f 843f dc03 ba3d
00000300: 3421 3a3f 9fcf 493f d3d8 c9bf 5c12 14c0
00000310: 8939 c0bf cb09 ae3f aad9 673f c251 abbf
00000320: fcd3 25bf 947d a3be 0ab7 f9be 4b7a 643f
00000330: bc5c 0b3f 8454 0fc0 5a4c 14bf d121 0f3e
00000340: 499b 503e d8f3 7c3d 6227 c83f b8ee ccbe
00000350: 98a8 6fbf 24c3 dc3f 1605 8ebf 426e e83e
00000360: 36c2 87bf 1bc1 bfbf a035 c83e a0d2 cebf
00000370: 43d6 9fbf 86f7 1040 8ba6 a63f e907 183f
00000380: 3743 afbf 2dbb 423e 7ae8 22bf 5048 4cbf
00000390: 6f50 403e 8192 cb3e a25b 3340 3e16 0a3f
000003a0: 01ee cd3d 5f5b 00bd 07b3 07bf 0152 113e
000003b0: a010 953f 1aad 33be e99f 99bd 50d7 abbe
000003c0: b06f e9be 6965 6c3f dbd5 48bd 8995 d13d
000003d0: 181d 07c0 6876 90bf d23f a43f a334 853f
000003e0: 407c 3a40 5ddc 61bf ffd1 a63f 97d4 c4be
000003f0: f466 c9bd 0aed 23bf 7bfe 983f d7de 56bc
-1.1465762 -0.6715024 0.5961204 0.82789403 -0.07222064 -0.896054 0.7708917 1.0087668
-1.1312383 -0.9468278 -1.2743994 1.8911431 -0.8112559 -0.830087 0.29476467 1.6499345
-1.0752672 0.25076592 -1.1448725 1.2847445 2.2321787 -0.31699944 0.69308966 0.75578535
0.3147117 0.13725209 1.3368876 -0.6743213 -0.14161548 0.1806625 0.5171466 -0.57780975
0.08898702 -0.73003435 0.3098117 -1.0045981 -2.3057857 0.13714771 -0.9391419 -0.60494655
-0.21504466 2.0172727 -1.4088756 0.30781788 0.1779446 -1.6093467 1.0608394 -0.8345809
-0.4082613 0.42412743 0.6157322 -0.10692627 0.8271595 -0.2654372 -0.103064746 -1.9452178
0.23683 0.060317997 0.1034679 -1.910996 -1.4378682 -0.31235293 1.3314722 -1.0115236
1.0392654 0.6051929 -1.2348161 1.72389 0.71991545 -1.1562399 1.0119647 -1.3404078
0.07087555 3.0564318 0.21054976 -0.109476015 0.72560436 -0.65611887 -0.19849703 -1.2719618
1.6684836 -2.383415 0.59032893 -1.5887681 -0.057589676 0.5388749 -0.6544504 1.2471497
0.39784506 0.17534856 0.24742197 2.0715826 -0.6099356 -1.4354807 1.6235483 -0.5178471
0.0400888 -0.30181405 0.11371014 -0.9311083 1.9628136 1.134158 -0.98148316 -0.23432094
-1.3385557 1.3420302 -1.4930817 -0.70035565 1.5767459 -1.4501281 -0.9751571 -2.3416696
1.4254124 1.5323992 1.3033137 1.5191944 0.36522794 -0.6723211 1.0218396 -0.5522071
-2.6555264 -0.00726348 -0.2236168 -0.74060833 0.36723864 -0.20391028 0.7945852 -0.35849255
0.7299042 -0.7989426 1.4343996 -0.46776953 0.43026462 -1.2749583 0.43684188 -1.3283955
-0.13721444 0.73309624 0.5124803 1.0456123 -0.7405585 -0.30196288 -1.1053249 0.32633272
-0.017767578 -1.2877864 0.9092575 -2.3763103 0.57906497 -0.9226251 0.67244005 0.16827992
-0.9387733 1.1147667 -1.0458543 -2.0738554 -0.017149799 -1.4661881 1.1399112 0.19404532
2.296713 -1.6083845 -0.9286487 1.2998016 1.2056248 0.25203812 -0.69003224 0.6845469
-0.16384523 -0.51858324 0.34073967 0.227283 -0.7034923 -1.2950733 -1.3701895 -1.4792985
1.7093393 0.1385681 0.1364672 2.1208053 -0.28994483 0.76731735 1.9517306 0.5771568
-1.8985002 0.32521117 0.4139987 -0.59629315 0.7552393 0.4318738 1.0356405 0.09082767
0.72706914 0.7883243 -1.5769295 -2.3136206 -1.5017558 1.3596739 0.90566504 -1.3384326
-0.6477659 -0.31931746 -0.4877246 0.89249104 0.54438376 -2.2395334 -0.57929003 0.13977744
0.20371737 0.061755985 1.5637019 -0.40025878 -0.9361663 1.7247052 -1.1095302 0.4539662
-1.0606143 -1.4980806 0.39103413 -1.6158028 -1.2487262 2.2651076 1.3019575 0.5938707
-1.3692387 0.19016714 -0.6363598 -0.7979784 0.18780683 0.3976021 2.8024678 0.5394019
0.10055161 -0.03133714 -0.5300755 0.14191438 1.1645699 -0.17546502 -0.075012036 -0.33562708
-0.45593023 0.9234224 -0.049032073 0.102336 -2.1111507 -1.1286135 1.2831976 1.0406688
2.9138336 -0.8822687 1.3032836 -0.38443443 -0.0983409 -0.6403357 1.1952661 -0.013114653

position_embedding_table.weight f4 [32, 64]
00000000: 6c7c 643f 8dc0 e53e 4e78 ae3f bda9 0fc0
00000010: 2ec9 803f 187d 103f 76cf 853f 93e3 1fbf
00000020: cbb8 2fbf 8305 b8bf ee7c b23e 11df 9c3f
00000030: 477a 31bf 0045 c53e 9020 8d3f 741b f73d
00000040: 709c 1ec0 e70f fcbe 36db 603e a612 433c
00000050: 7a05 cc3e b78e 6bbf c6f5 853d 41d3 dc3e
00000060: 56b5 55bf 9fb3 c2be 7b0a e63e 0aa7 45bf
00000070: eaf3 67bf 8c82 0f40 91ad cdbf 4cd6 84bf
00000080: 242f 433c bd09 b1bf f348 813e 9b2c 06bf
00000090: 3363 53be 2b40 11bf 2e9e 16bf 4ce4 d93e
000000a0: 5ac6 e43f 4bf6 6cbe 4c09 8bbf 0360 36bd
000000b0: db86 20bf 22e2 a63e 03af e1be b6f4 d53f
000000c0: 1cc1 de3e 8e12 2b3f 6b53 903f 6f82 4dbf
000000d0: 2b72 f7be c494 92be 422a bd3f 94fd 18bf
000000e0: 62f9 4dbf 9e24 d13d 8c60 2ac0 bf2b b3bd
000000f0: 740b 1a3e 792c 66bf 9522 edbe 5c96 383f
00000100: e0fe a2bf 9fd8 8b3f f853 413f 85b6 df3d
00000110: 9864 743e 30da c83f ec9a 8f3e 786d 7a3e
00000120: c41a 9e3f f520 d4be 50c5 ec3e 8e73 81bf
00000130: 6f19 ab3e 144f 49bf e530 b8bf 394f 41bf
00000140: 6728 aebf 341c 383d a7d2 9abf 4abc 8e3d
00000150: 30e1 f0bf b55a 3d3f 15a6 9e3e b0a2 963d
00000160: 03d3 033e 9e74 93be e43d 0440 19c9 1940
00000170: 1833 993f 7752 42be b67c 8d3f 8f48 0dc0
00000180: 01ff 6ebf a53b 0a3f d0b5 30bf 42f1 e6be
00000190: ee4e 433f ac61 d93e e665 b43f 4295 c93d
000001a0: 81e6 b63c c705 ddbd e63e 853e 2877 9ebf
000001b0: 5f82 723c b204 90bf 1b11 bf3f 8a46 2a3f
000001c0: 28e7 9fbe 2658 e13e 96d4 e6bf 936b 22bf
000001d0: bf9a 56be f770 773f 24e6 953f e70b 983f
000001e0: 66d3 56bd b571 77be acf6 163d 260d 03bf
000001f0: 6e19 83bf e40b e8be b9c6 99bf 3c89 47bf
00000200: 9a5c 5d3f 0a81 00c0 09a2 4bbf e34c c93e
00000210: 533b 853f 6d8f d43e f603 d03f f9d2 a13e
00000220: 9472 ef3f 00c8 abbd 7b67 0440 a63e 353e
00000230: 7259 d9be a049 0abe 7de1 323f 9eb5 9c3f
00000240: 2b55 c43f e20d 78bb cd05 9abf 137e 0840
00000250: 645a d33e 0285 d53f 58b5 713e c494 833e
00000260: 2a97 a3bf b3c5 0e40 d95d 393f 1ad3 643f
00000270: d6ef 9e3f e199 9dbf b3a3 8c3f aec0 113f
00000280: 4433 613f 1ab9 c53e 09b0 0e3e ada4 46bf
00000290: 092b 86bf 3db0 02be 6d20 61bf 1a12 8abe
000002a0: 58e4 573f aba3 be3f f76c 1cbf a7ad 1fbe
000002b0: 352e c33f 0482 b73f 6f58 473f ab90 923f
000002c0: 1e50 873f a0d4 6dbe dc04 043f c243 2abf
000002d0: f536 d9be 39b5 c53e 7eb6 ec3e 988d 833e
000002e0: e576 0fbf a561 d23f 2b04 09bf 5681 14be
000002f0: bec4 783d 65b8 ee3f 48bf 8fbe 5247 78bf
00000300: f29e eb3f 0580 1f3f 9eb1 73be c0a7 08be
00000310: d908 4e3e 6658 0cbf da4c 20be ecb4 433e
00000320: 1a4d b8be 0e26 c43d cc45 9f3e d7ea 223e
00000330: 848a 9d3e 065f c5bf e4b5 543c 1a73 fcbe
00000340: 6cb7 aa3f be3c 80be 3cf3 7d3e 52ca d5bc
00000350: b003 9dbd 7089 a73e 6b7d 4e3e e144 4dbf
00000360: 3957 e63f 2286 01bf d168 aa3e cdb0 8bbc
00000370: cec7 a6bf 4500 17be d820 ebbe df31 febf
00000380: 23ee 1ebf 69bf aa3f 028e 153f 7a88 8dbe
00000390: dbd7 553f 8642 073f c94d f1be 7dc3 35bc
000003a0: 11f0 d5be 2f1c 613d 08e9 1f3f f1fe abbf
000003b0: a452 543e c979 1abf c3dc d73e 441e d63e
000003c0: e785 d43f 61f6 6dbe 9a20 cdbe 3b6b 79bf
000003d0: e82a ff3e c693 283e 6926 5bbe aee0 aebe
000003e0: af40 7abf 0f9c bd3f 3b12 50bf 509c 863f
000003f0: d22d 27bf 94f7 823f bdd0 88bf 94c7 473f
0.8925235 0.44873467 1.3630464 -2.244735 1.0061395 0.5644088 1.0453937 -0.62456626
-0.68641347 -1.4376682 0.3486094 1.2255574 -0.69327205 0.38529205 1.1025562 0.12065783
-2.4782982 -0.49230883 0.21958622 0.011906302 0.39847928 -0.9201464 0.06541018 0.43129924
-0.8347982 -0.38027665 0.4492987 -0.77208006 -0.9060656 2.242343 -1.6068593 -1.0377898
0.011913095 -1.3831097 0.25250968 -0.5241181 -0.2064331 -0.5673854 -0.58835113 0.4255699
1.7873032 -0.23140828 -1.0862212 -0.044525158 -0.62705773 0.325944 -0.44078836 1.6715305
0.43506706 0.6682519 1.1275457 -0.8027715 -0.4832929 -0.28629124 1.4778521 -0.5976193
-0.8045865 0.10212062 -2.6621428 -0.08748578 0.15043432 -0.8991161 -0.46315446 0.7210443
-1.2734032 1.0925483 0.7551875 0.10923485 0.23866498 1.5691586 0.28047884 0.24455822
1.2351918 -0.41431394 0.46244287 -1.011339 0.33417842 -0.7863629 -1.4389921 -0.7551151
-1.360608 0.04494877 -1.2095536 0.06969507 -1.8818722 0.7396653 0.30986086 0.07355249
0.12873463 -0.2879991 2.0662775 2.402899 1.1968718 -0.1897677 1.1053684 -2.2075536
-0.93357855 0.5399726 -0.69027424 -0.4510594 0.7629231 0.4245733 1.4093597 0.09842922
0.02232671 -0.107921176 0.2602455 -1.2380114 0.014801591 -1.1251433 1.4927095 0.66513884
-0.31231046 0.44012564 -1.8033626 -0.63445395 -0.20957468 0.96656746 1.1710858 1.1878632
-0.0524477 -0.2416447 0.03685634 -0.5119194 -1.0242136 -0.45321572 -1.201377 -0.7794378
0.86469424 -2.007876 -0.7954412 0.39316472 1.0408729 0.41515675 1.6251209 0.31606272
1.8706841 -0.08387756 2.068816 0.1769968 -0.42451054 -0.13504648 0.6987532 1.2242925
1.5338491 -0.0037850072 -1.203302 2.132695 0.412799 1.6681216 0.23604333 0.25699437
-1.2780507 2.2308166 0.72408825 0.89384615 1.2416942 -1.2312585 1.0987457 0.5693463
0.8796885 0.38617784 0.1393434 -0.77595025 -1.0481883 -0.12762542 -0.879401 -0.26966935
0.843328 1.4893698 -0.6110377 -0.15593587 1.5248476 1.4336553 0.77869314 1.1450399
1.0571325 -0.23225641 0.51569915 -0.6650964 -0.4242474 0.38614824 0.4623298 0.25693965
-0.56040794 1.6436049 -0.53521985 -0.14502463 0.060734503 1.8650023 -0.28075624 -0.96983826
1.8407881 0.6230472 -0.23798224 -0.13345242 0.20120563 -0.54822385 -0.15654317 0.19111985
-0.35996324 0.09577571 0.31107938 0.15909897 0.30769742 -1.5419624 0.012982819 -0.49306566
1.3337226 -0.25046343 0.24799818 -0.02609745 -0.07666719 0.32722044 0.2016503 -0.80183226
1.7995368 -0.50595295 0.33283094 -0.017052079 -1.3029726 -0.14746197 -0.45923495 -1.985897
-0.6208212 1.3339664 0.5841981 -0.27643186 0.83532494 0.5283588 -0.47129658 -0.011093971
-0.4178472 0.05495852 0.6246495 -1.3437177 0.2073465 -0.6034208 0.42160615 0.41819966
1.6603364 -0.23238517 -0.40063936 -0.97429246 0.49837422 0.16462621 -0.21401371 -0.34155792
-0.9775495 1.481325 -0.8127782 1.0516453 -0.6530429 1.0231805 -1.0688702 0.7803891

blocks.0.sa.heads.0.tril f4 [32, 32]
00000000: 0000 803f 0000 0000 0000 0000 0000 0000
00000010: 0000 0000 0000 0000 0000 0000 0000 0000
00000020: 0000 0000 0000 0000 0000 0000 0000 0000
00000030: 0000 0000 0000 0000 0000 0000 0000 0000
00000040: 0000 0000 0000 0000 0000 0000 0000 0000
00000050: 0000 0000 0000 0000 0000 0000 0000 0000
00000060: 0000 0000 0000 0000 0000 0000 0000 0000
00000070: 0000 0000 0000 0000 0000 0000 0000 0000
00000080: 0000 803f 0000 803f 0000 0000 0000 0000
00000090: 0000 0000 0000 0000 0000 0000 0000 0000
000000a0: 0000 0000 0000 0000 0000 0000 0000 0000
000000b0: 0000 0000 0000 0000 0000 0000 0000 0000
000000c0: 0000 0000 0000 0000 0000 0000 0000 0000
000000d0: 0000 0000 0000 0000 0000 0000 0000 0000
000000e0: 0000 0000 0000 0000 0000 0000 0000 0000
000000f0: 0000 0000 0000 0000 0000 0000 0000 0000
00000100: 0000 803f 0000 803f 0000 803f 0000 0000
00000110: 0000 0000 0000 0000 0000 0000 0000 0000
00000120: 0000 0000 0000 0000 0000 0000 0000 0000
00000130: 0000 0000 0000 0000 0000 0000 0000 0000
00000140: 0000 0000 0000 0000 0000 0000 0000 0000
00000150: 0000 0000 0000 0000 0000 0000 0000 0000
00000160: 0000 0000 0000 0000 0000 0000 0000 0000
00000170: 0000 0000 0000 0000 0000 0000 0000 0000
00000180: 0000 803f 0000 803f 0000 803f 0000 803f
00000190: 0000 0000 0000 0000 0000 0000 0000 0000
000001a0: 0000 0000 0000 0000 0000 0000 0000 0000
000001b0: 0000 0000 0000 0000 0000 0000 0000 0000
000001c0: 0000 0000 0000 0000 0000 0000 0000 0000
000001d0: 0000 0000 0000 0000 0000 0000 0000 0000
000001e0: 0000 0000 0000 0000 0000 0000 0000 0000
000001f0: 0000 0000 0000 0000 0000 0000 0000 0000
00000200: 0000 803f 0000 803f 0000 803f 0000 803f
00000210: 0000 803f 0000 0000 0000 0000 0000 0000
00000220: 0000 0000 0000 0000 0000 0000 0000 0000
00000230: 0000 0000 0000 0000 0000 0000 0000 0000
00000240: 0000 0000 0000 0000 0000 0000 0000 0000
00000250: 0000 0000 0000 0000 0000 0000 0000 0000
00000260: 0000 0000 0000 0000 0000 0000 0000 0000
00000270: 0000 0000 0000 0000 0000 0000 0000 0000
00000280: 0000 803f 0000 803f 0000 803f 0000 803f
00000290: 0000 803f 0000 803f 0000 0000 0000 0000
000002a0: 0000 0000 0000 0000 0000 0000 0000 0000
000002b0: 0000 0000 0000 0000 0000 0000 0000 0000
000002c0: 0000 0000 0000 0000 0000 0000 0000 0000
000002d0: 0000 0000 0000 0000 0000 0000 0000 0000
000002e0: 0000 0000 0000 0000 0000 0000 0000 0000
000002f0: 0000 0000 0000 0000 0000 0000 0000 0000
00000300: 0000 803f 0000 803f 0000 803f 0000 803f
00000310: 0000 803f 0000 803f 0000 803f 0000 0000
00000320: 0000 0000 0000 0000 0000 0000 0000 0000
00000330: 0000 0000 0000 0000 0000 0000 0000 0000
00000340: 0000 0000 0000 0000 0000 0000 0000 0000
00000350: 0000 0000 0000 0000 0000 0000 0000 0000
00000360: 0000 0000 0000 0000 0000 0000 0000 0000
00000370: 0000 0000 0000 0000 0000 0000 0000 0000
00000380: 0000 803f 0000 803f 0000 803f 0000 803f
00000390: 0000 803f 0000 803f 0000 803f 0000 803f
000003a0: 0000 0000 0000 0000 0000 0000 0000 0000
000003b0: 0000 0000 0000 0000 0000 0000 0000 0000
000003c0: 0000 0000 0000 0000 0000 0000 0000 0000
000003d0: 0000 0000 0000 0000 0000 0000 0000 0000
000003e0: 0000 0000 0000 0000 0000 0000 0000 0000
000003f0: 0000 0000 0000 0000 0000 0000 0000 0000
1.0 0.0 0.0 0.0 0.0 0.0 0.0 0.0
0.0 0.0 0.0 0.0 0.0 0.0 0.0 0.0
0.0 0.0 0.0 0.0 0.0 0.0 0.0 0.0
0.0 0.0 0.0 0.0 0.0 0.0 0.0 0.0
1.0 1.0 0.0 0.0 0.0 0.0 0.0 0.0
0.0 0.0 0.0 0.0 0.0 0.0 0.0 0.0
0.0 0.0 0.0 0.0 0.0 0.0 0.0 0.0
0.0 0.0 0.0 0.0 0.0 0.0 0.0 0.0
1.0 1.0 1.0 0.0 0.0 0.0 0.0 0.0
0.0 0.0 0.0 0.0 0.0 0.0 0.0 0.0
0.0 0.0 0.0 0.0 0.0 0.0 0.0 0.0
0.0 0.0 0.0 0.0 0.0 0.0 0.0 0.0
1.0 1.0 1.0 1.0 0.0 0.0 0.0 0.0
0.0 0.0 0.0 0.0 0.0 0.0 0.0 0.0
0.0 0.0 0.0 0.0 0.0 0.0 0.0 0.0
0.0 0.0 0.0 0.0 0.0 0.0 0.0 0.0
1.0 1.0 1.0 1.0 1.0 0.0 0.0 0.0
0.0 0.0 0.0 0.0 0.0 0.0 0.0 0.0
0.0 0.0 0.0 0.0 0.0 0.0 0.0 0.0
0.0 0.0 0.0 0.0 0.0 0.0 0.0 0.0
1.0 1.0 1.0 1.0 1.0 1.0 0.0 0.0
0.0 0.0 0.0 0.0 0.0 0.0 0.0 0.0
0.0 0.0 0.0 0.0 0.0 0.0 0.0 0.0
0.0 0.0 0.0 0.0 0.0 0.0 0.0 0.0
1.0 1.0 1.0 1.0 1.0 1.0 1.0 0.0
0.0 0.0 0.0 0.0 0.0 0.0 0.0 0.0
0.0 0.0 0.0 0.0 0.0 0.0 0.0 0.0
0.0 0.0 0.0 0.0 0.0 0.0 0.0 0.0
1.0 1.0 1.0 1.0 1.0 1.0 1.0 1.0
0.0 0.0 0.0 0.0 0.0 0.0 0.0 0.0
0.0 0.0 0.0 0.0 0.0 0.0 0.0 0.0
0.0 0.0 0.0 0.0 0.0 0.0 0.0 0.0

blocks.0.sa.heads.0.key.weight f4 [16, 64]
00000000: 9f8f 3b3d c30f b1bd 1a77 0ebe 5810 1dbd
00000010: 5fe2 6cbd 032a 0fbc c5ea f43b 50a6 3abc
00000020: f78c abbd 1b7c dd3d a6ed 893c aa67 bf3d
00000030: 271a 6ebd 7291 1f3b c6fb 2abd 32f8 813d
00000040: 7468 983d a125 20bd da88 eb3c db7a cbbd
00000050: aa95 11be 5a15 653d bdaf 9dbd 6c92 a33d
00000060: cb47 e23d 36d9 af3d a3a5 173c fbc4 24be
00000070: b7a6 903c 73f0 0bbe 578a 9d3c 20fa 183d
00000080: 1b66 5b3e e1f5 11bd 9eb3 773c f6b0 47bd
00000090: baa7 fe3d e133 f4bd 3c69 3cbd 5bec bb3d
000000a0: e08d c43c 846c e43d 1aac 6cbd 3be0 6bbd
000000b0: 2549 8c3d e11f 753d 1cf8 cd3d 2e72 22be
000000c0: 3e89 3ebe dfa6 c13c 5236 043d 2045 c83c
000000d0: 95f1 b4bd 198a 99bd f0b3 49bd e653 eabc
000000e0: 012d 623d b476 babd 1afb 083e eb1c 313e
000000f0: 6869 8c3d ce08 3dbc a134 32bd 0766 93bd
00000100: 4a69 b73d 894e 23bd 32d6 a73d b9f3 973d
00000110: 1b24 c53d 712e b4bd 7d19 e13d 63df 583d
00000120: 0f27 ebba fe57 7ebd f3c5 a8bd 79cb 62bc
00000130: 8fe1 3d3d 86d5 423c ac46 ec3d 4ef9 843c
00000140: 2938 50bd 8f45 653d 755c a03d 6de1 32bd
00000150: 8467 8b3b fe1f debc e09e ab3d ce35 0f3d
00000160: 594b 083e eb71 c03d 7c3b 22bd 5ab8 663d
00000170: 019e e43c d525 37be e9ac 7b3c 66ec 7ebc
00000180: 18c1 123e be0a 4e3d 1a23 463d 7cd0 97bd
00000190: 888c 57bd c71a 14be 6f87 e73d 5bba 82bc
000001a0: 8e64 fe3c a13c 8d3c 0638 ef3b 241f 703c
000001b0: 9331 b8bd 895c c03d 0d07 c5bc e760 b8bc
000001c0: ed68 453d 5dad 28be c434 a23c e2fe 72bd
000001d0: 8a50 3c3d a211 3ebe f36a 023b 66c0 0e3d
000001e0: a119 0bbe 7bbb 86bb 7b5f 86bd a3fc 383e
000001f0: f254 1d3e bf1b f53d cd74 1d3e d51e 333d
00000200: 71a7 323d ec1f 8c3d 7890 003d 9d18 ad3c
00000210: 5949 a93d 6cf8 ac3d 8956 713d f9d2 5fbd
00000220: a321 403d f418 733d db0b 1f3e 0ec1 d3bd
00000230: 9292 7b3c 1d31 f33b c5ab 0e3d 3d82 b2bd
00000240: f25a 92bd feeb 9abd e26f 28bd b124 443d
00000250: bd75 11be 51e1 dbbd 31d8 603d ace0 093c
00000260: d809 03bd dded b33b eb30 113e a2d0 a13d
00000270: 67e2 98bc 75b0 7b3e 8909 06be 8bc3 27be
00000280: dbb6 d2bd 50c0 82bd 50ea 16be f603 a13d
00000290: 1f39 2c3d 4c01 493c 5046 17bb a9ae ea3d
000002a0: 5a1b 36bb 3435 64bd df2b a73c 7fbf 723d
000002b0: 0c03 f13b 1097 c33d 23c9 3e3e 1fdd 0d3e
000002c0: 1413 613d 07b7 5abd 6961 2bbc 9828 5cbe
000002d0: 73a9 0d3d 7220 84bc 0bbb d23d f5dd ce3c
000002e0: ca74 d33d 8b25 05bc f6cb 18be 6a75 a03d
000002f0: e2a4 80bd a36d 003d eb28 cdbd 95d3 b2bd
00000300: 6425 403d 9563 c13d 57d1 6ebd 92e9 f03d
00000310: 4cb6 0c3c 4546 b63c 3594 1c3e 8e91 9cbd
00000320: 550a b03c 6b9c 083c f69a 263d a975 19bd
00000330: c8a4 8d3d b20a 953d 36a7 8c3c 4e31 f5bd
00000340: 3f97 8dbd 6400 96bd 2fac bf3b b401 523d
00000350: 3c84 353e 6fa6 b23d 1544 02bd 5768 333d
00000360: 3f23 303d b541 f6bd e260 f03d fa19 f13d
00000370: adbe 983c b981 f53d 27fd ebbd 07f9 8abd
00000380: 3497 b2bb 39cc afbd 7f18 2f3e fba5 c43b
00000390: bc2a 553d fc02 b93c e9b1 abbd 0e89 f9bd
000003a0: 538c 343e 1c03 48bc bad7 94bd 6e3b 853d
000003b0: 16a2 9a3c 57b2 983d 0c85 fdb8 98a8 023e
000003c0: b62b 09be ce58 a13c 29c8 e0bd d95b c9bc
000003d0: 9107 64bd 898b 23bd 0fb1 db3d 2caa a2bb
000003e0: 37fd ee3d 5aed 99bd 5d7c b7bd 8332 65bd
000003f0: 4b24 84bc 8e5f 67bd 75a3 413d 8fc4 ea3d
0.045791265 -0.086455844 -0.13912621 -0.038345665 -0.05783307 -0.008738044 0.007474276 -0.011392191
-0.08376496 0.10814687 0.016836952 0.09345944 -0.05813041 0.0024348167 -0.041744016 0.063461676
0.07441798 -0.039098386 0.02875178 -0.09935542 -0.14217249 0.055928566 -0.07699535 0.07986912
0.1104885 0.085863516 0.009255799 -0.16090767 0.01765762 -0.13665943 0.019231005 0.037347913
0.21425669 -0.03563488 0.015118508 -0.048752747 0.12434335 -0.119239576 -0.045998797 0.091759406
0.023993433 0.1115351 -0.057781316 -0.05758689 0.06849889 0.059844855 0.10057089 -0.15863869
-0.18607041 0.02363914 0.032278366 0.024447024 -0.088351406 -0.07497043 -0.049243867 -0.028604459
0.0552187 -0.09104672 0.13377038 0.17296188 0.06856042 -0.011537744 -0.043507222 -0.071971945
0.08955629 -0.03986982 0.081951514 0.07419533 0.09626027 -0.087979205 0.1099119 0.052947413
-0.0017940718 -0.062095635 -0.08240881 -0.013842457 0.046357688 0.011891728 0.11536917 0.016232159
-0.05083481 0.05597454 0.07830135 -0.043672014 0.0042542834 -0.027114864 0.083799124 0.03496342
0.13309993 0.09396728 -0.03960751 0.056328155 0.027907373 -0.17885526 0.015361049 -0.0155592915
0.14331472 0.050303213 0.04837332 -0.07412812 -0.052624255 -0.1446334 0.11305129 -0.015958002
0.031053808 0.017240824 0.0073003797 0.014655862 -0.089938305 0.0939265 -0.024051214 -0.022507144
0.04819577 -0.16472383 0.019800551 -0.059325106 0.045975246 -0.18561414 0.0019900172 0.034851454
-0.13583995 -0.004111705 -0.0656118 0.18065123 0.15364435 0.11968183 0.15376587 0.043730576
0.043616716 0.06842026 0.031387776 0.0211299 0.08265943 0.0844582 0.058920417 -0.05464456
0.04690708 0.05934997 0.15531866 -0.10339557 0.015354769 0.0074216262 0.03483178 -0.08716247
-0.07146253 -0.07564543 -0.041122325 0.047886554 -0.1420507 -0.10736335 0.054893676 0.008415382
-0.03199181 0.005491002 0.14178817 0.07901122 -0.018662645 0.24579032 -0.13089575 -0.16383187
-0.10288783 -0.06384337 -0.1473782 0.078620836 0.042046662 0.012268376 -0.002308268 0.11459095
-0.00277873 -0.0557148 0.020406662 0.059264656 0.0073550995 0.09550297 0.18631415 0.13853882
0.054949835 -0.053397205 -0.010460236 -0.2149986 0.034585427 -0.016128752 0.10289582 0.025252322
0.1032501 -0.008126627 -0.14921555 0.07834895 -0.06281449 0.031354558 -0.1001757 -0.08731762
0.04691066 0.09442822 -0.05830511 0.117633 0.008588385 0.022250304 0.15290911 -0.0764495
0.021489302 0.008338074 0.040675126 -0.037465725 0.06916195 0.072774306 0.017169576 -0.11972295
-0.069136135 -0.07324293 0.0058493833 0.051271155 0.17726225 0.08723151 -0.03180321 0.043800678
0.043002363 -0.12024251 0.11737229 0.11772533 0.018645609 0.11987633 -0.11522894 -0.067857794
-0.0054501537 -0.08583874 0.17099188 0.0060012317 0.052042708 0.02258443 -0.08383543 -0.12184344
0.17631654 -0.012207773 -0.07267709 0.06505476 0.018876117 0.074558906 -0.00012088762 0.12759626
-0.1339558 0.019695666 -0.109756775 -0.02457993 -0.05567128 -0.039927993 0.107271306 -0.0049641337
0.11669391 -0.07515974 -0.08959267 -0.055956375 -0.016130587 -0.056487612 0.047275025 0.11463272

blocks.0.sa.heads.0.query.weight f4 [16, 64]
00000000: de35 61bd c66d b8bd 7891 e43a 54b3 dabd
00000010: d97f ff3d da2a 1d3d 393e cc3d 4c8e e73d
00000020: 3d33 9bbd aca2 9e3b 3515 bdbd 3bad d03b
00000030: 12e2 0fbd 3920 b7bc d191 523d 2b97 293a
00000040: 7bfe a73c 25bc 653c 31fb 4cbd 0e7d a53d
00000050: c1ed cc3d 40cb b63d b995 a3bc b49a 9fbd
00000060: 35d0 2abd 4898 7e3d 41ea 16be 8ca9 bcbd
00000070: a65b 8a3d ba12 9f3d ea46 023e 430d 42be
00000080: 1929 c7bb a48d d53d 2001 d8bd fb86 bebc
00000090: ed85 fc3a 44da 8abd 612d 0b3e a1b4 e5bd
000000a0: 7b8e ea3b 88a7 61bd a6ef b13d 8da7 1a3c
000000b0: 4aa2 bd3c 848d e33c 1cef 74ba 3856 653c
000000c0: cc5f 33bd 524c 86bd 7f40 703c 18ac f03b
000000d0: 4ef4 7fbd 2032 353d 4da1 e83d 4b33 afbd
000000e0: cef2 aebc e85e 323e cb24 33be 2361 6abd
000000f0: 4517 4b3d 76e6 c4bc d554 983d 6a7f 0fbe
00000100: d3dc 833d e379 5dbd 006f b1bd 730d 3dbd
00000110: b814 cf3d 5419 97bd 0298 21bd 3357 85bd
00000120: ba5a a5bd d8d5 943d e821 6bbd 2860 043e
00000130: 1708 72bd 0610 38be 6da1 183e 73ca 85bd
00000140: e1a1 b2bd f1d9 743c 1d70 883d 4e44 9b3d
00000150: 8968 1f3e 99d7 193e 3370 273d 68a0 6cbd
00000160: 19e1 cf3c 63b7 9c3d 4164 30bd 1484 12be
00000170: c3d4 233e c4d4 0cbd 47fe c63d 24ca 0f3e
00000180: 2041 123e 41bd 393d f7e6 283d d62e fcbc
00000190: 8ca6 ae3d 2d9e 6c3d b6ed 993d 47e3 a63d
000001a0: 9145 a4bb 5e98 383c a909 703b cb3f 973c
000001b0: ca30 563d ae62 693d 7fd3 983d bb81 ca3c
000001c0: 9728 0bbd 4d6c 9f3d f708 003c 8069 20bc
000001d0: 2129 17be f9c8 d73c f769 413d 7bb3 12bc
000001e0: 6abb b03c a42b 0a3e 5c39 aa3d 7aa4 313d
000001f0: 99ab 553d d341 a93d 669a 15bd ad52 9c3c
00000200: f797 82bd 801a 523d 217f 833c 1afb 49bc
00000210: 6c36 7cbd aa91 433d 0b44 683d addb a5bd
00000220: f742 b6bc d586 90bd 26c8 213e 479e cabc
00000230: 04d8 e8bc 816f 5dbd 3688 cbbd 0730 8cbd
00000240: 85fe babd 142b afbd a678 933d 5142 713d
00000250: c117 16be f6d7 9cbd 716e 163e 8051 bc3d
00000260: a190 ddbd cd50 363d 45b8 273d 8a9c 6d3e
00000270: 460f 95bd f193 a4bb 5ea8 503c e92e 0ebe
00000280: 007b a33b 862b ce3d 7a34 41bd a647 2f3c
00000290: 677d 6cbd e4b4 f3bc ff16 b3bd ee94 413d
000002a0: 9181 ebbd d0ad 29be cd1b 643d 4e5a c73d
000002b0: 0d8f 6c3c 5b37 9f3c f78b c4bd f0d4 243e
000002c0: c0a6 773d fa14 5c3d e3e4 7f3c 429a f2bd
000002d0: b700 5f3d c95e 15bd 347b 823d a985 8f3d
000002e0: 4db4 7f3d e747 9bbd 0cf2 fa3d f43c 43bd
000002f0: e5f5 eebd 62f0 1abd c103 b6bd 59ae 93bd
00000300: 78e0 753c 0451 58bc 78ff d93d 1a86 bb3d
00000310: ef02 18be b0b4 1fbd 0f81 f53d 6a2f df3a
00000320: 7bcd 44bd bb02 463d edb0 ea3a 2e4b 12bd
00000330: 2062 66bd 5294 6fbd 08e6 9f3d d216 0b3e
00000340: 9ada 39be 7908 9bbd 1211 6b3d 8e0d 413d
00000350: 86ed 11be 3e2a 2abe 26f1 ffbd 22e6 893d
00000360: 2697 a4bd a796 bd3d 60db 70bd 9203 283e
00000370: a00e 17bc 3521 033e fd13 9bbd ece0 e23c
00000380: 45b2 f43d 90e8 95bd 1265 4d3b d95d f4bd
00000390: 1b91 eebd 0ec2 fc3b acdc 863c f069 7a3d
000003a0: 0bf7 cdbd 0634 febd c5b6 19bd 7bd9 1f3e
000003b0: 32a9 123e 5d99 5a3d 45ae b9bd d981 94bd
000003c0: 7f12 863d 160e 85bd 3e22 acbd 2e1a 2a3d
000003d0: 7ef6 363e 4d32 e73c 179c c13d fde9 c73d
000003e0: 547b af3d 5173 fdbd fcb5 c33d 4620 8fbd
000003f0: 2511 443d 7932 acbd a5e6 09be 943c 713d
-0.054983012 -0.090053126 0.0017438373 -0.106787354 0.12475557 0.038370945 0.099728055 0.11306438
-0.07578132 0.0048411693 -0.092325605 0.006368307 -0.035127707 -0.022354232 0.051408593 0.0006469364
0.020507088 0.014021908 -0.050044242 0.08080493 0.100062855 0.089254856 -0.019968854 -0.07793179
-0.041702468 0.062156945 -0.14737798 -0.09212026 0.06755762 0.07767244 0.12722364 -0.18950371
-0.0060778973 0.104274064 -0.105470896 -0.023257723 0.0019265987 -0.06779912 0.1359153 -0.11216093
0.0071580983 -0.05509141 0.086882874 0.009439361 0.023148675 0.02777744 -0.00093434914 0.013997607
-0.04379253 -0.06557526 0.014663815 0.007344734 -0.062488846 0.044237256 0.11358891 -0.08554705
-0.021356013 0.17419016 -0.17494504 -0.057221543 0.04958274 -0.024035674 0.074380554 -0.14013448
0.06438603 -0.05407132 -0.0866375 -0.046155404 0.10111374 -0.07377878 -0.039451607 -0.065107726
-0.08073945 0.0726735 -0.057405382 0.12927306 -0.059089746 -0.17974862 0.14905329 -0.06532755
-0.08722282 0.014944539 0.06662009 0.075813875 0.15567221 0.1502365 0.040878486 -0.057770163
0.02537589 0.07652166 -0.04306436 -0.14308196 0.15999131 -0.034382597 0.09716468 0.14041954
0.14282656 0.045346502 0.04123589 -0.030784052 0.0852786 0.057768036 0.07516043 0.081488185
-0.005013176 0.011266796 0.0036626852 0.018463036 0.052292623 0.056978874 0.07462215 0.024720063
-0.033974256 0.077843286 0.007814637 -0.009790778 -0.14761783 0.026340948 0.047220197 -0.008953924
0.021573741 0.1349321 0.08311722 0.043369748 0.0521656 0.08264508 -0.0365242 0.019082392
-0.06376641 0.051294804 0.01605183 -0.012327934 -0.06157534 0.047746338 0.056705516 -0.080985405
-0.022248728 -0.07056967 0.15799007 -0.024733676 -0.028423317 -0.054061417 -0.099380895 -0.06845098
-0.09130577 -0.085531384 0.07200746 0.058901135 -0.14657499 -0.07658379 0.14690568 0.091952324
-0.108186014 0.04451065 0.040947217 0.23204246 -0.07278304 -0.005022519 0.012735454 -0.13885082
0.004989028 0.10066895 -0.047169186 0.010698235 -0.05773678 -0.029749341 -0.087446205 0.04726117
-0.11499322 -0.1657021 0.055690575 0.09734021 0.014438403 0.019435575 -0.09597009 0.16096854
0.06046176 0.053730942 0.015618536 -0.118458286 0.05444404 -0.036467347 0.063711554 0.070079155
0.062427808 -0.07582074 0.12253198 -0.04766555 -0.116679944 -0.037826903 -0.08887435 -0.072109886
0.015007131 -0.013202909 0.1064443 0.09156437 -0.14844869 -0.038990676 0.119875066 0.001702768
-0.048047524 0.048342448 0.0017905511 -0.03571623 -0.056245923 -0.05849106 0.07807547 0.13582924
-0.18149796 -0.075699754 0.057389326 0.047132067 -0.14250764 -0.16617677 -0.12497167 0.067333475
-0.08036642 0.0925725 -0.058802962 0.16407612 -0.009219795 0.12805636 -0.07572172 0.027695142
0.11948065 -0.073197484 0.003134076 -0.119319625 -0.116487704 0.007713563 0.016462646 0.061136186
-0.10056885 -0.124122664 -0.03752782 0.15610306 0.14322355 0.053368915 -0.090664424 -0.07251329
0.065464966 -0.06496827 -0.08404969 0.041528873 0.17867467 0.028222227 0.094536 0.097614266
0.08568445 -0.123755105 0.09556195 -0.069885775 0.047867913 -0.084080644 -0.1346689 0.058895662

blocks.0.sa.heads.0.value.weight f4 [16, 64]
00000000: 140f 573c e2f3 de3d 2d9e a63c 0d51 a33d
00000010: b42a e5bd d8c1 fd3b a08f 6abc 5dbb e03d
00000020: 1340 a3bd c17a d23c 3f10 87bd 5806 41bd
00000030: b2d8 16be 75b9 b43d 7595 aa3d dfb5 a23d
00000040: 8ca0 a03d 0d13 003e 76d4 63bd 0129 57bd
00000050: ecb4 473d 3cb7 95bd 73b9 e63d 7e74 be3d
00000060: 8dd0 7bbd f4df 8ebd 6312 1b3e 19ac 033d
00000070: 9448 6ebc 0883 39bd 9fe4 cfbc b449 3e3e
00000080: 1f8f a2bc 5124 b6bd dbf9 dd3d 1497 953d
00000090: 6812 7dbc 385c 503d 0c26 573e a389 853d
000000a0: 2938 e83c 5cb9 323d c195 08be f1a3 b9bd
000000b0: 234f aa3d 0309 ecbd 9740 803d 88aa 783d
000000c0: c971 82bd 526d fbbd 8a3f 2ebe 9a99 e93d
000000d0: 25d1 c03d 8361 bd3b ba7d 4dbe 4c25 803d
000000e0: dc9f a73c 6546 bb3c 07a3 29bd 6714 ca3c
000000f0: 293b 703d 19c4 1c3d 75c1 2d3e b5ac f1bd
00000100: 7703 62bc 9ac4 903d 78ea 833d 0962 393e
00000110: 7d58 713e a423 19be d97d 533e 916f 893d
00000120: 3cd9 bf3d a5ac d0bd b27c 333e 4892 583e
00000130: 9c9e 31bd 8c64 2bbe 622d 0abe 0403 af3d
00000140: 5cea 32be eb32 e23b 8097 6d3d 8acb 293e
00000150: 6dc5 48bc 68f1 19be 27d9 363e 598b 4b3d
00000160: 808d 34bd dc16 7d3d e9a8 183e 6caf d93d
00000170: ca06 8ebc dd53 193c 0652 f4bc ef34 e1bd
00000180: a604 24bd b00a 99bc 9304 57be e0f9 d5bd
00000190: eccb 3dbe 2164 2a3e a549 83be 2a54 0bbe
000001a0: afef c43d da2f 4a3e 93ac 56be 1089 113e
000001b0: 5f7e a8bd 1ae8 fd3c fd9d 763e a36c e1bd
000001c0: 7454 8c3d 40e8 e93d 774c a13d 2f41 16be
000001d0: 40da e03d a69d a33d f7ec c13c dab8 86be
000001e0: 61c9 b43d 2496 3f3e e33f 2dbe 700c 273d
000001f0: d198 95bd c186 903d 2bc6 df3d a5f0 953c
00000200: c0ef 1b3e fe00 15bd c3d9 83bd 6021 553d
00000210: 1873 7d3d 6820 153e 2b99 f93b 8fd0 50bc
00000220: 989d 433e a117 01be db4b 0c3e c21a 3e3c
00000230: f122 62bd 0969 abbd 2e24 23bd 02ad 6bbd
00000240: 71b9 cbbd 15e4 e7bd 54d8 813b 4ebf 38bd
00000250: 7a25 e0bc 3d3a 6dbd 8ea5 a2bd b00f b2bd
00000260: c6ea 2ebd 256e 07be f89d 84bb 65fc b03d
00000270: 0af0 7d3d f6cc d03c 24e8 3fbe 6c79 41be
00000280: eacd 3dbd f6ca ddbc 90b2 19bd bd40 b93c
00000290: 3152 c2bd d806 12be f02e 733d 8459 093e
000002a0: c81f 3b3e 0af1 adbc 158d 063e cba8 d33d
000002b0: f5f0 6dbd a348 233e edb9 34be a3fb c13c
000002c0: e32d 4a3e 556d 303e a80b 483d 590f 41be
000002d0: 6fed de3c 9015 28be 2fcb 3f3d 3d50 3c3d
000002e0: a90c de3d 1f96 52bd de5e 82bd 1571 87bd
000002f0: 98b9 893c af3d ddbd 820a 5ebe c1e7 c03c
00000300: c475 953d a17a 14be 3c2d 93bc c485 da3d
00000310: 2ed3 9cbd a95f 403e 199b dd3a ef6b a93c
00000320: 7eb8 18bd 3c9b 57be 6edd 25bd e226 0b3e
00000330: 4348 b73c f65b 55be 9f31 ba3d 231f 593e
00000340: fc37 dabd 611f 213d 1563 f7bd e74a 2e3e
00000350: 9311 f43d 493b b03c f99d 82bd af2f 113e
00000360: c07e a83d 5a6c a73d fd73 77bd d61c 4c3d
00000370: 255c 38bd 72b7 b93d 1c47 d73d 84cb 083e
00000380: ac1a 993d e2a4 31bc 7066 453d 4e09 a1bc
00000390: 1291 51bd e94c cc3d 99be f8bd 4578 9abd
000003a0: 26a0 c5bd d085 143e 6ee7 b13d 3831 4bbc
000003b0: a575 cfbc fd05 01be 46cd b03d 6a25 863d
000003c0: e2e5 9abd bfa5 c23d 4acc 2c3e a733 fdbd
000003d0: 640a f0bd 5db7 59bd 6697 c9bd 5a24 55be
000003e0: 0574 9ebc 04cd 19bd dea6 853c 75fe 913d
000003f0: 5136 0abe 6d81 50bd 0f31 0abd 758f d3bd
0.0131261535 0.10886361 0.020339096 0.079744436 -0.111897856 0.0077440552 -0.014316469 0.10973237
-0.079712056 0.0256933 -0.065948956 -0.04712519 -0.147311 0.088244356 0.08329288 0.079448454
0.07843122 0.12507267 -0.05562254 -0.05252934 0.048756525 -0.0731034 0.112658404 0.09299563
-0.061478186 -0.069763094 0.15143733 0.032146547 -0.014543671 -0.045290977 -0.02537757 0.18582803
-0.019843636 -0.088936456 0.10838672 0.073042065 -0.015446283 0.050869197 0.21010607 0.06520393
0.028347092 0.043633804 -0.13338377 -0.090644725 0.083158754 -0.11525156 0.062623195 0.060709506
-0.06369359 -0.122767106 -0.17016426 0.1140625 0.09414891 0.0057794466 -0.20067492 0.06257114
0.02046197 0.022860715 -0.04141524 0.024667932 0.05865017 0.03827295 0.16968329 -0.118005194
-0.013794771 0.07068749 0.06441206 0.18103804 0.23568912 -0.14955002 0.20653476 0.06710733
0.09367606 -0.10189179 0.17528036 0.21149552 -0.043364152 -0.16737574 -0.13493875 0.08545497
-0.17472214 0.0069030426 0.05800581 0.1658155 -0.012254101 -0.15033495 0.17856275 0.04969344
-0.044080257 0.06178938 0.14908184 0.10629162 -0.017337222 0.0093583735 -0.029824268 -0.109964244
-0.040043496 -0.018681854 -0.20997839 -0.104480505 -0.18534821 0.16639759 -0.25642124 -0.13606325
0.096160285 0.19744816 -0.2096427 0.14212441 -0.082272284 0.030994464 0.24083705 -0.11007049
0.06852046 0.11421251 0.07875913 -0.14673303 0.10979128 0.079890534 0.023672564 -0.26312906
0.088274725 0.18709618 -0.16918902 0.040783346 -0.07304538 0.07056952 0.109264694 0.018303225
0.15228176 -0.0363779 -0.06438019 0.052033782 0.06187734 0.14563143 0.007617136 -0.012745037
0.19103086 -0.1260667 0.13700812 0.011603059 -0.055209104 -0.08369643 -0.039829426 -0.05753804
-0.099474795 -0.113228 0.003962556 -0.045104317 -0.02736162 -0.05791687 -0.07941733 -0.086943984
-0.042704366 -0.1322561 -0.0040471517 0.086418904 0.061996497 0.025488358 -0.18740898 -0.18893975
-0.046338953 -0.027074318 -0.037523806 0.022613877 -0.09488333 -0.14260423 0.059370935 0.13413054
0.18273842 -0.0212331 0.13139756 0.10334929 -0.058091123 0.15945677 -0.1764905 0.02367956
0.19744067 0.17229207 0.04883924 -0.18853511 0.027212827 -0.16414475 0.04682463 0.04597496
0.108422585 -0.051412698 -0.06365751 -0.066133656 0.01681213 -0.10802781 -0.21683696 0.023548009
0.07297853 -0.14499904 -0.017965905 0.10670045 -0.07657467 0.18786491 0.0016907185 0.02068135
-0.03728532 -0.21055311 -0.040494375 0.13589051 0.022373324 -0.20835862 0.09091496 0.21203284
-0.106552094 0.039336566 -0.12079445 0.1702076 0.119174145 0.021512644 -0.06377787 0.14178346
0.08227301 0.08174963 -0.06041335 0.049832188 -0.04500975 0.090681925 0.1051161 0.13358885
0.074757904 -0.010842534 0.048193395 -0.019657757 -0.05116374 0.09975607 -0.121457286 -0.07542471
-0.096496865 0.1450417 0.0868672 -0.012401871 -0.025324652 -0.1259994 0.08632903 0.06550105
-0.07563378 0.0950427 0.16874805 -0.123633675 -0.11720732 -0.053153384 -0.0984333 -0.20814648
-0.019342432 -0.037549034 0.01631492 0.07128612 -0.13497283 -0.05090468 -0.033738192 -0.10330097

blocks.0.sa.heads.1.tril f4 [32, 32]
00000000: 0000 803f 0000 0000 0000 0000 0000 0000
00000010: 0000 0000 0000 0000 0000 0000 0000 0000
00000020: 0000 0000 0000 0000 0000 0000 0000 0000
00000030: 0000 0000 0000 0000 0000 0000 0000 0000
00000040: 0000 0000 0000 0000 0000 0000 0000 0000
00000050: 0000 0000 0000 0000 0000 0000 0000 0000
00000060: 0000 0000 0000 0000 0000 0000 0000 0000
00000070: 0000 0000 0000 0000 0000 0000 0000 0000
00000080: 0000 803f 0000 803f 0000 0000 0000 0000
00000090: 0000 0000 0000 0000 0000 0000 0000 0000
000000a0: 0000 0000 0000 0000 0000 0000 0000 0000
000000b0: 0000 0000 0000 0000 0000 0000 0000 0000
000000c0: 0000 0000 0000 0000 0000 0000 0000 0000
000000d0: 0000 0000 0000 0000 0000 0000 0000 0000
000000e0: 0000 0000 0000 0000 0000 0000 0000 0000
000000f0: 0000 0000 0000 0000 0000 0000 0000 0000
00000100: 0000 803f 0000 803f 0000 803f 0000 0000
00000110: 0000 0000 0000 0000 0000 0000 0000 0000
00000120: 0000 0000 0000 0000 0000 0000 0000 0000
00000130: 0000 0000 0000 0000 0000 0000 0000 0000
00000140: 0000 0000 0000 0000 0000 0000 0000 0000
00000150: 0000 0000 0000 0000 0000 0000 0000 0000
00000160: 0000 0000 0000 0000 0000 0000 0000 0000
00000170: 0000 0000 0000 0000 0000 0000 0000 0000
00000180: 0000 803f 0000 803f 0000 803f 0000 803f
00000190: 0000 0000 0000 0000 0000 0000 0000 0000
000001a0: 0000 0000 0000 0000 0000 0000 0000 0000
000001b0: 0000 0000 0000 0000 0000 0000 0000 0000
000001c0: 0000 0000 0000 0000 0000 0000 0000 0000
000001d0: 0000 0000 0000 0000 0000 0000 0000 0000
000001e0: 0000 0000 0000 0000 0000 0000 0000 0000
000001f0: 0000 0000 0000 0000 0000 0000 0000 0000
00000200: 0000 803f 0000 803f 0000 803f 0000 803f
00000210: 0000 803f 0000 0000 0000 0000 0000 0000
00000220: 0000 0000 0000 0000 0000 0000 0000 0000
00000230: 0000 0000 0000 0000 0000 0000 0000 0000
00000240: 0000 0000 0000 0000 0000 0000 0000 0000
00000250: 0000 0000 0000 0000 0000 0000 0000 0000
00000260: 0000 0000 0000 0000 0000 0000 0000 0000
00000270: 0000 0000 0000 0000 0000 0000 0000 0000
00000280: 0000 803f 0000 803f 0000 803f 0000 803f
00000290: 0000 803f 0000 803f 0000 0000 0000 0000
000002a0: 0000 0000 0000 0000 0000 0000 0000 0000
000002b0: 0000 0000 0000 0000 0000 0000 0000 0000
000002c0: 0000 0000 0000 0000 0000 0000 0000 0000
000002d0: 0000 0000 0000 0000 0000 0000 0000 0000
000002e0: 0000 0000 0000 0000 0000 0000 0000 0000
000002f0: 0000 0000 0000 0000 0000 0000 0000 0000
00000300: 0000 803f 0000 803f 0000 803f 0000 803f
00000310: 0000 803f 0000 803f 0000 803f 0000 0000
00000320: 0000 0000 0000 0000 0000 0000 0000 0000
00000330: 0000 0000 0000 0000 0000 0000 0000 0000
00000340: 0000 0000 0000 0000 0000 0000 0000 0000
00000350: 0000 0000 0000 0000 0000 0000 0000 0000
00000360: 0000 0000 0000 0000 0000 0000 0000 0000
00000370: 0000 0000 0000 0000 0000 0000 0000 0000
00000380: 0000 803f 0000 803f 0000 803f 0000 803f
00000390: 0000 803f 0000 803f 0000 803f 0000 803f
000003a0: 0000 0000 0000 0000 0000 0000 0000 0000
000003b0: 0000 0000 0000 0000 0000 0000 0000 0000
000003c0: 0000 0000 0000 0000 0000 0000 0000 0000
000003d0: 0000 0000 0000 0000 0000 0000 0000 0000
000003e0: 0000 0000 0000 0000 0000 0000 0000 0000
000003f0: 0000 0000 0000 0000 0000 0000 0000 0000
1.0 0.0 0.0 0.0 0.0 0.0 0.0 0.0
0.0 0.0 0.0 0.0 0.0 0.0 0.0 0.0
0.0 0.0 0.0 0.0 0.0 0.0 0.0 0.0
0.0 0.0 0.0 0.0 0.0 0.0 0.0 0.0
1.0 1.0 0.0 0.0 0.0 0.0 0.0 0.0
0.0 0.0 0.0 0.0 0.0 0.0 0.0 0.0
0.0 0.0 0.0 0.0 0.0 0.0 0.0 0.0
0.0 0.0 0.0 0.0 0.0 0.0 0.0 0.0
1.0 1.0 1.0 0.0 0.0 0.0 0.0 0.0
0.0 0.0 0.0 0.0 0.0 0.0 0.0 0.0
0.0 0.0 0.0 0.0 0.0 0.0 0.0 0.0
0.0 0.0 0.0 0.0 0.0 0.0 0.0 0.0
1.0 1.0 1.0 1.0 0.0 0.0 0.0 0.0
0.0 0.0 0.0 0.0 0.0 0.0 0.0 0.0
0.0 0.0 0.0 0.0 0.0 0.0 0.0 0.0
0.0 0.0 0.0 0.0 0.0 0.0 0.0 0.0
1.0 1.0 1.0 1.0 1.0 0.0 0.0 0.0
0.0 0.0 0.0 0.0 0.0 0.0 0.0 0.0
0.0 0.0 0.0 0.0 0.0 0.0 0.0 0.0
0.0 0.0 0.0 0.0 0.0 0.0 0.0 0.0
1.0 1.0 1.0 1.0 1.0 1.0 0.0 0.0
0.0 0.0 0.0 0.0 0.0 0.0 0.0 0.0
0.0 0.0 0.0 0.0 0.0 0.0 0.0 0.0
0.0 0.0 0.0 0.0 0.0 0.0 0.0 0.0
1.0 1.0 1.0 1.0 1.0 1.0 1.0 0.0
0.0 0.0 0.0 0.0 0.0 0.0 0.0 0.0
0.0 0.0 0.0 0.0 0.0 0.0 0.0 0.0
0.0 0.0 0.0 0.0 0.0 0.0 0.0 0.0
1.0 1.0 1.0 1.0 1.0 1.0 1.0 1.0
0.0 0.0 0.0 0.0 0.0 0.0 0.0 0.0
0.0 0.0 0.0 0.0 0.0 0.0 0.0 0.0
0.0 0.0 0.0 0.0 0.0 0.0 0.0 0.0

blocks.0.sa.heads.1.key.weight f4 [16, 64]
00000000: 5bc6 f7bc 3688 d0bd 7a14 d5bc d379 9e3d
00000010: 746c 3abd a462 04be b7c4 9abc 1129 7ebd
00000020: 1887 883d 48eb 1b3d 5864 373d 766f c93a
00000030: 5994 373d d3be 1cbe 85e0 773d 98b5 963d
00000040: 7c2e 303d a86a db3c 2e7f 97bd 2fa3 79ba
00000050: d0f1 683e 5740 37bb 7d41 02be 4a56 7fbd
00000060: c1f0 efbd bc3e a33d 95b9 863d e801 a2bd
00000070: a11b 8d3d 89cb 7e3c d97b a4bc 0771 9ebd
00000080: 32ad c73b 2351 1fbd b637 f7bd c2ae 1e3e
00000090: 3e01 eebd 3fd3 7c3c 8367 043e b086 51bd
000000a0: cbf8 4abe 9984 9ebd 167b 0e3e 7586 dbbd
000000b0: a4c2 47bc c165 723d 1021 23be 8f1e 4c3b
000000c0: 0020 383e 1c7e 083d 82ea 883d 02ef 2bbe
000000d0: c098 ac3d c88d 873d b75d 0dbd 6f6f f33d
000000e0: cfab a9bd 16e7 75bd 3afd 093d 3d86 2a3d
000000f0: 0b31 acbd a6aa a23d 8894 72bd fddb a8bd
00000100: ca19 083d e349 aebd 22c2 6dbd 2cd7 65be
00000110: 17f1 8c3d c61f 5b3d fc9f fa3d 3837 c23d
00000120: 2dde 293d febb f73d b259 edbd 4458 7cbd
00000130: cf00 b8bc ee8d 873d dd2a d13d 648e 413e
00000140: 60d5 e43d 2244 18be 8b0b 383d a34f 5ebb
00000150: 42de 40be ee2c de3c 4238 2c3e 7197 0ebe
00000160: 9c1e 99bd e36c 5abc 62c2 b63d 7f63 19bd
00000170: 260e 98bd ab1a 0ebd d2f3 6dbc cc07 2d3e
00000180: ff17 163e da6f 673d 2ddc e8bc 1b87 623d
00000190: e439 273e 6117 323d de48 453e 28e6 a1bd
000001a0: 81e9 bdbd 7cec 7cbd 8b5a 10be e9b6 8e3d
000001b0: b08c eebd 736d 1fbe 06dd 093e 13a3 e73c
000001c0: d394 2a3d a141 cf3d 703e e43b 51d6 2cbc
000001d0: 0ffb 6cbd 14f6 b43c 41db 60be e2df ea3c
000001e0: 55ca 78bd 31c1 c03d bcc4 b63d 8b82 463c
000001f0: 590e 91bc 5d8c cebc 317b 51bd 55b8 91bc
00000200: 3b15 ef3c 00bb e53d c117 6d3e 8372 3b3e
00000210: 19da a8bd 1792 14be 3de8 6fbb 6123 23bd
00000220: d4bb 1abd d4d8 9d3c 0ebd 153e 21b8 9b3d
00000230: 200f 213d be5a ddbb 185f 4b3d 706d 2fbe
00000240: 37b4 08be 032a d83e 0ace 843d 49c4 d63d
00000250: 91e2 0d3e 218b 2a3d 8c15 1fbe 2397 233c
00000260: 9c33 23bb 2ce5 5c3d a1f1 0e3e 158d 863c
00000270: 352a fbbb d0d4 b8bd 5e21 93bd 406f 133d
00000280: 2d7f 34be 0f6c a3bd 4e6b c63d 6440 a03c
00000290: aff8 873c 0b68 ddbd 2a7d 823d ec02 bebd
000002a0: 07bf 3d3e b246 0f3e 2d11 fa3d 4fbd 893d
000002b0: 94b0 2f3e 86d0 da3c 4c7d d03d c285 32bd
000002c0: 01aa 35bd 88f0 5ebd abff 293d 1d69 803d
000002d0: 69b3 c3bd 212b 6a3d d969 013e c492 fc3c
000002e0: 1845 2fbc 4e9b 90bc 25d9 b6be d0b0 c0bd
000002f0: cffd 89bd 0a05 a6be b91b 0d3e fda2 91bd
00000300: 6efe 81bd 72ce 973c 1ec6 e53d b471 cb3d
00000310: 6420 c4bd b171 2b3d 96e5 34bd 2814 4dbd
00000320: c31e 18be f715 253d 1ecf 7dbe 8329 d13c
00000330: f7dd 4cbd 4493 093e a073 c23d c018 a53d
00000340: 8b53 4c3e 3e00 29be d236 b63c 57ac febd
00000350: 5e80 593d 05fa 9dbd 15c0 b2bd 3c72 953d
00000360: dfe7 5f3c dd7a 7e3d 9a02 d0bc 6d07 733d
00000370: 2bd1 7bbd a6d4 fe3d 2d43 60bc 01a1 343e
00000380: 24f1 433d 0ca5 553d 079b 40bd 4135 9a3d
00000390: a61a 0cbd 38d8 443c 2383 e73c fe30 383d
000003a0: 6886 d1bd f32f 1dbe 6a98 4ebd c129 e9bb
000003b0: d399 fc3d d3b3 2dbd 332f 293e 1283 1cbd
000003c0: d05f 16bc 243d f7bc 0e3f 9fba b2b0 133d
000003d0: fff4 b83d 3867 843d 6251 5e3d 6a86 1aba
000003e0: 4b47 16be ff04 913d d0fc 293e 7d47 98bd
000003f0: 28b3 4dbd b2cb 62bd 2d85 33bd f489 3b3d
-0.03024595 -0.1018223 -0.02601074 0.0773808 -0.045513585 -0.12928253 -0.01889263 -0.062050883
0.06666392 0.03806618 0.04477343 0.0015368301 0.04481921 -0.15307169 0.060516853 0.07358855
0.04301308 0.026784256 -0.073973045 -0.00095229124 0.22748494 -0.0027961934 -0.12720294 -0.06233815
-0.11715842 0.0797095 0.06578366 -0.0791052 0.068900354 0.015551456 -0.020078586 -0.07736402
0.0060936445 -0.038895737 -0.12071173 0.15496352 -0.11621331 0.015431224 0.12930112 -0.05115384
-0.1982147 -0.07740135 0.13914141 -0.10719005 -0.012192402 0.05917907 -0.15930581 0.0031146144
0.17980957 0.033323392 0.06685354 -0.16790393 0.08427572 0.066188395 -0.0345132 0.11886489
-0.08284723 -0.060034834 0.03368876 0.041631926 -0.08407792 0.07942705 -0.05922368 -0.082450844
0.03322772 -0.085101865 -0.058046468 -0.22445363 0.06881922 0.0534971 0.12237546 0.094831884
0.04147165 0.120964035 -0.11589374 -0.061607614 -0.022461323 0.06618868 0.10213254 0.18901974
0.111735106 -0.1486974 0.044932883 -0.003392198 -0.18834785 0.027121034 0.16818336 -0.13924958
-0.074765414 -0.013331625 0.08923794 -0.037448402 -0.074245736 -0.0346934 -0.014523463 0.16897506
0.14657591 0.056503154 -0.0284253 0.055304628 0.16330677 0.043479327 0.19266078 -0.07905227
-0.09273053 -0.061748967 -0.1409704 0.06968481 -0.11647928 -0.15569095 0.1346322 0.028276002
0.041645836 0.101199396 0.006965451 -0.010549144 -0.057856616 0.022089995 -0.21958639 0.028671209
-0.060739834 0.09411848 0.08924243 0.012116085 -0.017707037 -0.025213415 -0.051142875 -0.017788092
0.029184928 0.11217308 0.23153593 0.18305402 -0.08244724 -0.14508854 -0.003660693 -0.03982866
-0.037776783 0.01926843 0.146229 0.07603479 0.039321065 -0.006755202 0.049651235 -0.17131591
-0.13349997 0.42219552 0.06484611 0.10486657 0.1385596 0.04163659 -0.15535563 0.009984764
-0.0024902588 0.053929493 0.13959362 0.016424695 -0.0076649436 -0.09024966 -0.07184099 0.03599477
-0.17626639 -0.07979595 0.096884355 0.019561954 0.016598074 -0.1081086 0.063715294 -0.09277901
0.18529902 0.13991812 0.12210307 0.06725561 0.17157203 0.02671076 0.101801485 -0.043584593
-0.04435158 -0.054428607 0.04150359 0.06270049 -0.09555704 0.057170037 0.12638034 0.030831702
-0.010697626 -0.01765218 -0.35712543 -0.09408724 -0.06737863 -0.3242572 0.13780107 -0.07111166
-0.06347357 0.018531058 0.112194285 0.099337965 -0.095764905 0.04185647 -0.044164263 -0.05006805
-0.14855485 0.04030415 -0.2478604 0.02553249 -0.05001637 0.13435084 0.0949471 0.08061361
0.19953744 -0.16503999 0.022242937 -0.12435215 0.053100936 -0.07713703 -0.08728043 0.07297179
0.013666122 0.06212889 -0.025391866 0.059333254 -0.061478775 0.12442903 -0.013687891 0.17639543
0.04783739 0.052159354 -0.047022846 0.075296886 -0.0342051 0.012014441 0.028260773 0.044968598
-0.10230714 -0.15350322 -0.050438322 -0.007115573 0.12334027 -0.042407822 0.16521911 -0.038210936
-0.009178117 -0.030180521 -0.0012149529 0.03605718 0.09031104 0.06465 0.05427683 -0.0005894663
-0.14675634 0.07081031 0.16600347 -0.0743551 -0.050219685 -0.05537004 -0.04382818 0.04578586
