LanguageModels/model3/model.pth (torch, 936562 bytes, 110 tensors)

token_embedding_table.weight f4 [65, 64]
000000 ab dc b9 bf d1 f2 a9 3f 55 09 90 3f 2f fe 19 bf
       -1.4520468 1.3277227 1.1252848 -0.6015348
000010 40 b2 8f bf 9a 13 e9 bf e2 75 88 bf 9e f9 80 3f
       -1.1226273 -1.8209107 -1.0660975 1.0076177
000020 bd 47 3d 3e 22 38 86 bf c2 76 91 3f e0 f4 b7 bf
       0.18484397 -1.048588 1.1364367 -1.4371605
000030 60 de d6 3e dc 22 a5 bd e8 a0 8d bf 0b 04 ed bf
       0.41966534 -0.080632895 -1.106473 -1.8516859
000040 c4 cc 0c be da 2a 22 3f e3 9c 3b bf 9b a0 fa 3c
       -0.13749987 0.63346636 -0.73286265 0.03059416
000050 bf bc 64 bf e8 3d 56 3e 26 b9 bc be 45 59 b6 3e
       -0.89350504 0.20922053 -0.36860007 0.35614982
000060 dd b7 00 3f 2d 0b a9 3f e0 45 c4 3f 95 81 b7 be
       0.50280553 1.3206536 1.5333824 -0.3584105
000070 36 99 ed bf 5d 6b c6 3f c4 2a 84 3e 6c 50 20 bd
       -1.8562381 1.5501515 0.25813878 -0.039139196
000080 55 fb 63 3e e6 d3 81 be 1d ee c0 3f 62 8b 6e bf
       0.22263844 -0.25356978 1.5072666 -0.9318143
000090 d2 ff 8e be 47 31 db be 7b 5e a0 be 5c 66 22 3f
       -0.2792955 -0.42811033 -0.31322083 0.6343744
0000a0 6e 45 2d bf 40 8f c9 bf 27 90 71 be 17 97 01 bf
       -0.67684066 -1.5746841 -0.23590146 -0.5062117
0000b0 07 53 76 bf da 58 1c bd 16 c8 ee 3e 6d df 8d 3f
       -0.9622044 -0.038170673 0.46637028 1.1083809
0000c0 69 55 06 c0 11 97 0e c0 a6 9b 92 bf 39 2e b0 bd
       -2.098963 -2.2279704 -1.145375 -0.08602566
0000d0 9c fe db be 87 c3 93 3f c6 5b 3f bf da 4a 5a bf
       -0.4296769 1.1544045 -0.7474941 -0.85270464
0000e0 2e 50 c0 bf 26 30 ec 3f 2a 42 cc 3e 91 71 d6 3f
       -1.5024469 1.8452194 0.3989423 1.6753408
0000f0 83 3f 11 bf a4 6e c8 3d d5 63 78 bf a7 b7 9f be
       -0.56737536 0.09786728 -0.9702733 -0.31194803
000100 f4 a0 c0 3e ee ff 23 bd 88 27 86 3e 66 fe 24 bf
       0.37622797 -0.040038995 0.26202035 -0.6445068
000110 a6 b2 c8 3e 08 ae 15 3f 0d ad 64 3e e6 f2 60 3f
       0.39198798 0.58468676 0.22331639 0.87870634
000120 7a 11 ec 3f dc c8 dd 3e 61 fe 5f bf 45 c5 e4 3e
       1.8442833 0.43317306 -0.87497526 0.44681755
000130 ec 63 97 be 47 06 8c 3f 74 9e cd be 50 68 06 3f
       -0.29568422 1.0939416 -0.40159953 0.5250292
000140 89 5b e4 3e 59 68 d1 3e 0a 43 2a bf 77 6a 19 3d
       0.44601086 0.40899923 -0.66508543 0.03745505
000150 13 e9 91 3e 61 63 91 3f 95 10 05 3f b1 12 2a be
       0.28498134 1.1358453 0.5197843 -0.16608693
000160 4b 40 9a bf bf 31 df 3e 68 03 7d 3d 0d f0 97 bb
       -1.2050871 0.4359264 0.061770827 -0.0046367706
000170 8a 06 77 3f 61 fd 80 3f b3 31 0e 3f 72 9c 1c be
       0.9649435 1.0077325 0.55544585 -0.15294054
000180 26 6a 7e be ff c6 6a bd 8e e8 7f bf f4 2a cf 3c
       -0.2484518 -0.057318684 -0.99964225 0.025289036
000190 89 0a 2a 3f bc fe d7 be 09 be 10 3f 9c 6a d6 be
       0.66422325 -0.42186534 0.5653997 -0.41878211
0001a0 50 83 38 3f a1 f8 5a bf 58 9a 38 bf be a8 8f bf
       0.72075367 -0.8553563 -0.7211051 -1.1223371
0001b0 3c 3f a7 3f be 76 ea be b2 6b 08 c0 20 79 d0 3f
       1.3066173 -0.45793718 -2.1315732 1.6286964
0001c0 16 e5 0c c0 03 3f 5d 3f 36 bb fc 3e f3 ba 1d 3f
       -2.2014823 0.86424273 0.4936158 0.61613387
0001d0 63 f2 65 bf 5b db 0f 3f bf ad 0b bf c3 bc 2c bf
       -0.8982298 0.56194085 -0.5456199 -0.6747553
0001e0 b9 92 d2 bf 59 a3 43 3f 83 d0 72 3e 3a 60 cb 3e
       -1.6451026 0.76421124 0.23712353 0.39721853
0001f0 b6 25 e1 bf e9 67 3b be b0 a0 d0 be f7 ac 8a 3f
       -1.7589633 -0.18301357 -0.40747595 1.0834035
000200 9a 6e 80 bf 93 05 67 3f 0a 48 5b bf 60 c5 b7 3f
       -1.0033753 0.9024288 -0.856568 1.4357109
000210 62 61 4b 3f a1 9b 63 bf 8c c7 c3 be 53 ed 43 3e
       0.7944547 -0.88909346 -0.3823818 0.19133501
000220 9c ae f4 be 3c e5 31 3f db 8c 11 bf 21 3a c6 bf
       -0.47789466 0.6949041 -0.56855553 -1.548649
000230 77 58 05 3e ad 44 58 3d 0d d6 03 bf 4e 1d db bf
       0.13022028 0.05279987 -0.5149849 -1.7118318
000240 5d 63 fd bd 47 10 24 3e 27 ee 8f bf 41 c5 6d bf
       -0.12372468 0.16021834 -1.1244553 -0.9287911
000250 10 fc 5a bf f7 2a 31 3f d9 4a 83 3f 2b 53 68 be
       -0.85540867 0.69206184 1.0257217 -0.22687976
000260 40 ff ca be 13 85 15 c0 00 67 85 bf d3 42 02 3f
       -0.39647865 -2.3362472 -1.0422058 0.50883216
000270 2c 61 41 3f f1 25 c6 bd 7d 3f c3 3f e9 89 9d 3f
       0.755389 -0.096752055 1.525375 1.2307712
000280 1c ff 80 be 17 7b 95 3f 39 6a 44 bf 07 30 41 bf
       -0.25194633 1.1678189 -0.7672458 -0.7546391
000290 4c 63 b5 be d4 48 9b bf 51 59 7d 3e c8 a8 ae be
       -0.3542732 -1.21316 0.24741103 -0.34113145
0002a0 6a 60 68 bf 45 c9 09 c0 5b bf 38 3f 36 bb 47 bd
       -0.90772116 -2.1529095 0.72166985 -0.048762523
0002b0 72 e1 7a bf 25 0e 7d 3e 93 e4 07 3f c1 f6 b7 3f
       -0.9800025 0.24712427 0.5308315 1.4372178
0002c0 b9 f0 7c 3f 92 96 f0 3d 23 d7 69 bf 64 1a 3b bf
       0.98804814 0.11747469 -0.913439 -0.73087144
0002d0 62 0a 12 3f 1b 40 13 bf ec c3 37 bf 71 2f 42 bf
       0.5704709 -0.5751969 -0.7178333 -0.7585364
0002e0 f3 7a 8e 3f 1a 34 af 3e 40 7e 93 bd f6 0f 64 bd
       1.1131271 0.34219438 -0.07201815 -0.055679284
0002f0 fb ae cb 3f 48 17 e9 3e 8d b6 c2 be e7 47 17 40
       1.5912775 0.45525575 -0.380299 2.3637636
000300 88 67 d1 3e 8b 0a 1c 3f a9 0e 9a 3f a9 4c a1 bf
       0.408993 0.6095359 1.2035724 -1.260152
000310 bf 46 86 bf 76 44 c9 bf 55 0a 4a 3f 2d 36 a7 3e
       -1.049034 -1.5724018 0.78922015 0.3265852
000320 1d a9 7c 3e ed da 2d bf 5d 61 ee be ca 3f 5b bc
       0.24673887 -0.6791218 -0.46558657 -0.013381908
000330 5b 92 63 bf 3a 35 44 3f b2 87 87 bf c2 c5 46 be
       -0.88895196 0.7664372 -1.0588286 -0.19411376
000340 ad 96 b8 be 85 ff 73 3f f0 b3 56 3f 88 a0 ac 3f
       -0.36052456 0.95311767 0.8386831 1.348649
000350 53 e9 1b be ac 4a d1 3d f9 15 b1 3e 62 17 38 3e
       -0.15225725 0.10219321 0.34587076 0.1797767
000360 b2 49 50 bf 07 f4 97 be 3a 24 03 be 74 11 bb be
       -0.8136245 -0.29678366 -0.12806788 -0.36536753
000370 c8 43 ad bf d5 62 6c 3f 4b 92 f8 bf f4 4f 35 bf
       -1.353631 0.92338306 -1.9419645 -0.70825124
000380 f9 bf 14 bf 52 cb ae 3f 7d d0 c9 be 87 48 76 3f
       -0.5810543 1.3655798 -0.39416876 0.9620442
000390 64 81 30 3f aa 15 8e bf d6 95 52 3f 86 d1 39 3f
       0.68947434 -1.1100361 0.8225988 0.7258533
0003a0 9b 51 9e 3f 6f de bc 3f bf 3b 69 be cf c6 29 c0
       1.2368654 1.4755381 -0.22776698 -2.6527593
0003b0 6a 2e a6 3e 91 cf 75 3f b5 1f cb 3e 2f e3 9b 3f
       0.32457286 0.96019846 0.39672628 1.2178706
0003c0 49 79 d0 be b1 a8 53 bf b1 8c 05 3f b4 cd cc 3e
       -0.40717533 -0.8267928 0.52167803 0.4000069
0003d0 d9 5d ca 3e 05 80 c5 be e5 ad fe 3d af aa bf 3f
       0.39524725 -0.38574234 0.124355115 1.4973963
0003e0 dc 1a 33 be c5 cc 75 3f cb fe 7a 3f 55 d3 7b bf
       -0.17490715 0.9601558 0.98045033 -0.9836934
0003f0 2d d8 5e bf ef ab 6b be 6b aa 1a bf 33 87 9f 3f
       -0.8704861 -0.23014806 -0.6041629 1.2463135

position_embedding_table.weight f4 [32, 64]
000000 15 ed db 3f 63 64 b9 3e 95 27 3f be 72 f3 ad be
       1.7181727 0.362094 -0.18667443 -0.33974797
000010 20 ea a9 be c2 91 e2 3e cd d4 c8 bf 89 71 20 be
       -0.33186436 0.4425183 -1.5689942 -0.1566831
000020 55 f9 b0 3f 79 7e ed 3d 96 7b 58 bf b9 d5 08 c0
       1.382609 0.11596388 -0.8456358 -2.1380446
000030 7a ca 38 bd 1c 4d eb be cf 40 ff 3f 4e ec 1a 3f
       -0.04511497 -0.45957267 1.9941653 0.6051682
000040 2f 1c 8d 3f a6 60 2f bd ac d8 0c 3f 6f e1 83 3f
       1.1024226 -0.04281678 0.55018115 1.0303172
000050 c1 ad 53 3e 16 88 72 3c 04 a6 47 3f 27 3e 98 be
       0.2067175 0.014802953 0.77987695 -0.29734918
000060 0a e9 85 be 10 db 10 be 16 ca a7 bf 03 9d d9 3f
       -0.26154357 -0.14146066 -1.3108547 1.7001041
000070 47 d7 56 be 50 c7 97 bd ae b0 e3 3e 8f e8 5d 3f
       -0.2098056 -0.07411063 0.44470733 0.8668298
000080 6d 32 05 40 84 93 e1 3f 67 74 cc bf 62 3d 81 bf
       2.0812027 1.7623143 -1.5973023 -1.0096858
000090 9f 0f 34 bf f0 6d 8c bf c2 36 17 3f 58 19 0d bf
       -0.70336336 -1.097105 0.5906793 -0.55116796
0000a0 10 bc 53 bf 3f 38 59 3f da db da bb b7 c9 2a 3f
       -0.82708836 0.8485145 -0.0066790404 0.6671404
0000b0 23 8b 9a bf c9 15 29 bf a8 d1 6d bf 38 7e b6 3e
       -1.2073711 -0.66048867 -0.92898035 0.35643172
0000c0 69 48 c2 3e ec c1 8f 3e 22 8b 32 bf 55 1c 8b 3f
       0.3794587 0.28077638 -0.6974355 1.0868021
0000d0 e3 0c f1 be 6b 66 98 bf 55 6b 38 c0 ef ea e2 3d
       -0.47080144 -1.1906255 -2.881551 0.11079966
0000e0 be 74 bf bc 7d 7e 02 3e af c9 2d 3e af 44 22 3f
       -0.023371097 0.12743564 0.16971467 0.6338605
0000f0 b9 bf d1 3f 75 a2 89 bf 05 96 d2 3e 37 0c 3f 3c
       1.6386634 -1.0752703 0.4113008 0.011660627
000100 f4 8a 5e 3f fb e5 02 3f 0d df 07 c0 7c 7b 90 3f
       0.86930776 0.5113217 -2.122989 1.1287684
000110 40 45 1d bf 88 7a 41 3f 5a 91 8c 3e 92 99 10 40
       -0.6143379 0.7557759 0.27454644 2.2593732
000120 de aa 31 bd 16 2f 6d 3d 27 96 cc 3e e5 be d0 bf
       -0.043375842 0.057906233 0.39958307 -1.6308256
000130 7c e6 32 bf db 94 80 3f 6e 57 79 bd 92 d4 0e 3f
       -0.6988294 1.0045427 -0.060874395 0.55793107
000140 eb 89 03 bf 9a c3 ad be 54 d0 9d bf da d2 8d 3f
       -0.5138232 -0.33938295 -1.2329202 1.1079972
000150 e8 13 5d bf 0d be 03 bf ff 38 66 bf 96 c3 75 bf
       -0.863585 -0.5146187 -0.8993072 -0.96001565
000160 b8 14 9b bd a5 7b 02 3e da ac 08 3f 32 76 9a 3f
       -0.07572311 0.12742479 0.5338875 1.206732
000170 2b e4 02 3f 46 d9 89 bd 0a d6 fb 3f 12 38 be be
       0.51129407 -0.06730895 1.9674695 -0.37152153
000180 3d 37 31 3f fe c0 1e bf c0 20 2c bf 38 23 d2 be
       0.6922491 -0.6201323 -0.6723747 -0.41042495
000190 1c 19 25 bf f5 8d 33 bd 99 19 1c bf b8 70 6b 3f
       -0.6449144 -0.043836553 -0.6097656 0.9196887
0001a0 8e a2 de 3e 65 29 21 3f 89 fa a3 bf e5 1e 03 be
       0.43483394 0.6295379 -1.2810832 -0.12804754
0001b0 c9 95 b8 be 94 67 14 be a4 18 56 3f 27 af d4 3e
       -0.36051777 -0.14492637 0.8363135 0.4153988
0001c0 a8 53 37 be 7c a8 cb 3f 03 11 79 be 26 fc 30 3f
       -0.17903006 1.5910792 -0.24322896 0.6913475
0001d0 ef 5e 6b bf 2c 94 34 bf 63 97 5f 3e a8 9f 69 3f
       -0.9194173 -0.7053859 0.21835093 0.9125924
0001e0 d9 d4 41 3f c2 f0 be bf aa 7f d2 3e 58 1c b6 3f
       0.75715405 -1.4917223 0.41113025 1.42274
0001f0 24 95 12 3f fa fb 9a bf 0b fd b0 3d a6 13 e1 be
       0.5725882 -1.2108147 0.08642014 -0.43960303
000200 fc 05 b8 3e 5e b7 4f be 2a ff 55 3e 8f 1b 14 bf
       0.35942066 -0.20284793 0.20898119 -0.5785455
000210 88 74 45 bf 8a d9 01 3e cb 10 c0 3e 3d a3 a4 3c
       -0.7713094 0.12680641 0.37512812 0.02009737
000220 3b d4 78 be ca 12 9a bf 2d 9b 8c be 3d 8a 85 be
       -0.2429971 -1.2036984 -0.2746214 -0.2608203
000230 ee fb ff 3f 05 74 d8 bf 1c 4a 42 3f 5c 46 9a bf
       1.9998758 -1.6910406 0.7589433 -1.2052722
000240 44 ee 8b 3e 42 da 78 3f 9c d8 8c bd d2 37 78 3f
       0.2733022 0.97208035 -0.068772525 0.96960175
000250 4c d1 3b 3f 3a b3 4a 3f fc 0d 6d 3f e7 29 47 bf
       0.73366237 0.7917973 0.92599463 -0.7779831
000260 32 c0 93 bf 43 ac c5 3e 44 4e 53 3e 1e 0a e8 3e
       -1.1543028 0.38607988 0.20635325 0.4532022
000270 8e a0 89 3f 3a 9d 00 3d 0a 53 31 3f f6 e5 a9 3d
       1.0752122 0.031399943 0.6926733 0.08295815
000280 28 4b 99 3d 2c e4 50 be 82 7f 90 bf cf 23 ae 3d
       0.07485038 -0.2039954 -1.1288912 0.08502924
000290 d1 0e ea bf e7 f3 92 bf 22 21 36 3d fb 5c ad bf
       -1.8285772 -1.1480683 0.04446519 -1.3544
0002a0 89 20 cf bf 8a c4 3e be 66 c0 d2 bf 46 c5 00 be
       -1.6181804 -0.18629661 -1.6464965 -0.12575254
0002b0 0b 7a 8a be a3 00 1b 3f a6 68 10 3f 0a 89 5a be
       -0.27046236 0.60547847 0.5640968 -0.21341339
0002c0 a8 72 f4 3e 9c 8b 42 be 7b 42 fc 3d ec 04 fe be
       0.47743726 -0.18998569 0.12317368 -0.4961313
0002d0 a8 c1 81 be cb f7 5c be 01 88 9e bd 4e 55 b7 bf
       -0.2534306 -0.215789 -0.077407844 -1.4322908
0002e0 00 76 ab 3e c1 b0 e7 3f 02 65 17 40 38 14 9f 3f
       0.33488464 1.8100816 2.36554 1.2428045
0002f0 a6 f8 cc 3e f6 f0 5a be fc 0e 27 3f 2b ac a5 bf
       0.40033454 -0.21380982 0.6525724 -1.2943166
000300 36 17 3f 3f 22 39 a2 3f 3f 2b ea be a6 6e 74 bf
       0.7464479 1.2673686 -0.4573612 -0.95481336
000310 32 99 20 3f 89 6c 80 3e 97 79 ad be 05 98 d0 be
       0.6273376 0.25082806 -0.33881828 -0.40740982
000320 1a d2 cb 3e 11 3c f0 be 2c ed b4 3e 7b a7 00 40
       0.39808732 -0.46920827 0.35337198 2.0102222
000330 dd 97 45 3f 2a 71 87 be cf 1b 1f 3f 51 b5 be 3f
       0.7718485 -0.26453525 0.6215181 1.4899083
000340 85 57 9a 3d 69 8c 03 40 5f 12 23 3f c3 b4 67 3f
       0.07536224 2.055445 0.6369991 0.90510195
000350 e1 f6 0e 3f d8 55 6f 3d 9f 3b ac 3e bc da 8d bf
       0.5584546 0.058431476 0.33639237 -1.1082377
000360 f3 4c bf bf 0d a7 dc 3e d9 4c c0 3e 4a eb 89 3f
       -1.4945358 0.430962 0.3755863 1.077493
000370 ff 3d 02 3f f5 c0 53 3e 4b 1d 9e 3f 1b fb d0 bd
       0.5087585 0.20679076 1.235269 -0.102041446
000380 04 8a d2 3f dc 30 11 bf bf c2 40 3d 22 e9 1a 3e
       1.6448369 -0.5671518 0.047060724 0.15127996
000390 19 fd c9 3f fe e8 89 bd 8c c9 82 bf bc 0b b7 be
       1.5780364 -0.06733893 -1.0217757 -0.3575114
0003a0 ac 3a ad 3e 14 ac d2 3f c4 4f c4 be 60 85 a6 be
       0.33833826 1.6458764 -0.38342106 -0.32523632
0003b0 51 00 55 3f c6 43 8e 3f 9c a0 15 3e 12 b8 32 bf
       0.8320361 1.1114433 0.14612049 -0.6981212
0003c0 03 8a d2 3e 0d 80 82 bf 3f 47 9b 3f 7b c8 ea 3e
       0.4112092 -1.0195328 1.2131118 0.4585608
0003d0 b6 6b 09 bf 71 c4 3f bf ba 89 39 bf 10 c2 f9 bd
       -0.5367998 -0.7490912 -0.7247578 -0.121952176
0003e0 c6 19 e2 bd c4 16 a9 bf 48 e7 84 3f 80 29 2a 3f
       -0.11040072 -1.3210073 1.0383081 0.66469574
0003f0 39 27 60 bf 46 0e b4 3d 61 38 16 3f 5f 0e 76 bf
       -0.8755985 0.08791785 0.5867978 -0.9611568

blocks.0.sa.heads.0.tril f4 [32, 32]
000000 00 00 80 3f 00 00 00 00 00 00 00 00 00 00 00 00
       1.0 0.0 0.0 0.0
000010 00 00 00 00 00 00 00 00 00 00 00 00 00 00 00 00
       0.0 0.0 0.0 0.0
000020 00 00 00 00 00 00 00 00 00 00 00 00 00 00 00 00
       0.0 0.0 0.0 0.0
000030 00 00 00 00 00 00 00 00 00 00 00 00 00 00 00 00
       0.0 0.0 0.0 0.0
000040 00 00 00 00 00 00 00 00 00 00 00 00 00 00 00 00
       0.0 0.0 0.0 0.0
000050 00 00 00 00 00 00 00 00 00 00 00 00 00 00 00 00
       0.0 0.0 0.0 0.0
000060 00 00 00 00 00 00 00 00 00 00 00 00 00 00 00 00
       0.0 0.0 0.0 0.0
000070 00 00 00 00 00 00 00 00 00 00 00 00 00 00 00 00
       0.0 0.0 0.0 0.0
000080 00 00 80 3f 00 00 80 3f 00 00 00 00 00 00 00 00
       1.0 1.0 0.0 0.0
000090 00 00 00 00 00 00 00 00 00 00 00 00 00 00 00 00
       0.0 0.0 0.0 0.0
0000a0 00 00 00 00 00 00 00 00 00 00 00 00 00 00 00 00
       0.0 0.0 0.0 0.0
0000b0 00 00 00 00 00 00 00 00 00 00 00 00 00 00 00 00
       0.0 0.0 0.0 0.0
0000c0 00 00 00 00 00 00 00 00 00 00 00 00 00 00 00 00
       0.0 0.0 0.0 0.0
0000d0 00 00 00 00 00 00 00 00 00 00 00 00 00 00 00 00
       0.0 0.0 0.0 0.0
0000e0 00 00 00 00 00 00 00 00 00 00 00 00 00 00 00 00
       0.0 0.0 0.0 0.0
0000f0 00 00 00 00 00 00 00 00 00 00 00 00 00 00 00 00
       0.0 0.0 0.0 0.0
000100 00 00 80 3f 00 00 80 3f 00 00 80 3f 00 00 00 00
       1.0 1.0 1.0 0.0
000110 00 00 00 00 00 00 00 00 00 00 00 00 00 00 00 00
       0.0 0.0 0.0 0.0
000120 00 00 00 00 00 00 00 00 00 00 00 00 00 00 00 00
       0.0 0.0 0.0 0.0
000130 00 00 00 00 00 00 00 00 00 00 00 00 00 00 00 00
       0.0 0.0 0.0 0.0
000140 00 00 00 00 00 00 00 00 00 00 00 00 00 00 00 00
       0.0 0.0 0.0 0.0
000150 00 00 00 00 00 00 00 00 00 00 00 00 00 00 00 00
       0.0 0.0 0.0 0.0
000160 00 00 00 00 00 00 00 00 00 00 00 00 00 00 00 00
       0.0 0.0 0.0 0.0
000170 00 00 00 00 00 00 00 00 00 00 00 00 00 00 00 00
       0.0 0.0 0.0 0.0
000180 00 00 80 3f 00 00 80 3f 00 00 80 3f 00 00 80 3f
       1.0 1.0 1.0 1.0
000190 00 00 00 00 00 00 00 00 00 00 00 00 00 00 00 00
       0.0 0.0 0.0 0.0
0001a0 00 00 00 00 00 00 00 00 00 00 00 00 00 00 00 00
       0.0 0.0 0.0 0.0
0001b0 00 00 00 00 00 00 00 00 00 00 00 00 00 00 00 00
       0.0 0.0 0.0 0.0
0001c0 00 00 00 00 00 00 00 00 00 00 00 00 00 00 00 00
       0.0 0.0 0.0 0.0
0001d0 00 00 00 00 00 00 00 00 00 00 00 00 00 00 00 00
       0.0 0.0 0.0 0.0
0001e0 00 00 00 00 00 00 00 00 00 00 00 00 00 00 00 00
       0.0 0.0 0.0 0.0
0001f0 00 00 00 00 00 00 00 00 00 00 00 00 00 00 00 00
       0.0 0.0 0.0 0.0
000200 00 00 80 3f 00 00 80 3f 00 00 80 3f 00 00 80 3f
       1.0 1.0 1.0 1.0
000210 00 00 80 3f 00 00 00 00 00 00 00 00 00 00 00 00
       1.0 0.0 0.0 0.0
000220 00 00 00 00 00 00 00 00 00 00 00 00 00 00 00 00
       0.0 0.0 0.0 0.0
000230 00 00 00 00 00 00 00 00 00 00 00 00 00 00 00 00
       0.0 0.0 0.0 0.0
000240 00 00 00 00 00 00 00 00 00 00 00 00 00 00 00 00
       0.0 0.0 0.0 0.0
000250 00 00 00 00 00 00 00 00 00 00 00 00 00 00 00 00
       0.0 0.0 0.0 0.0
000260 00 00 00 00 00 00 00 00 00 00 00 00 00 00 00 00
       0.0 0.0 0.0 0.0
000270 00 00 00 00 00 00 00 00 00 00 00 00 00 00 00 00
       0.0 0.0 0.0 0.0
000280 00 00 80 3f 00 00 80 3f 00 00 80 3f 00 00 80 3f
       1.0 1.0 1.0 1.0
000290 00 00 80 3f 00 00 80 3f 00 00 00 00 00 00 00 00
       1.0 1.0 0.0 0.0
0002a0 00 00 00 00 00 00 00 00 00 00 00 00 00 00 00 00
       0.0 0.0 0.0 0.0
0002b0 00 00 00 00 00 00 00 00 00 00 00 00 00 00 00 00
       0.0 0.0 0.0 0.0
0002c0 00 00 00 00 00 00 00 00 00 00 00 00 00 00 00 00
       0.0 0.0 0.0 0.0
0002d0 00 00 00 00 00 00 00 00 00 00 00 00 00 00 00 00
       0.0 0.0 0.0 0.0
0002e0 00 00 00 00 00 00 00 00 00 00 00 00 00 00 00 00
       0.0 0.0 0.0 0.0
0002f0 00 00 00 00 00 00 00 00 00 00 00 00 00 00 00 00
       0.0 0.0 0.0 0.0
000300 00 00 80 3f 00 00 80 3f 00 00 80 3f 00 00 80 3f
       1.0 1.0 1.0 1.0
000310 00 00 80 3f 00 00 80 3f 00 00 80 3f 00 00 00 00
       1.0 1.0 1.0 0.0
000320 00 00 00 00 00 00 00 00 00 00 00 00 00 00 00 00
       0.0 0.0 0.0 0.0
000330 00 00 00 00 00 00 00 00 00 00 00 00 00 00 00 00
       0.0 0.0 0.0 0.0
000340 00 00 00 00 00 00 00 00 00 00 00 00 00 00 00 00
       0.0 0.0 0.0 0.0
000350 00 00 00 00 00 00 00 00 00 00 00 00 00 00 00 00
       0.0 0.0 0.0 0.0
000360 00 00 00 00 00 00 00 00 00 00 00 00 00 00 00 00
       0.0 0.0 0.0 0.0
000370 00 00 00 00 00 00 00 00 00 00 00 00 00 00 00 00
       0.0 0.0 0.0 0.0
000380 00 00 80 3f 00 00 80 3f 00 00 80 3f 00 00 80 3f
       1.0 1.0 1.0 1.0
000390 00 00 80 3f 00 00 80 3f 00 00 80 3f 00 00 80 3f
       1.0 1.0 1.0 1.0
0003a0 00 00 00 00 00 00 00 00 00 00 00 00 00 00 00 00
       0.0 0.0 0.0 0.0
0003b0 00 00 00 00 00 00 00 00 00 00 00 00 00 00 00 00
       0.0 0.0 0.0 0.0
0003c0 00 00 00 00 00 00 00 00 00 00 00 00 00 00 00 00
       0.0 0.0 0.0 0.0
0003d0 00 00 00 00 00 00 00 00 00 00 00 00 00 00 00 00
       0.0 0.0 0.0 0.0
0003e0 00 00 00 00 00 00 00 00 00 00 00 00 00 00 00 00
       0.0 0.0 0.0 0.0
0003f0 00 00 00 00 00 00 00 00 00 00 00 00 00 00 00 00
       0.0 0.0 0.0 0.0

blocks.0.sa.heads.0.key.weight f4 [16, 64]
000000 ea 65 81 3e 0d 90 8a bd 90 2d 6b bd a4 9d c6 bd
       0.25273067 -0.06765757 -0.0574165 -0.09698036
000010 a3 69 b2 bd b2 82 03 3f e7 6d 8e 3e 4a 67 2b be
       -0.08711555 0.513713 0.27818224 -0.1673862
000020 9e 0c 80 bc 50 75 6f 3e 43 93 c8 bd d2 6c 90 be
       -0.015631016 0.23384595 -0.09793713 -0.28208023
000030 65 f6 95 3e 07 8e 57 3e 17 4b f4 bd 64 33 79 3d
       0.29289547 0.21050273 -0.11928385 0.060840026
000040 ba bd fe 3b 64 db af 3d b4 c8 0e 3e f0 e0 d2 bd
       0.007774082 0.08586767 0.1394375 -0.1029681
000050 c2 8c 08 be ec dc 86 3e 53 21 48 3e db 4a 91 be
       -0.13334945 0.26340425 0.19543962 -0.28377423
000060 da 81 54 3d 3e 13 93 bc ad c7 00 bc e7 ac 1f 3e
       0.05188165 -0.017953511 -0.007860106 0.15593301
000070 9b aa ae be 44 2e 01 bd ea f2 84 be 73 a9 cc bc
       -0.34114537 -0.031538263 -0.2596658 -0.024983143
000080 51 74 e3 3c f3 67 12 bd 03 8f 1a 3d d1 b5 b2 be
       0.027765425 -0.035743665 0.037734043 -0.3490434
000090 1e 7d 6d 3c ff d5 84 3e 9b 78 0a be 12 bd d3 3d
       0.014495162 0.25944516 -0.1352257 0.10338797
0000a0 f8 e9 06 3e 86 dc 6a bc 9a 24 4a be 66 52 ef 3d
       0.1317519 -0.014334803 -0.19740525 0.11685638
0000b0 e7 95 38 be 7a 3c 52 be 5b 16 9c 3c d4 8f 1e 3d
       -0.18025933 -0.20530882 0.019053629 0.038711384
0000c0 e0 a9 27 bd da b5 81 3e 5d 77 14 be 57 fe d5 3d
       -0.04093349 0.25334054 -0.14498658 0.10448902
0000d0 d3 99 8e 3e 53 aa 6e bd d9 92 22 3e 56 d8 3f bc
       0.27851734 -0.058267903 0.1587633 -0.011709293
0000e0 c7 ef 86 bd 18 2d b7 bd 24 9e de 3b 98 83 30 3e
       -0.06588703 -0.08944148 0.006793754 0.17237699
0000f0 f3 3f 1a 3e 7a fd 8f bc fe 56 72 3e da 54 20 bd
       0.15063457 -0.017576922 0.23665997 -0.03914342
000100 77 5a 4b 3d f1 46 65 3e dd af c5 bd 2d a0 d4 3d
       0.04964682 0.22390343 -0.09652684 0.103821136
000110 3e ce eb 3d 54 ab 9d bc 3e 90 ac bb 7f 5a a2 3d
       0.11513947 -0.019246735 -0.0052662184 0.07927417
000120 62 4a 8d be 04 96 04 bd 6f 9e 02 3e 24 22 ee ba
       -0.27595812 -0.03236963 0.1275575 -0.0018168134
000130 b4 8d 27 3d dc 90 3b bc e1 f4 c5 bd 3f a3 00 be
       0.040906623 -0.011448111 -0.096658476 -0.12562273
000140 b2 5e a5 bd 45 9a 83 bb 39 24 f2 3d f2 a9 18 bd
       -0.08074702 -0.004016193 0.11823315 -0.037271447
000150 dc 8e a3 be 19 87 be 3d 4d 25 aa be 32 1d ab bc
       -0.3194493 0.093031116 -0.33231583 -0.020887945
000160 56 ce fb 3b 55 2b 26 be ae ac 3b 3d d9 19 99 3e
       0.0076845093 -0.16227467 0.045818977 0.29902533
000170 8e 37 89 be f1 9b 60 be 0c 6e a3 3e 07 83 77 bb
       -0.26800197 -0.21934487 0.31919897 -0.0037767307
000180 07 79 8d 3d ef 0d 94 3c 31 ec b5 3d 2a 4d 40 3e
       0.0690785 0.01807305 0.088829406 0.18779436
000190 da 96 ca bb 63 2a 46 3e 03 73 20 bd 59 b9 35 be
       -0.0061825337 0.19352107 -0.039172184 -0.17746486
0001a0 00 66 8f bd 47 2b 95 bc d6 a5 86 be f4 23 ee bd
       -0.07001877 -0.018209113 -0.26298398 -0.11627951
0001b0 8a 0f d3 3d 69 f2 f5 bd 24 56 24 bb 87 db 79 3d
       0.10305698 -0.12009127 -0.0025075758 0.061000373
0001c0 1b f5 05 bc 32 20 87 3e 13 f8 b7 3e a8 96 28 bd
       -0.0081761135 0.2639175 0.35931453 -0.041159302
0001d0 dc bb 4f be 56 5f c9 3c 1d e3 23 bd 2d b0 c6 bd
       -0.20286506 0.024581593 -0.040011514 -0.097015716
0001e0 4f 4c d9 3d be 51 64 3e 92 89 34 3e cf e6 77 bd
       0.10610258 0.22296807 0.17630604 -0.06052285
0001f0 23 da 13 3e 72 a4 bc bd 3b 95 20 3e e5 3f 53 bd
       0.14438681 -0.09211053 0.15681927 -0.051574606
000200 ea 41 8e 3e c0 c5 a9 be 90 e5 8b 3e 4d 99 d6 3d
       0.27784663 -0.33158684 0.2732358 0.104784586
000210 6f b3 ec 3c 25 49 0f 3d 75 ef bc 3c 49 9d 73 be
       0.028894154 0.034981865 0.0230634 -0.23790468
000220 cc 49 59 be f2 8f 88 3d ad ea 0d be 85 2a eb bb
       -0.21219558 0.066680804 -0.13859053 -0.0071766996
000230 4f d1 d2 3d ea 2b 50 3e 0f d3 2f bb 9f 93 88 bb
       0.10293829 0.20329252 -0.0026828682 -0.0041679884
000240 09 1b 95 3d ee 3e 6f be f0 38 0b be 42 0d 22 bc
       0.07280547 -0.2336385 -0.13595939 -0.009890856
000250 76 d9 70 be 6a 29 03 3a d1 fa 26 be f7 ea ca 3d
       -0.23520455 0.00050034246 -0.16306616 0.09908097
000260 2d a0 12 bd c3 32 bc bd 43 b7 01 3d 56 d0 b7 be
       -0.035797287 -0.091893695 0.031668913 -0.35901135
000270 87 38 a1 3e a4 1a 26 3c 48 96 f5 3d 96 72 f8 bc
       0.3148844 0.010138188 0.119915545 -0.030328076
000280 ff 26 27 be db c8 6a 3e 2f 7c 3d 3e 35 7e 33 3d
       -0.1632347 0.22928183 0.18504404 0.043821532
000290 76 85 b7 3e b1 3d 97 3e 0a 19 3d 3b 73 db dc bd
       0.3584401 0.29539254 0.0028854036 -0.10784044
0002a0 15 ff 22 be ec 83 42 3d e2 c9 78 be 39 02 51 3e
       -0.15917619 0.04748909 -0.24295762 0.20411004
0002b0 92 97 6d 3e 14 c2 9d ba f7 5d 40 be 72 f3 34 be
       0.2320235 -0.0012035989 -0.18785845 -0.17670992
0002c0 c1 ec 20 bd e6 f5 68 bc 74 b6 c3 3c 3b 12 36 be
       -0.039288286 -0.014218783 0.023890711 -0.17780392
0002d0 c5 3d 8f 3e e4 11 be bb d4 99 8f bc 53 0e dd 3d
       0.27976814 -0.0058004726 -0.017529406 0.10793748
0002e0 e8 28 50 3c b7 47 7d 3e b6 dd 83 be 38 ae 9f 3d
       0.012705065 0.24734388 -0.2575509 0.077969015
0002f0 29 1f 0a be 67 90 96 3b 18 ab 88 bd c6 12 6d be
       -0.13488449 0.004594851 -0.066732585 -0.23151693
000300 a4 c6 87 be b5 d1 7e be 83 b2 d2 3d e0 5b b5 bd
       -0.26518738 -0.24884684 0.10287955 -0.088554144
000310 ef b7 54 3b 7b e1 f3 bc c8 e9 44 be 0a cb 44 bd
       0.0032458266 -0.029770603 -0.19229805 -0.048045196
000320 01 26 d2 bd 45 f3 07 be e1 d7 1f bd ec 0f 5d bc
       -0.10261155 -0.13276394 -0.039024238 -0.013492566
000330 7e 75 a7 bc 27 5e 3a 3e 60 64 04 3e 15 df 88 bc
       -0.020441767 0.18199979 0.12928915 -0.016707936
000340 d7 ef 72 3c 35 2c 91 3e 02 af 76 3d 10 2e a3 3d
       0.01482769 0.2835404 0.060225494 0.0796777
000350 dd 18 27 3e 35 11 82 be e1 a0 0e be 82 81 3f bd
       0.16318078 -0.25403753 -0.13928558 -0.046754368
000360 53 2f 30 be 1d c5 23 bc 8f 00 8c be 98 09 a1 bd
       -0.17205553 -0.009995726 -0.27344176 -0.07863158
000370 2b dd b4 be c9 80 83 3d 5b 4a 18 be 63 76 1b be
       -0.35324988 0.06421048 -0.14872114 -0.1518188
000380 61 73 ab be 4f a4 aa 3e 5a d4 dc bd 80 ba 82 be
       -0.33486465 0.33328483 -0.1078269 -0.25532913
000390 99 b6 0e bd 5d 9f 2d bc 0c 08 ec bd af 24 51 3d
       -0.034842107 -0.010597077 -0.11524972 0.051060375
0003a0 c7 65 6e 3e 0c 53 ed bd d7 85 c2 bc a6 6c 73 bd
       0.23281012 -0.115881056 -0.02374546 -0.059429787
0003b0 8a 17 32 3e 4d 75 72 bc 3d 97 fd bb 90 1a 8b bd
       0.17391792 -0.0147984745 -0.0077389763 -0.06792176
0003c0 6c 26 f7 3d a1 9f d5 3d 8f e5 f9 3e 05 5f 16 3e
       0.12067875 0.104308374 0.48807952 0.14684685
0003d0 91 7f 0b 3e a0 87 26 bd 98 71 10 3f 0c 11 39 be
       0.13622881 -0.040656686 0.5642333 -0.18072909
0003e0 2e a0 1f be 65 c3 ad 3e 39 99 0a be 41 09 82 bd
       -0.15588447 0.33938137 -0.13535012 -0.06349421
0003f0 14 78 84 3e ab dc 14 3e 88 24 20 be 0d 4a 89 3e
       0.25872862 0.14537303 -0.15638936 0.2681431

blocks.0.sa.heads.0.query.weight f4 [16, 64]
000000 20 08 0e be 35 60 dc 3d 03 be 7e bb 25 a5 f0 3d
       -0.13870287 0.107605375 -0.003887058 0.11750249
000010 87 ea b1 bc 66 94 e8 3e 06 1f c0 3a fc 91 40 3e
       -0.021718277 0.4542572 0.0014657683 0.18805689
000020 16 54 01 be 6e bb 8e 3e 84 b1 3a 3d 09 16 32 3e
       -0.12629732 0.27877373 0.04557945 0.17391218
000030 81 3b 04 3e 83 dc 64 bd 6a 6b c4 be a7 00 1f bc
       0.12913324 -0.05587436 -0.383632 -0.009704745
000040 dd e3 68 3d be 01 ba bd 8a c5 ed 3c 62 99 22 be
       0.056857932 -0.090823635 0.029024858 -0.15878823
000050 e7 63 50 3e f5 f6 f9 3d c7 76 97 be 25 28 98 3a
       0.2035061 0.122053064 -0.29582807 0.0011608644
000060 cf a7 fd 3d e1 45 b8 be 26 9c 00 be 9d 40 21 3e
       0.123855226 -0.35990813 -0.12559566 0.15747304
000070 9c f6 ef bd de 51 95 be a3 d5 56 3e 90 8e bc 3c
       -0.11716959 -0.29164022 0.20979933 0.023017198
000080 08 80 bb 3e 3b 9e 9e bc c1 72 ac bc 30 b6 50 3d
       0.36621118 -0.01936256 -0.021050813 0.050954998
000090 75 2c 88 3e 45 16 e6 3c 2b 5d 38 3e 28 6b 03 be
       0.26596418 0.02808679 0.18004291 -0.12833846
0000a0 4a 44 0b be c4 e3 ac bd dc cd 8d be a6 d4 87 bd
       -0.13600269 -0.0844188 -0.2769612 -0.06632356
0000b0 06 7f ae bd f9 e7 64 bc 62 47 51 3d 69 ef 91 3e
       -0.085203215 -0.013971322 0.051093467 0.28502968
0000c0 60 7a 07 be db 58 fa 3d 4a b5 f6 bd 22 9d e6 bc
       -0.13230276 0.12223979 -0.12046297 -0.028151099
0000d0 fd a8 e1 bd 19 1b d1 bd b2 4f 61 be f1 6b bb bd
       -0.1101856 -0.102102466 -0.22003058 -0.091514476
0000e0 9b 22 4a 3d 65 a2 25 bc b3 c3 3c 3e cc 7a 2f bd
       0.04934941 -0.010109519 0.18434028 -0.042841718
0000f0 e6 77 28 3e b3 c0 f3 bd 6f ad d8 bd 30 7a 7e be
       0.16451988 -0.11901989 -0.10579955 -0.24851298
000100 28 38 59 be 10 69 b8 3e 47 77 c6 3d 0e 0a 6d bd
       -0.21212828 0.36017656 0.09690719 -0.057870917
000110 1b 2e f2 bd 30 c0 9b bd 5c 26 e1 bd 17 39 cc bd
       -0.118252 -0.07605016 -0.109936446 -0.099718265
000120 a6 22 75 3e 7d e1 a4 bd e1 14 c2 3d c9 14 98 bd
       0.23938999 -0.08050821 0.094766386 -0.074258395
000130 0c cc bb bd e6 67 10 be 07 4b 04 3e 8b 6d 50 3d
       -0.09169778 -0.14102134 0.12919246 0.05088572
000140 63 d4 97 3d f9 22 25 bd e5 ce a7 bd 93 db 10 3e
       0.074135564 -0.040316556 -0.08193759 0.14146261
000150 5c 67 cd 3d eb db d8 bd 22 3c c0 bd 5a c3 43 3c
       0.1002948 -0.10588821 -0.093864694 0.011948431
000160 68 84 a3 bd 48 ff 0d be a2 95 40 bd 7b b8 8c 3d
       -0.07984239 -0.13866913 -0.0470177 0.06871124
000170 d9 60 85 3e 21 1d c0 3d e9 65 1c 3d 76 36 17 be
       0.2605045 0.09380556 0.038183127 -0.14766869
000180 4e 1f 90 bc bb 2e 15 be ee cc 6c 3e 7e 26 3d 3d
       -0.017593052 -0.14568608 0.2312505 0.046179287
000190 80 ba ad be a8 0a 09 be 10 40 8f 3e 37 f8 9e be
       -0.3393135 -0.13382971 0.27978563 -0.31048748
0001a0 0c 8b 84 be b8 bd 88 be 22 f8 2d 3d 7e ce b6 bd
       -0.25887334 -0.26707244 0.042472966 -0.08926104
0001b0 f1 a6 85 3e 8a 29 16 3e a2 54 1c bd c3 04 d4 3c
       0.2610393 0.14664283 -0.03816665 0.025881177
0001c0 30 ee 23 3e 5b a8 d9 bd 48 b3 46 3e 5b 65 d1 3d
       0.1600883 -0.106278144 0.19404328 0.1022441
0001d0 1f 3d 7a be c3 0a 3f bd 4f 28 16 bd 40 33 42 3d
       -0.24437378 -0.046641123 -0.036659535 0.047412157
0001e0 4a af 4a 3c 04 64 06 bd 14 b4 5a 3e a9 59 e0 bd
       0.012370894 -0.032810226 0.21357757 -0.10954601
0001f0 66 b2 fc 3d 93 06 71 3d ae 3e 2c 3c 14 0d b2 ba
       0.12338714 0.05884416 0.010512991 -0.001358422
000200 0a 22 b1 3a 57 0a eb 3e d3 0c 2b be f1 df d8 bd
       0.0013514173 0.45906326 -0.16704111 -0.105895884
000210 da d8 23 bd 91 9a dd bc 57 2e 85 3d ee f8 3f bd
       -0.040001728 -0.027051242 0.06502979 -0.046868257
000220 66 4b 82 be 00 80 86 3e c4 af 68 3d ef 4e 3e 3e
       -0.2544815 0.2626953 0.05680825 0.18584798
000230 59 88 92 be fe eb 33 bc e3 36 de 3d b5 8d 4b 3e
       -0.2861965 -0.010981558 0.108503126 0.19878276
000240 20 23 67 3b 3a 74 06 3f be 42 7b bd be 93 31 3e
       0.003526874 0.525211 -0.061342947 0.17341515
000250 b0 9b e9 3d 70 82 d4 bd ac 64 97 3e a2 45 42 be
       0.11406648 -0.103764415 0.29568994 -0.18971875
000260 d4 07 d4 3d d5 24 6c 3c f2 7d 69 3c 0e 96 13 3d
       0.103530556 0.014413078 0.014251219 0.036031775
000270 8b f9 6e 3e 31 1e ad bd 6e 40 01 3d fb 1b 0d 3e
       0.2333738 -0.08453024 0.031555586 0.13780205
000280 25 4f e0 3d bf 3c ee bc 5d 7e 3f be 40 a0 81 3e
       0.109525956 -0.0290817 -0.18700548 0.25317574
000290 b9 5a 3c 3e 31 b3 d3 bd c4 16 f5 bd b1 51 5f 3d
       0.18393983 -0.103369124 -0.11967233 0.054521266
0002a0 a2 1b 2b be c4 2b 31 be a1 fa d1 3e 05 a7 56 3e
       -0.1670976 -0.17301852 0.41011527 0.2096215
0002b0 fa 73 e4 3d 12 4f 96 bd 60 b4 1c be 63 a8 ac 3d
       0.11154933 -0.073393 -0.15303183 0.08430555
0002c0 95 df 92 be 5d fb 18 3e 45 e4 38 be 7a 97 85 be
       -0.28686205 0.14939637 -0.18055828 -0.2609213
0002d0 c9 51 b1 bd dc 03 35 bd 94 35 2e bd cd f5 c0 3b
       -0.086581774 -0.044193134 -0.042531565 0.0058886767
0002e0 10 21 b3 3d 0b 9a 97 bd 7f c6 b8 bd be 30 03 bd
       0.087465405 -0.07402428 -0.09022235 -0.032028906
0002f0 a9 92 82 3e 50 1f 32 bc fc a1 6c 3e ad e9 0c be
       0.25502518 -0.010871723 0.23108667 -0.13761015
000300 81 3d c8 3d a2 eb 59 3c 69 09 81 3e b6 42 93 be
       0.09777356 0.013300808 0.25202492 -0.28761834
000310 98 a6 03 3e 00 36 8c 3e a3 8c 32 3e 5f 51 25 3e
       0.12856519 0.2738495 0.17436461 0.16144322
000320 0e 83 d2 bc 61 a3 d2 3e 0c fb 2d 3e 3f 51 d4 3d
       -0.025697257 0.41140273 0.16990298 0.10367059
000330 9c 18 32 3e e7 4d 86 bd 18 6f 87 bd 36 35 4e bd
       0.173922 -0.065578274 -0.06612986 -0.050343715
000340 4c 6e a2 3d c4 36 d6 be a5 61 98 bd 02 bf 3e 3d
       0.07931194 -0.41838658 -0.07440499 0.046568878
000350 01 27 c3 bd 0e 73 8b bc 6f 7e d1 3c e7 f1 56 bd
       -0.09528924 -0.017022636 0.025572984 -0.05247679
000360 5b 7c cd bd 2f 1e 08 3e 4f 8e 03 be 47 0d 95 be
       -0.100334845 0.13292764 -0.12847255 -0.29111692
000370 2d 9d cc 3d f2 82 79 bc 70 e4 33 3e e9 e0 58 3e
       0.099909164 -0.015228974 0.1756761 0.21179546
000380 06 63 f3 bc 8d fd 22 3e 7a 41 8b 3d 9e 83 90 be
       -0.029710304 0.15917034 0.06799598 -0.28225416
000390 cc 24 0f 3d c2 cb 7d be 05 a2 ea 3c e8 d8 fe bd
       0.0349472 -0.24784759 0.02864171 -0.12443715
0003a0 93 79 a0 bd 3b c9 79 be 1b e8 dc 3e 92 23 f0 bd
       -0.078356884 -0.2439317 0.43145832 -0.117255345
0003b0 ab 05 b8 bd 9b 88 3e 3e 9f 9f e5 3c 0f 7a ac be
       -0.08985456 0.18606798 0.028030215 -0.33686873
0003c0 4f 7d 33 3e 90 9d 30 bc bd 1d f6 3d 8c b4 3f be
       0.1752827 -0.010779753 0.12017391 -0.18721217
0003d0 a9 69 5d 3d c8 09 56 3e 08 22 bc bd fc c2 fe 3e
       0.054055844 0.20902169 -0.091861784 0.49758136
0003e0 8d 97 00 be 5d dc a1 be 22 6b e0 bd ef ca 2b be
       -0.12557812 -0.31613436 -0.10957934 -0.16776632
0003f0 54 44 56 bd 3d 79 37 be 74 5d 08 be 4d 93 90 be
       -0.052311257 -0.17917342 -0.133169 -0.28237382

blocks.0.sa.heads.0.value.weight f4 [16, 64]
000000 47 35 cd bd 9a dd 28 ba a6 f0 97 bd eb f7 7c bd
       -0.100199275 -0.00064417126 -0.07418947 -0.06175987
000010 bd 75 00 3d ab cf 02 be 35 02 17 3e d0 fe be 3c
       0.031362284 -0.12774532 0.14746936 0.023314863
000020 40 74 d2 3c 2a d9 04 bc 65 6b fb bd 16 a8 e4 3d
       0.025690198 -0.008108417 -0.12276343 0.11164872
000030 bb 6c b8 bc e0 2b d2 3d d2 5a dd 3d f1 d9 91 bd
       -0.022512784 0.10262275 0.10808338 -0.07121647
000040 76 b1 b9 3d e8 16 bd 3d 85 eb 07 bd db ee 23 bd
       0.09067051 0.09232885 -0.033183593 -0.040022712
000050 02 e9 45 be 1f 14 85 be b8 86 c9 bc c9 a6 3b bd
       -0.19327167 -0.25991914 -0.024600372 -0.045813356
000060 30 dc 03 3d 03 44 e6 3c d4 1e d5 bc 8c 0e 2a be
       0.03219241 0.028108602 -0.026015677 -0.16607112
000070 90 bc b2 3c 3f 52 6a 3d bd 4d 32 bd 3d be 74 3d
       0.02181843 0.057207342 -0.04353117 0.059751738
000080 57 37 c7 bd 25 81 8b 3d a1 ae bd 3d 44 65 06 3d
       -0.09727352 0.06811742 0.092618234 0.03281142
000090 c7 05 11 3d 7a bd e8 bc 9c 42 43 3e 76 54 03 bd
       0.0354059 -0.028410662 0.19068378 -0.03206297
0000a0 b4 31 af 3c 2f 36 66 3c d8 5d 2e be 71 83 cf bc
       0.021386005 0.014051004 -0.17027986 -0.02533123
0000b0 15 93 ea 3d 5f 3c 36 bd 07 25 29 3d 78 b0 68 3e
       0.11453835 -0.044491168 0.041295078 0.22723567
0000c0 ba 7b cb 3d 8c a2 be bd 8c 67 b1 bd c0 cb af 3d
       0.09935708 -0.09308347 -0.08662328 0.08583784
0000d0 f4 f2 aa bd 79 37 6b bd 2c 32 ed 3d a2 20 c4 bd
       -0.08347121 -0.05742595 0.11581835 -0.09576537
0000e0 92 7b 99 3d 32 a5 d2 bd 65 72 d7 3d 7c c9 eb bd
       0.07494272 -0.10285415 0.10519866 -0.115130395
0000f0 9d aa 6a bc b9 2d ba 3d 7e 4c 1a be 20 04 56 3e
       -0.014322904 0.09090752 -0.15068242 0.20900011
000100 b2 e4 3a be 28 31 ec 3c fe ea 57 3d 73 9c 54 3d
       -0.18251303 0.028832033 0.05271434 0.051907014
000110 db e8 a4 bc 41 77 e0 3c 01 00 5a 3d d5 fa b0 bd
       -0.020130565 0.027400615 0.05322266 -0.086415924
000120 fa 68 38 3d ab 7a 56 3d c4 b6 09 bd 4b 0b bd 3d
       0.04502199 0.05236308 -0.033621565 0.092306696
000130 0d 84 01 be e8 bb 57 3d c9 31 9b 3d ca 9a 28 3e
       -0.1264803 0.052669436 0.07577855 0.16465297
000140 4f 5b d1 bc 3e d6 8a bd f5 4f ce bd fb 19 33 bd
       -0.025556235 -0.06779145 -0.10073844 -0.04372595
000150 b6 ca 8e 3c b8 f8 d8 bd 59 f5 68 bd 8c 1b ed bd
       0.017430644 -0.10594314 -0.056874607 -0.1157752
000160 e7 4b b9 bd 7c 88 b3 bd ae 4e fd bd dc 9e 01 be
       -0.0904768 -0.08766267 -0.123685226 -0.12658256
000170 1d ae 22 bd 23 0a b0 3d c5 d7 92 3d 26 37 b4 bc
       -0.03971683 0.085956834 0.07170061 -0.021998953
000180 09 f6 5c 3d e1 c1 ef bd 17 f4 ae bd 3c 8a 14 ba
       0.053945575 -0.11706901 -0.0854265 -0.00056663505
000190 0e ff d7 bb d5 5e 7f 3d 83 a8 4c bc 6a d0 99 bc
       -0.006591684 0.0623463 -0.012491348 -0.018776137
0001a0 97 01 37 bd 04 56 7c bd 55 c8 c2 3d 77 b8 15 3e
       -0.04467925 -0.06160547 0.095108666 0.14621149
0001b0 be 5c af bd 0d 1c 06 3e 05 8a ab bd 35 53 09 be
       -0.08562611 0.13096638 -0.083759345 -0.13410647
0001c0 d0 0d f1 3c 02 02 a5 bd a6 36 93 3d 75 f3 a3 bc
       0.029425532 -0.080570236 0.07188158 -0.02001355
0001d0 7a e2 32 3d 54 9e 15 3e f0 64 38 3b 78 fd c8 3d
       0.043673016 0.14611179 0.0028136335 0.0981397
0001e0 21 64 ae bd 56 41 5b 3d e4 54 46 be 39 ab fc 3c
       -0.08515192 0.053529106 -0.1936832 0.030843364
0001f0 f8 a6 0d 3e 7f fa 1d 3e eb b3 11 be a8 4a 26 3e
       0.13833225 0.15427588 -0.1422879 0.16239417
000200 cc 51 5b 3d 75 e7 7a be a7 98 73 3d 65 7e 14 3e
       0.053544804 -0.24502356 0.059471752 0.1450134
000210 ad a1 0d bc a5 99 90 3c 2c f8 56 bc 75 20 d1 bc
       -0.008644504 0.017651388 -0.013120692 -0.025528172
000220 8b eb 7c 3d 84 b7 12 bc 5e 09 ef 3c 77 f1 8c 3d
       0.06174807 -0.008954886 0.029179271 0.06881993
000230 94 e0 12 be 78 b4 78 bd c5 dd 31 3d 5a 6b 44 be
       -0.14343482 -0.060718983 0.043424387 -0.19181576
000240 47 37 ce bb 8a 55 85 bd b8 0b 38 bc 7d dd e3 3d
       -0.0062932107 -0.06510456 -0.011233263 0.1112623
000250 1a 57 86 bd 75 2a 14 bd 97 8e 3a bd 6f 38 18 3e
       -0.06559582 -0.036173303 -0.04554614 0.14865278
000260 88 16 98 3d 4f d3 c6 bd 2b a9 f7 3d 0c 03 88 bd
       0.074261725 -0.09708273 0.12092813 -0.06641206
000270 d3 5e ae 3c a3 a0 34 be 10 a5 a1 bb 2c 2e 49 be
       0.02128545 -0.17639403 -0.004933007 -0.1964652
000280 a2 c5 71 bd d7 88 44 3e d7 e5 17 bd 7e 44 27 3e
       -0.059026368 0.19192825 -0.037084427 0.16334721
000290 b2 10 87 bd 05 72 f7 bd eb 17 2c bc f5 56 4f 3d
       -0.06594981 -0.120822944 -0.010503749 0.050620038
0002a0 6d e0 85 bd 16 20 24 bd 29 da 6d bd c2 6b a9 3d
       -0.065369464 -0.040069662 -0.058069382 0.08272506
0002b0 2a 61 ae 3d 07 e3 10 3d c0 7f 4e bd d8 17 09 be
       0.08514626 0.03537276 -0.0504148 -0.13388002
0002c0 2b bd 58 bd 50 72 68 bd 81 a7 2f 3d d7 32 ea bd
       -0.05291478 -0.056749642 0.042884354 -0.11435478
0002d0 8a 5f 1b 3e de ab 1e 3e 1c ce be bb f7 14 02 3e
       0.15173164 0.1549525 -0.00582291 0.1270331
0002e0 cf ee 2b be d4 1f 08 be 24 55 ad 3c 7d 7b 3a be
       -0.16790317 -0.13293391 0.021158762 -0.1821117
0002f0 ae 31 64 bc fa 4b 8f 3c 45 e7 db bc b8 29 3a bb
       -0.01392786 0.017492283 -0.026843676 -0.0028406214
000300 95 84 01 be f6 9c ac bd f5 90 86 bd 52 06 ad bc
       -0.12648232 -0.084283754 -0.06570617 -0.021121178
000310 df 2b 12 3d 41 61 b9 3d 7a d9 90 bc 80 8c de ba
       0.03568637 0.09051753 -0.017681826 -0.0016979128
000320 37 b8 a8 3d c2 68 22 3e 94 eb 6c 3d c7 2a 29 bd
       0.08238261 0.15860274 0.057841852 -0.04130056
000330 96 cf ce bd e6 c3 a4 bd e3 43 06 be b0 b7 7d bd
       -0.100981876 -0.08045177 -0.13111834 -0.061942756
000340 b2 8a fe 3d 1b 42 b7 3d c4 8c fd bd 65 ac c0 bd
       0.12428798 0.089481555 -0.123803645 -0.09407882
000350 4f c0 81 3d e5 16 21 be 6b cd 8a 3c 8b b1 f4 bc
       0.06335508 -0.1573139 0.016943654 -0.029869815
000360 c0 18 d2 bd 4a 4a f8 bc d9 e6 2f 3e a9 7c 91 bd
       -0.10258627 -0.030308861 0.17177905 -0.07103855
000370 a5 ce 78 bd d5 1c 31 3e c2 e6 08 bd 5b 8a 60 3d
       -0.060743947 0.17296155 -0.033423193 0.054819446
000380 f6 8a e2 3d 3c c4 78 bd 36 1b e7 bd 49 f7 c0 3d
       0.11061661 -0.06073402 -0.11284487 0.09422166
000390 c9 3f 19 bc 56 72 fa 3b cc 12 27 3e 6d c6 e5 3c
       -0.0093535865 0.0076430244 0.16315764 0.028048718
0003a0 06 d2 b9 bd 21 f8 0c 3e 96 4e a7 3d b5 5c 75 be
       -0.09073262 0.13766529 0.08169286 -0.23961146
0003b0 4a 08 2c 3c aa 89 ee 3d fa 90 18 3d b7 9c 96 bd
       0.010500023 0.11647351 0.037247635 -0.0735411
0003c0 87 0a c4 3b 01 e6 02 be 6d b6 37 3b 59 02 3f bd
       0.0059827003 -0.12783052 0.0028032318 -0.0466331
0003d0 ce e1 ed 3d 9b 82 39 3d c4 6b aa 3c 5a a6 3c 3e
       0.116153345 0.04529057 0.02080334 0.18422833
0003e0 89 42 6e bd 7e ca 38 bd 3e 1b 83 3d f9 e6 7a bd
       -0.05816892 -0.045114987 0.064016804 -0.06125543
0003f0 53 2f 83 3d 4c d5 de bb ff dc a5 bd 4e 7d f8 bd
       0.06405511 -0.0068003293 -0.08098792 -0.12133275

blocks.0.sa.heads.1.tril f4 [32, 32]
000000 00 00 80 3f 00 00 00 00 00 00 00 00 00 00 00 00
       1.0 0.0 0.0 0.0
000010 00 00 00 00 00 00 00 00 00 00 00 00 00 00 00 00
       0.0 0.0 0.0 0.0
000020 00 00 00 00 00 00 00 00 00 00 00 00 00 00 00 00
       0.0 0.0 0.0 0.0
000030 00 00 00 00 00 00 00 00 00 00 00 00 00 00 00 00
       0.0 0.0 0.0 0.0
000040 00 00 00 00 00 00 00 00 00 00 00 00 00 00 00 00
       0.0 0.0 0.0 0.0
000050 00 00 00 00 00 00 00 00 00 00 00 00 00 00 00 00
       0.0 0.0 0.0 0.0
000060 00 00 00 00 00 00 00 00 00 00 00 00 00 00 00 00
       0.0 0.0 0.0 0.0
000070 00 00 00 00 00 00 00 00 00 00 00 00 00 00 00 00
       0.0 0.0 0.0 0.0
000080 00 00 80 3f 00 00 80 3f 00 00 00 00 00 00 00 00
       1.0 1.0 0.0 0.0
000090 00 00 00 00 00 00 00 00 00 00 00 00 00 00 00 00
       0.0 0.0 0.0 0.0
0000a0 00 00 00 00 00 00 00 00 00 00 00 00 00 00 00 00
       0.0 0.0 0.0 0.0
0000b0 00 00 00 00 00 00 00 00 00 00 00 00 00 00 00 00
       0.0 0.0 0.0 0.0
0000c0 00 00 00 00 00 00 00 00 00 00 00 00 00 00 00 00
       0.0 0.0 0.0 0.0
0000d0 00 00 00 00 00 00 00 00 00 00 00 00 00 00 00 00
       0.0 0.0 0.0 0.0
0000e0 00 00 00 00 00 00 00 00 00 00 00 00 00 00 00 00
       0.0 0.0 0.0 0.0
0000f0 00 00 00 00 00 00 00 00 00 00 00 00 00 00 00 00
       0.0 0.0 0.0 0.0
000100 00 00 80 3f 00 00 80 3f 00 00 80 3f 00 00 00 00
       1.0 1.0 1.0 0.0
000110 00 00 00 00 00 00 00 00 00 00 00 00 00 00 00 00
       0.0 0.0 0.0 0.0
000120 00 00 00 00 00 00 00 00 00 00 00 00 00 00 00 00
       0.0 0.0 0.0 0.0
000130 00 00 00 00 00 00 00 00 00 00 00 00 00 00 00 00
       0.0 0.0 0.0 0.0
000140 00 00 00 00 00 00 00 00 00 00 00 00 00 00 00 00
       0.0 0.0 0.0 0.0
000150 00 00 00 00 00 00 00 00 00 00 00 00 00 00 00 00
       0.0 0.0 0.0 0.0
000160 00 00 00 00 00 00 00 00 00 00 00 00 00 00 00 00
       0.0 0.0 0.0 0.0
000170 00 00 00 00 00 00 00 00 00 00 00 00 00 00 00 00
       0.0 0.0 0.0 0.0
000180 00 00 80 3f 00 00 80 3f 00 00 80 3f 00 00 80 3f
       1.0 1.0 1.0 1.0
000190 00 00 00 00 00 00 00 00 00 00 00 00 00 00 00 00
       0.0 0.0 0.0 0.0
0001a0 00 00 00 00 00 00 00 00 00 00 00 00 00 00 00 00
       0.0 0.0 0.0 0.0
0001b0 00 00 00 00 00 00 00 00 00 00 00 00 00 00 00 00
       0.0 0.0 0.0 0.0
0001c0 00 00 00 00 00 00 00 00 00 00 00 00 00 00 00 00
       0.0 0.0 0.0 0.0
0001d0 00 00 00 00 00 00 00 00 00 00 00 00 00 00 00 00
       0.0 0.0 0.0 0.0
0001e0 00 00 00 00 00 00 00 00 00 00 00 00 00 00 00 00
       0.0 0.0 0.0 0.0
0001f0 00 00 00 00 00 00 00 00 00 00 00 00 00 00 00 00
       0.0 0.0 0.0 0.0
000200 00 00 80 3f 00 00 80 3f 00 00 80 3f 00 00 80 3f
       1.0 1.0 1.0 1.0
000210 00 00 80 3f 00 00 00 00 00 00 00 00 00 00 00 00
       1.0 0.0 0.0 0.0
000220 00 00 00 00 00 00 00 00 00 00 00 00 00 00 00 00
       0.0 0.0 0.0 0.0
000230 00 00 00 00 00 00 00 00 00 00 00 00 00 00 00 00
       0.0 0.0 0.0 0.0
000240 00 00 00 00 00 00 00 00 00 00 00 00 00 00 00 00
       0.0 0.0 0.0 0.0
000250 00 00 00 00 00 00 00 00 00 00 00 00 00 00 00 00
       0.0 0.0 0.0 0.0
000260 00 00 00 00 00 00 00 00 00 00 00 00 00 00 00 00
       0.0 0.0 0.0 0.0
000270 00 00 00 00 00 00 00 00 00 00 00 00 00 00 00 00
       0.0 0.0 0.0 0.0
000280 00 00 80 3f 00 00 80 3f 00 00 80 3f 00 00 80 3f
       1.0 1.0 1.0 1.0
000290 00 00 80 3f 00 00 80 3f 00 00 00 00 00 00 00 00
       1.0 1.0 0.0 0.0
0002a0 00 00 00 00 00 00 00 00 00 00 00 00 00 00 00 00
       0.0 0.0 0.0 0.0
0002b0 00 00 00 00 00 00 00 00 00 00 00 00 00 00 00 00
       0.0 0.0 0.0 0.0
0002c0 00 00 00 00 00 00 00 00 00 00 00 00 00 00 00 00
       0.0 0.0 0.0 0.0
0002d0 00 00 00 00 00 00 00 00 00 00 00 00 00 00 00 00
       0.0 0.0 0.0 0.0
0002e0 00 00 00 00 00 00 00 00 00 00 00 00 00 00 00 00
       0.0 0.0 0.0 0.0
0002f0 00 00 00 00 00 00 00 00 00 00 00 00 00 00 00 00
       0.0 0.0 0.0 0.0
000300 00 00 80 3f 00 00 80 3f 00 00 80 3f 00 00 80 3f
       1.0 1.0 1.0 1.0
000310 00 00 80 3f 00 00 80 3f 00 00 80 3f 00 00 00 00
       1.0 1.0 1.0 0.0
000320 00 00 00 00 00 00 00 00 00 00 00 00 00 00 00 00
       0.0 0.0 0.0 0.0
000330 00 00 00 00 00 00 00 00 00 00 00 00 00 00 00 00
       0.0 0.0 0.0 0.0
000340 00 00 00 00 00 00 00 00 00 00 00 00 00 00 00 00
       0.0 0.0 0.0 0.0
000350 00 00 00 00 00 00 00 00 00 00 00 00 00 00 00 00
       0.0 0.0 0.0 0.0
000360 00 00 00 00 00 00 00 00 00 00 00 00 00 00 00 00
       0.0 0.0 0.0 0.0
000370 00 00 00 00 00 00 00 00 00 00 00 00 00 00 00 00
       0.0 0.0 0.0 0.0
000380 00 00 80 3f 00 00 80 3f 00 00 80 3f 00 00 80 3f
       1.0 1.0 1.0 1.0
000390 00 00 80 3f 00 00 80 3f 00 00 80 3f 00 00 80 3f
       1.0 1.0 1.0 1.0
0003a0 00 00 00 00 00 00 00 00 00 00 00 00 00 00 00 00
       0.0 0.0 0.0 0.0
0003b0 00 00 00 00 00 00 00 00 00 00 00 00 00 00 00 00
       0.0 0.0 0.0 0.0
0003c0 00 00 00 00 00 00 00 00 00 00 00 00 00 00 00 00
       0.0 0.0 0.0 0.0
0003d0 00 00 00 00 00 00 00 00 00 00 00 00 00 00 00 00
       0.0 0.0 0.0 0.0
0003e0 00 00 00 00 00 00 00 00 00 00 00 00 00 00 00 00
       0.0 0.0 0.0 0.0
0003f0 00 00 00 00 00 00 00 00 00 00 00 00 00 00 00 00
       0.0 0.0 0.0 0.0
